part2/runs/enc_only,epochs=5,batch_size=128,hidden_dim=128,timestamp=2023-03-10_01-27-26/final_model.pt (torch, 888355 bytes, 6 tensors)

lstm.weight_ih_l0 f4 [512, 300]
00000000: 80bf 533e f551 1e3e 2308 873e ec4d 62be
00000010: cf95 803e 32b5 19be 3ae4 8d3e 4a1a 08bd
00000020: ace7 61be a4ab 683e 841e 473e b691 243f
00000030: 3ef5 543e f2af e83e 672c 283e cf33 64be
00000040: 50cd 9f3e 6df0 4a3e 1b3a a83d dd75 d63e
00000050: 1150 07bf a863 103e 92e5 80be d41a aebe
00000060: 8686 4abf f8ee 9b3c 5d02 3e3e d848 3e3e
00000070: 09e2 943d 635f 39bd bafa 69bd 6f67 76be
00000080: ac18 3d3e d67a f03e 0d1b f5be 580b 5c3e
00000090: 6577 cebe b0fc d53e c6a4 0abe 1f23 f1be
000000a0: e8d0 6f3e b547 25be 62e5 863e 1156 0a3f
000000b0: ed87 98be b00c af3e 0ad5 d4bd 58b1 b03e
000000c0: 627d 813e 243b 963d 0aba 77be 74fe 8abe
000000d0: dffb 0e3f 6e02 1c3f d71d d9be df15 9d3e
000000e0: 656b 41be 2819 673e bc25 df3e 7dc8 80be
000000f0: 55ec 21bf 76f9 87be be21 213e 1e66 a83e
00000100: 1270 263f 6db4 9dbd 9721 a9bb 6715 933d
00000110: 172b 4b3e 6f74 a43e b4df afbe c250 6a3e
00000120: 5b59 0c3f f352 e63d 4990 61be 5047 a33e
00000130: 69c9 5c3f 6481 a0bd 5cbe abbe 7859 7f3c
00000140: bf23 59be 3303 64be dc9b 863e efb6 0b3f
00000150: b474 01be 795b bfbe a18f adbe f3b5 15be
00000160: 997d 2abf de78 c43e 2970 423e 1572 7b3e
00000170: f2cc 41bd 1b96 63bf 001c 273f 6fc7 4e3e
00000180: 419a cd3e 51ac ee3d 5982 2bbe df71 573e
00000190: 53b1 0bbe 12d0 163e f567 a4be 3d38 51bf
000001a0: 99d2 d73d 96e8 89be 3587 0a3e a14e 5f3e
000001b0: ba61 20bf c16f a3bd 6c01 b33c 8fcd 88be
000001c0: e1a4 c6bb 3913 ae3d 0998 373f 979e 15be
000001d0: bd40 853e 9550 0f3f 04f7 933e cd0c a2be
000001e0: 5d3e 90bd b20a 5abe 9e62 583d 7f3d dbbe
000001f0: b13d c4be d3c2 963d a50f 52bd 5657 483d
00000200: 0e4b 6a3e c417 fa3e e86f 023e fd20 9dbd
00000210: 2b53 c0be e062 4b3d 4487 033e 3f29 c7be
00000220: a573 5d3e b8be 77be 5e38 db3e 2773 aabe
00000230: 016b 903d b9b8 283e 6301 6c3e 1bbe 4dbe
00000240: 354e 7fbc dcc7 dabd 915c 093e 7dd9 443f
00000250: 9c4c b23e 06b0 b3bd 5e76 9d3e 340d 98be
00000260: a4c0 f1bc 1991 12bf 1c79 03be 5f48 e8be
00000270: aade 3ebb f1d8 86bd 6bf1 833e 7ccf ebbe
00000280: 25f5 05bf 7073 30bf 1bc9 a2bd c774 d53e
00000290: 430e 8d3e abc0 16be e1d7 073f d3e5 ff3e
000002a0: 2aa3 baba 899a 14bf a645 b03d 6d16 eb3d
000002b0: 96ea 303d 2588 7dbe e3dd 75be 8c71 d8be
000002c0: abfe 0dbf f63f e93d 3ba0 06be eeb3 78be
000002d0: 4248 0b3f b86f 7e3e e95f 3bbe a09a a43e
000002e0: 0622 b73c 1c87 a3bc 4f63 0e3d 0090 dabe
000002f0: 642d 0b3f f99e e5be da3c 47be e95c 173e
00000300: 490d 36be c687 043e 66d9 84bd ce0a 46bf
00000310: cb56 d53d 95de 913d 5663 d23c 8774 a3be
00000320: 970f eebe 7ae2 0d3f 53d9 223e 0c87 fd3d
00000330: e7f5 13be 2678 f0be 9592 34bf e936 81be
00000340: e113 ecbd a667 8b3e 5ac9 043f 9ec1 ac3d
00000350: 38af 9ebd 2ca4 543e 015e febe f32f f83d
00000360: efe4 043f a77e de3e eafc b1bc 174f 203d
00000370: 3b4e 4a3b cdc3 df3e ac27 883d 4cc5 153e
00000380: 07ce d0be 4f0e 133f 6bdc 653e b541 2a3e
00000390: de69 a63e 03b0 d33e f18b 16bf ab54 ae3e
000003a0: 7233 60be 7078 b63e edec 0c3f 0e4c a4be
000003b0: 6fa5 2d3f 2b24 b3be 42d9 d9be 0b18 b33e
000003c0: 571a 12bf 1d36 323e cacb 95be a5c9 43be
000003d0: 41b8 483e e384 babe add1 0b3e 80d8 473d
000003e0: 3d42 ca3e 2d3e 55be 260c f93d f711 a03e
000003f0: cd0e ddbe b64f 22be 253b 82be eb88 043e
0.2067852 0.15460952 0.26373395 -0.22100037 0.25114295 -0.15010527 0.27713186 -0.033228196
-0.22061032 0.22721726 0.19445235 0.6428484 0.20796677 0.45446736 0.16423188 -0.22285388
0.31211329 0.19818278 0.08214208 0.41886798 -0.52856547 0.14100516 -0.25175148 -0.34004843
-0.79111516 0.019034848 0.18555589 0.18582475 0.07269675 -0.045256983 -0.057123877 -0.24062894
0.18466443 0.46968716 -0.478722 0.21488702 -0.40325466 0.41794348 -0.13539419 -0.47097108
0.23419535 -0.16140635 0.2634688 0.54037577 -0.29791203 0.34189367 -0.103921965 0.34510303
0.25290972 0.07335499 -0.24192062 -0.27147257 0.55853075 0.6094121 -0.42405578 0.3068075
-0.18888624 0.2256819 0.43583477 -0.2515296 -0.6325124 -0.2655751 0.15735528 0.3289041
0.65014756 -0.07700429 -0.005161475 0.071818165 0.19840656 0.32120082 -0.3435036 0.22882369
0.54823846 0.1124629 -0.22027697 0.31890345 0.8624483 -0.07837179 -0.3354367 0.015585296
-0.21205042 -0.22266845 0.26290786 0.5457601 -0.12642175 -0.37374476 -0.33898643 -0.1462019
-0.66597897 0.38373464 0.18988098 0.24555238 -0.04731459 -0.8890092 0.652771 0.20193265
0.4015675 0.116539605 -0.16748942 0.21039532 -0.13641863 0.1472781 -0.32110563 -0.8172644
0.10538215 -0.2693526 0.1352814 0.21807338 -0.6264912 -0.079803 0.021851264 -0.2671933
-0.0060621356 0.0849976 0.7171636 -0.14611278 0.26025954 0.55982333 0.28899395 -0.3165039
-0.07043145 -0.21293142 0.052828424 -0.42820355 -0.38328317 0.073613785 -0.05128445 0.048911415
0.22880194 0.48846257 0.12738001 -0.07672308 -0.37563452 0.04965484 0.12844568 -0.38898656
0.21626146 -0.24193847 0.42816442 -0.3329098 0.070516594 0.16476716 0.23047404 -0.2009205
-0.015582611 -0.106826514 0.13414218 0.7689436 0.34824073 -0.08773808 0.3075437 -0.29697573
-0.029510804 -0.5725265 -0.12839168 -0.45367715 -0.0029124417 -0.06584347 0.25770125 -0.46056736
-0.52327186 -0.68926144 -0.07948514 0.41690657 0.27549943 -0.14721934 0.5306378 0.4998003
-0.00142393 -0.580483 0.086070344 0.11478887 0.04319247 -0.24758966 -0.24010424 -0.4227413
-0.5546672 0.11389153 -0.1314706 -0.24287388 0.5440713 0.24847305 -0.18298306 0.3214922
0.02235509 -0.019961886 0.034762677 -0.42687988 0.54366136 -0.4484785 -0.19456807 0.14781536
-0.17778505 0.12942418 -0.06486778 -0.77360237 0.10416945 0.07122532 0.025682133 -0.3192484
-0.4649627 0.554237 0.15903215 0.12379274 -0.14449273 -0.46966666 -0.70536166 -0.25237206
-0.11527229 0.27227515 0.5186974 0.08435367 -0.07748264 0.20765752 -0.49681094 0.121185206
0.51911825 0.43456003 -0.021727044 0.039137926 0.0030869383 0.43704072 0.06648192 0.14626044
-0.40782186 0.5744371 0.22447364 0.16626628 0.32502645 0.41345224 -0.58807284 0.34048972
-0.21894625 0.35638762 0.5504902 -0.32089275 0.67830557 -0.3498853 -0.42548567 0.3497928
-0.5707144 0.17403455 -0.2925704 -0.1911989 0.19601537 -0.3642951 0.13654204 0.048790455
0.3950366 -0.208245 0.1216052 0.31263706 -0.43175355 -0.1585072 -0.2543575 0.12942855

lstm.weight_hh_l0 f4 [512, 128]
00000000: f7cf c9bd 4f0e 34be 96bd 803e 3f6b d73e
00000010: 661b 863e 828a 08bf 4c44 2cbe 6327 f7bd
00000020: de3a 923e c668 09be 6139 bebe f2b9 7d3e
00000030: 49c3 be3e 7ca1 20be dae7 1e3d 1c1c 3b3e
00000040: f740 50be a7eb 7ebc b6f6 3a3e 0953 a43c
00000050: c02b 9abd 3c3c ae3d 85ce 8a3e 4e29 4c3e
00000060: c4f2 5bbd 69ee 283d 5111 2c3e 13d2 c5be
00000070: 22b0 633d 0f46 38bd 90db 11be 0e78 84be
00000080: 03c0 e1be 863f eb3e 3548 dd3b 8f62 77bd
00000090: a441 b5be 9241 a0be ae86 a8bd c4cf 8cbc
000000a0: 5aef afbe eb6c e0be 10e6 6abd ee67 93bd
000000b0: c7b1 b93e b3e7 47bd de01 ab3e dd52 1bbd
000000c0: 4fe3 483d 47e4 d9bc b345 9e3d 9cb7 a2bd
000000d0: 8394 bf3d ec25 99bd 9b0e ddbe a3bd 15be
000000e0: 15fd 063e 68c3 243c 0fce b43e 3f66 a8bc
000000f0: 4ccf 36be 8f51 45be edaa 9e3d 5676 b9be
00000100: 0b2b da3e 7d3f 1dbe 89f1 813e 5da2 fc3d
00000110: 9de8 1bbe 806d e4bd 7194 993d f538 983d
00000120: 6081 2abe 2333 b7bd 75b3 95bd 2443 bd3e
00000130: 1923 0a3d f097 c6bd 8065 5fbe 6eb0 d5bc
00000140: a3aa 293f 572b 7ebe b979 98be f327 e4be
00000150: 4b33 c73e 65d3 643e e523 3c3f 3835 9cbe
00000160: 95dd fcbc bfc8 f3be 6393 753e bc56 f7be
00000170: d857 23be 3a60 9cbe 825c 02be 1037 793e
00000180: d6aa a2bd c6a9 0bbd 68ed 1cbf 45c7 803e
00000190: 4b88 cdbe 1d88 1bbe 3490 edbe 9311 66be
000001a0: 4ba3 dc3e 54e6 f33e 27f5 f1bc ddcc e2be
000001b0: fa41 a6be 3f2b 79be 518c 943a e632 dfbe
000001c0: 0734 fc3c 65fd d8bd 96d0 8bbe b83d 9a3d
000001d0: 655e a1bc 8984 acbe 1ce0 29be 9334 2cbe
000001e0: 14fd b7bd 052d 9f3d 1a62 5b3e c614 e5b9
000001f0: b227 6abd 9323 3abe 59f5 7f3c f182 e43d
00000200: 9d61 a3be 2780 f73e 7dfb 9b3e c6e5 2a3e
00000210: 1e05 853e f6ff 253f c5d2 67bd 5d93 c13e
00000220: c061 fc3e bb36 8ebd f431 4e3b 416e febe
00000230: b577 813e 6e43 7d3e 82a7 7d3d c4e1 22be
00000240: a41e b83e 3211 9a3d 184b 123a 5e03 053e
00000250: 803f 0fbf b77c 673d 85c1 e53d 5edf 4b3e
00000260: 7d8e 50be 1cc3 183e 6c7b 89bb c9b3 2c3e
00000270: 4611 03be 2a0e 8e3e 4159 283e 92fe 8abe
00000280: b029 523e 1ba0 9a3e d670 dd3d a378 6b3e
00000290: 31ea 8bbd c6cf 053e c686 42be a8fe 943e
000002a0: b242 d43b d84d 843e 5821 0b3e 7c36 f4be
000002b0: ab2c 8a3d 4310 8cbb 26c2 6b3e a5ac 63be
000002c0: 33ac 17bd f8cc 50be e817 103e 4638 93be
000002d0: 408b 59be 3369 553b fc58 2cbd ff5b b83d
000002e0: b446 113e efac 913e efc2 953e 6fbb 4a3e
000002f0: 6324 003e 9563 80be 8eff 09bb 1212 99bd
00000300: 974d 18be 775c 98bd a278 833e 88f8 25be
00000310: 7b3e b4bd 2278 aebc 27da ca3e b195 6c3d
00000320: 10ae 263c 2cc2 ddbe ba0c 233e 4f5b a53e
00000330: 9114 c6bb e68e 6d3e 5a19 1f3e c03a 333d
00000340: cda5 9fbd e52c 69be 52bd 78bd c881 6e3e
00000350: e06e 953e dd58 61bd 000d bcbe 061c 173d
00000360: 45e1 17bf fa89 21be 6ea6 793c 652e fd3e
00000370: 6302 f9bd cd8d bc3e 9de9 4ebd 5690 c2be
00000380: 5501 da3c b1ab ae3e adce 8dbe b47c 00be
00000390: 7636 563e 8292 863e c69a b33e ef4e 69be
000003a0: 5d6f efbd fdd2 c13c e8b9 8ebd 492b af3d
000003b0: 6191 03bf 0a58 c53e 465d 76be 18fa 5ebd
000003c0: cebd 9cbe 41d2 8e3e 8e28 aabe f98f 0dbe
000003d0: 9a2a d8bd c452 d73d ae7d 6a3d 9fce 833c
000003e0: f8c4 5fbe 95a0 34be 9c0a a53d f53e a03e
000003f0: c846 e6bd b779 823c 40aa 9d3e e885 28be
-0.09854119 -0.17583583 0.25144643 0.4207401 0.26192778 -0.53336346 -0.16822928 -0.12068059
0.28560537 -0.13418874 -0.37153152 0.24777964 0.37258366 -0.15686601 0.03879533 0.18272442
-0.20337282 -0.015559114 0.18258175 0.020059125 -0.07527876 0.085075825 0.27110687 0.19937631
-0.053698316 0.04124299 0.1680348 -0.38636836 0.055587895 -0.044988688 -0.14243913 -0.25872844
-0.44091806 0.45946902 0.0067529925 -0.060396727 -0.35401642 -0.31300026 -0.08228813 -0.017188914
-0.34362298 -0.43833098 -0.05734831 -0.071975574 0.36268446 -0.04880495 0.33399862 -0.03792082
0.049044903 -0.026598109 0.07728138 -0.07945177 0.09354498 -0.07477936 -0.43175206 -0.14623122
0.1318248 0.010056354 0.3531346 -0.020556567 -0.17852515 -0.19269393 0.07747445 -0.36223096
0.42610964 -0.1535625 0.2537959 0.12335656 -0.15225454 -0.11153698 0.07499016 0.07432739
-0.16650915 -0.089453004 -0.07309619 0.36965287 0.033724878 -0.096969485 -0.21816063 -0.026085105
0.66275996 -0.2482122 -0.29780367 -0.4456173 0.3890632 0.22346266 0.7349227 -0.30509353
-0.030867377 -0.47614095 0.23982005 -0.4830836 -0.15951478 -0.30542165 -0.12730601 0.24337411
-0.079427406 -0.034097455 -0.61299753 0.2515203 -0.40143046 -0.15188642 -0.4639908 -0.22467642
0.43093333 0.47636664 -0.029535843 -0.44296923 -0.3247221 -0.24332903 0.0011333321 -0.4359352
0.030786527 -0.10595206 -0.27307576 0.07531303 -0.019698331 -0.33694866 -0.16589397 -0.1681693
-0.08983818 0.07772259 0.21424142 -0.0004369376 -0.057166763 -0.18177633 0.01562246 0.111577876
-0.3191041 0.4833996 0.30465308 0.16689214 0.25980467 0.6484369 -0.05659749 0.37807742
0.49293327 -0.06944033 0.003146288 -0.49693492 0.25286642 0.24732754 0.061927326 -0.15906435
0.35960877 0.07522811 0.0005580648 0.12989566 -0.5595627 0.05651542 0.112185515 0.19909427
-0.20366855 0.14918178 -0.0041956212 0.16865458 -0.12799558 0.2774518 0.16440298 -0.27147347
0.20523715 0.30200276 0.10812537 0.22995238 -0.06831778 0.1306754 -0.18996724 0.29100537
0.0064776773 0.2584064 0.13586938 -0.47697818 0.06746801 -0.0042743995 0.2302328 -0.22233827
-0.037029456 -0.2039069 0.1407162 -0.2875387 -0.21244526 0.0032563924 -0.04207705 0.09001922
0.14187127 0.2845225 0.29250285 0.19798063 0.1251388 -0.25075975 -0.0021056863 -0.0747415
-0.14873348 -0.07439511 0.25677973 -0.16208088 -0.0880098 -0.021297518 0.39619562 0.057759944
0.010173336 -0.43312204 0.15922824 0.32296225 -0.006044932 0.23199043 0.15537015 0.0437572
-0.07795296 -0.22771032 -0.060727425 0.23291695 0.29186153 -0.055016387 -0.36728668 0.03689196
-0.5932811 -0.1577529 0.015237434 0.4944946 -0.12158658 0.36826935 -0.05051576 -0.38000745
0.026611963 0.34115365 -0.27696744 -0.1254757 0.20919213 0.26283652 0.3507902 -0.22784017
-0.11691163 0.023660177 -0.069690526 0.08553178 -0.51393706 0.3854373 -0.24059018 -0.054437727
-0.3061356 0.27894786 -0.33234066 -0.13824452 -0.105550006 0.10513833 0.057248764 0.016089736
-0.21852481 -0.17639382 0.08058664 0.31298032 -0.11243969 0.015927179 0.30793953 -0.16457331

lstm.bias_ih_l0 f4 [512]
00000000: e29f 6b3e 8910 ec3e 5277 263e 537f 06bc
00000010: 7e75 babd e69c 2d3e 4795 423d dc93 963e
00000020: 2b7a febd 9695 713d 620e d73e 7eda 4e3e
00000030: e202 13bd 4783 8d3d c3fe 7e3e 8871 9a3e
00000040: 2787 3a3f 2510 9a3e fe9e bd3b 7029 6d3e
00000050: 8db5 873e 5f26 07bc ad6e ff3c eb67 8d3e
00000060: 07c8 ab3e 6727 613f 6fff bfbd b117 4b3c
00000070: 1afe d13c f5cd 823d 62b4 793d db23 ea3c
00000080: 8f54 393f eb3a 013e 934c bc3e 3124 133e
00000090: 1665 da3e 6aed c03e 9837 073f 2e9a 9a3e
000000a0: 0387 903d 209d cd3d 363d 873e 8e58 e53d
000000b0: 3073 083e 5ea9 9e3e 8125 91bd f272 843e
000000c0: 38bb e63e 510c 323e 66f0 4d3e eb2b be3d
000000d0: 6196 4b3f 4134 153f f26f c93d bd38 843e
000000e0: 0a2b 9d3e 5373 0e3e b277 2f3e e71d d33c
000000f0: 55c0 163f 6c36 733e 4f5b 793e ab9c 043f
00000100: 79a9 5d3c 47ab 5d3e c1ac d93e 6c38 f73e
00000110: 628b f03d d76e fc3e 74c6 4a3e 23b2 6a3e
00000120: 31eb 023f 7be9 423f ffe0 323f 6830 103e
00000130: 09c2 ef3e 27f3 f43e b831 0f3f 5450 133f
00000140: 6676 813d 2100 503e 4bc3 cb3c 4c73 663e
00000150: 44f8 263e 5cd6 283e e7a0 983e 022f d7bc
00000160: fcab 3d3e 0001 353d d134 af3e c90c 553e
00000170: 124b 07bd 26b2 a6be d593 ec3e eca2 993e
00000180: 8806 8d3e 7c4a c63d f713 363e 418b e73d
00000190: 9ba2 ea3e fc77 dd3c 1978 3b3e 6744 8f3d
000001a0: ad44 3a3e c3e7 bbbd ea8a 053c e52d 973e
000001b0: 65e5 03be c8e1 33be 1f4a 713e 5321 84be
000001c0: 62d2 983e 89e2 953e ec20 fd3e b2d3 793e
000001d0: 7bec bf3e 5a93 2e3e 0016 b13e c260 553e
000001e0: 0023 223e ba91 d33e 7099 ec3d a460 d53e
000001f0: 4f2e b33d 5355 773e 099b e23e d3c0 cf3d
00000200: d7d2 7bbe 982a 023d c3e6 cfbe 360d 0ebe
00000210: 46f5 16be a355 49be 0623 1abd 5d23 bcbe
00000220: e615 54be 2895 cabd 5014 64bd c0ee a5be
00000230: c0a6 033d c479 71bd ae89 413d 7a50 46be
00000240: 5719 a63e c9e8 3c3e 59f4 babd 54fe d73d
00000250: c0da c9bd 28b7 87bd 5a66 58be 5781 86be
00000260: 0d15 0abf 439c 8e3e 2e17 60be ac4b 1bbe
00000270: 6375 6a3d be5d 8cbe 49ba 303d 3eff 0cbc
00000280: a460 96be c85b dfbd 8cb2 253e bda2 25be
00000290: 587f 2fbe c468 acbe 089e 53be 4356 f4be
000002a0: 4b94 afbe fbc2 68bd f4d0 35be 5ea3 933d
000002b0: ece5 00be bed4 cabe ca12 25be 2cc6 71be
000002c0: d71e 32bd 56d4 1abe 65d3 c93d c928 84be
000002d0: 96e0 893e 072d 303d a0a1 a63e 7f50 ffbe
000002e0: bd43 bcbe 98a6 d6be c40f b5be 5e44 8cbe
000002f0: a08a 413e 13de 09be 808c cc3e 204a 133d
00000300: ee35 01be 2ccc 2d3c 33a4 413e 680d bcbd
00000310: a7d1 8fbd 9084 803b d1fd 92be cd36 d9be
00000320: 11b4 a3be 4dfd eb3c 6124 3a3e d5be 65be
00000330: 4960 80be 4158 5cbe d3e8 eebe 61a7 133e
00000340: 7e7c 713b f768 803e d4d8 84bc cffa 89be
00000350: 7544 f4bd de8b 893e 8600 87be cc83 92be
00000360: 4dbe 75be 0de7 1abd 4fe3 4cbe 9d47 3dbe
00000370: 8070 903c a3cc 023f e9b6 babe 090f 5fbe
00000380: ab59 67be 7c5b 05bf dac1 0fbe 11fe 653e
00000390: be40 7bbe 07a3 89be c99e c33c 2ebd 87be
000003a0: 4b29 d03a ddf7 35bf 53e3 56be d9e0 bcbd
000003b0: 19e6 db3c d0b6 44be 5afc 87be 887e 9dbe
000003c0: e354 3fbd d699 43be 679d d43d 883d 71be
000003d0: 5d40 a3be 9e25 083d 5e23 08bf d1b3 a5be
000003e0: 1364 f8be acd2 a0be bb2a d0bd 7aa5 4cbe
000003f0: c543 85be 2f38 b5be cd3d b03e ab1f abbe
0.23010209 0.46106365 0.16256455 -0.008209067 -0.09104441 0.16954383 0.047505643 0.29409683
-0.124256454 0.058980547 0.4200316 0.20200536 -0.03589142 0.06909805 0.24901871 0.30164742
0.72862476 0.30090442 0.0057867756 0.23160338 0.265057 -0.0082488945 0.031180704 0.27618346
0.33551046 0.8795075 -0.09374892 0.012395785 0.02563386 0.063869394 0.060963042 0.02858155
0.7239465 0.12620132 0.36777171 0.14369275 0.42655247 0.37681133 0.52819204 0.30195755
0.070570014 0.10039735 0.26413888 0.11198531 0.1332519 0.30988592 -0.070872314 0.25868946
0.45064712 0.17387511 0.20111236 0.092857204 0.79526335 0.5828286 0.09835805 0.25824538
0.306969 0.1391118 0.17135504 0.025771094 0.58887225 0.23751229 0.24351238 0.51801556
0.013529175 0.21647368 0.42514613 0.48285234 0.11745335 0.49303314 0.19802266 0.22919516
0.51140124 0.7613751 0.69874567 0.14080966 0.46827725 0.4784176 0.5593524 0.57544446
0.06321411 0.20312549 0.024873396 0.2250492 0.16305643 0.16488022 0.2981026 -0.026267532
0.18522638 0.044190407 0.34219983 0.20805658 -0.033030577 -0.3255779 0.46206537 0.30007112
0.27544045 0.096821755 0.17781053 0.113058574 0.45827183 0.027034752 0.18307532 0.069954686
0.1819026 -0.091750644 0.0081507955 0.29527202 -0.12880476 -0.17566597 0.23563431 -0.25806674
0.2984801 0.29274395 0.4943918 0.24397162 0.37485108 0.17048398 0.34587097 0.20837691
0.15833664 0.41322118 0.115527034 0.41675293 0.08749067 0.24153642 0.44258907 0.101442
-0.24592148 0.0317789 -0.40605745 -0.13872227 -0.14742002 -0.19661574 -0.037631057 -0.3674573
-0.20711479 -0.098917305 -0.055683434 -0.32408714 0.032141447 -0.058954015 0.047250442 -0.19366637
0.32441208 0.18448175 -0.09128637 0.10546556 -0.098561764 -0.06626731 -0.21132794 -0.26270553
-0.5393837 0.27853593 -0.21883842 -0.15165585 0.057240855 -0.2741527 0.043146405 -0.008605776
-0.29370606 -0.10906178 0.16181391 -0.16175361 -0.17138422 -0.3367368 -0.20665753 -0.47722062
-0.34292826 -0.056826573 -0.1775549 0.07208894 -0.12587708 -0.39615434 -0.16120449 -0.23610753
-0.043486442 -0.15120062 0.098547734 -0.25812367 0.26929158 0.04301169 0.32545185 -0.498661
-0.3677043 -0.41923976 -0.3536359 -0.2739591 0.18900537 -0.13463621 0.39950943 0.035959363
-0.12618229 0.01060776 0.18910293 -0.091822445 -0.0702241 0.0039220527 -0.28709272 -0.42424622
-0.31973317 0.028807307 0.1817794 -0.22436078 -0.2507346 -0.21518041 -0.46662006 0.14419319
0.0036847885 0.25080082 -0.016216673 -0.26949164 -0.1192712 0.26864523 -0.26367587 -0.28616178
-0.23998375 -0.037818003 -0.20008586 -0.1848435 0.01763177 0.510935 -0.36467674 -0.21783079
-0.225928 -0.5209272 -0.14038792 0.224602 -0.24536416 -0.26882192 0.023879426 -0.2651152
0.0015881447 -0.71081334 -0.20985155 -0.09222574 0.026843118 -0.19210362 -0.26559716 -0.30760598
-0.046711814 -0.19101653 0.103815846 -0.23558629 -0.31885043 0.033239 -0.53178966 -0.32363752
-0.4851385 -0.3141073 -0.101644 -0.19985 -0.26028267 -0.35394427 0.3442215 -0.33422598

lstm.bias_hh_l0 f4 [512]
00000000: 9f67 2a3e 60f1 f73e cd7e 313d dcfe ffbb
00000010: 6bb8 21be 4a21 233e fa5e 8e3d ab93 913e
00000020: 8e66 6cbe 398d be3d a2a5 c73e 4a1f 5b3e
00000030: 7587 62bd d512 cf3d c748 0e3e fd84 aa3e
00000040: 8734 583f c534 a63e f5a0 cb3d 55f6 683e
00000050: 0f68 8c3e cc58 a1bc 09c8 aebd 9429 763e
00000060: 168e a93e a83b 663f 3c50 243d 0c3b de3d
00000070: 915d 4f3d e06b 803d 4e27 403e 8eae 3ebc
00000080: fb84 453f 9a81 893e 75c8 6a3e 627a 393e
00000090: 6e27 b63e 9368 e53e 4571 e23e d6ed ad3e
000000a0: 652b 92bc ab78 213e 5943 6f3e 55a6 533e
000000b0: 46f7 aa3d 5b84 7a3e 15b9 7fbd 71a8 4f3e
000000c0: 238f 1c3f ad67 9c3e dfd9 4c3e 1dda d13d
000000d0: 9eab 283f f6b1 213f 70d6 1b3e b754 933e
000000e0: 1fb5 953e 74bc 013e 695a 3a3e b3cc 273d
000000f0: 4bb3 073f 710c 823e 08df 633e cb02 e43e
00000100: c6de e8bc 49f1 813e 7db4 fe3e e1fa 213f
00000110: e59b 143e 202e fe3e 209e 913e b7b6 6b3e
00000120: ec96 e93e 8d76 503f e2f0 333f a2c1 883d
00000130: f0c6 e83e ad62 be3e 3669 eb3e 630e 123f
00000140: 8eea 833b 0cbd 293e 901c 933d bb7a 9c3e
00000150: 5ee6 3c3e cf12 5d3e 46e2 c13e 290c 00be
00000160: eafa 4b3d a13e c93d 7ad3 7c3e b7bc 243e
00000170: 3443 eabc 6adb b0be baea e03e 661f 643e
00000180: bee0 8d3e b920 953d fc3a 503e 8485 f93d
00000190: 5ca3 fa3e 7fcf bc3d abab a23e fe8e a3bd
000001a0: 6d59 833e 5e57 c83c 0a93 b8bd e267 ac3e
000001b0: 0c82 b2bd 28c3 16be 616e a63e ece0 9abe
000001c0: db3f 4d3e 6dcf 843e 222f df3e f3d8 9f3e
000001d0: 277e a83e 1ae5 4a3e 2478 be3e f60e cc3d
000001e0: 0aa6 793e d0de e13e 1a7c cf3d 3c25 e43e
000001f0: f502 8f3d a3f0 603e 55ff c53e d8fc 093d
00000200: b227 1abe cb29 a0bd cdb1 adbe ada7 5bbe
00000210: ad09 d9bd 2f59 56be c8b4 c2bd a107 a2be
00000220: 7c13 b1bd bfe9 1fbe 5fde e13c 663e 8dbe
00000230: 6e9a bebc 3105 09be d3c6 673d 4ebe 2dbe
00000240: 2b69 9f3e fb3d 5b3e 9530 e7bd ca2f 813e
00000250: 9210 30be e296 9bbd 39b6 26be 45fd c7be
00000260: 687e cabe 5baf 423e f780 7abe 7f64 34be
00000270: a58a 083e 8874 9bbe 8fc4 9bbd d464 023d
00000280: b263 d8be a8f0 d7bd 5d7b 503d fb53 15be
00000290: 3565 5cbd 6868 a2be f47d 5ebe 6f13 d9be
000002a0: 1a0b 97be fd05 45be 2ff5 62be 7782 9dbd
000002b0: a602 5ebe 6662 8bbe 52c7 14be c480 70be
000002c0: 240a 99bc f1e4 82be ed9e 1f3e 163c 38be
000002d0: 790c 693e c48d 0abc 91d2 663e 1dc0 0cbf
000002e0: 9ffe b0be 5ed4 e3be f9e6 adbe 992f 24be
000002f0: 0cdb 1d3e b6ce 95bd 0165 c63e 9042 913d
00000300: b4f9 dabd 3d80 a93d 1310 193e 0476 7dbd
00000310: f92d fcbd 185a 353c e428 83be 9cce c8be
00000320: dee0 54be e74f d33d 4317 423e cc6a dabd
00000330: 7404 01be ce86 74be cd9a d7be 359c 093e
00000340: 5fbf 61bc 8c2c 963e a749 fabd 212e 74be
00000350: ada8 a6bc 3f34 173e 35d3 87be 49cd a2be
00000360: 1473 18be a129 ccbd 5200 bebd 67c3 51be
00000370: 809d cbbc b818 cf3e a7e5 e4be 970e 44be
00000380: 25a9 41be 462f e7be 34a2 27be 904a 733e
00000390: 4a85 9cbe d092 9abe 5e05 fb3d a1b7 a5be
000003a0: 036b 82bd 681d 1cbf e5c6 1ebe 8157 25be
000003b0: 9ae3 babd 00d9 c4bd e34d aabe 5d43 b6be
000003c0: d299 8a3b 66ab 6abe c38f 203e fcc0 19be
000003d0: ca8d 6bbe bcb4 d43d 2b7b 23bf 6fb3 babe
000003e0: ba35 cfbe a6b9 80be ebbe 81bd e208 2cbe
000003f0: 833b 67be 5e33 9cbe 59c2 763e 5e8f cabe
0.16641091 0.48426342 0.043333817 -0.007812364 -0.15793006 0.15930668 0.06951709 0.28432974
-0.23085997 0.0930428 0.38993555 0.21398655 -0.055304963 0.10111014 0.1389495 0.33304587
0.8445515 0.32462135 0.099428095 0.22750218 0.2742314 -0.019695662 -0.085342474 0.24039298
0.33116215 0.8993478 0.04011558 0.10851106 0.05062634 0.062705755 0.18764994 -0.011638297
0.7715604 0.2685669 0.22928031 0.18113092 0.35576957 0.44806346 0.44227043 0.33970517
-0.017842958 0.15768687 0.23365535 0.2066892 0.08347945 0.24464552 -0.062432367 0.20279099
0.6115591 0.30547848 0.20004986 0.1024668 0.6588687 0.6316217 0.1521852 0.2877557
0.29239747 0.12669545 0.18198551 0.0409667 0.53007954 0.25400117 0.22253048 0.4453338
-0.02842654 0.25379398 0.49747077 0.63273436 0.14512594 0.49644566 0.28440952 0.23018919
0.45622957 0.81430894 0.70289433 0.066775575 0.45464277 0.3718466 0.45978707 0.570532
0.004025764 0.16576022 0.07183182 0.30562386 0.18447253 0.21589206 0.37867945 -0.12504639
0.049799837 0.09826399 0.24690047 0.16087614 -0.028596498 -0.345424 0.43929082 0.22277603
0.27710527 0.07281632 0.20335001 0.12183669 0.48952758 0.09219264 0.31771597 -0.07986258
0.25654164 0.024455722 -0.090124205 0.33673006 -0.08716211 -0.14722884 0.32506087 -0.30249727
0.2004389 0.25939503 0.43590647 0.31220207 0.32908747 0.19813958 0.37201035 0.09963791
0.24379745 0.44115305 0.10131092 0.44559658 0.06982986 0.21966796 0.38671365 0.033688396
-0.15054205 -0.078204714 -0.33924714 -0.21450682 -0.10597549 -0.20932458 -0.095071375 -0.31646445
-0.086462945 -0.15616511 0.027571855 -0.2758667 -0.023266997 -0.13380887 0.056586098 -0.16967127
0.31134924 0.21410362 -0.11288563 0.25231773 -0.17193821 -0.07597138 -0.1628045 -0.39060417
-0.39549565 0.19012205 -0.24463259 -0.17616461 0.13334139 -0.30362344 -0.0760585 0.03183444
-0.4226356 -0.105439484 0.0508989 -0.14582817 -0.053807456 -0.3172028 -0.21727735 -0.4239764
-0.29500657 -0.19240566 -0.22163843 -0.076909 -0.21680698 -0.2722351 -0.1452916 -0.2348662
-0.018681593 -0.25565293 0.15587969 -0.17991671 0.22758664 -0.008456651 0.22541262 -0.5498064
-0.3456926 -0.4449796 -0.3396528 -0.16033782 0.15415591 -0.073148176 0.38748935 0.07092774
-0.10692158 0.08276413 0.14947538 -0.061880127 -0.12313456 0.011068843 -0.25617135 -0.3922013
-0.20788905 0.103179745 0.18954186 -0.10664901 -0.12599355 -0.23879549 -0.4211029 0.13438495
-0.013778537 0.29330862 -0.12221079 -0.23845722 -0.020344103 0.14766024 -0.26528326 -0.31797245
-0.14887649 -0.099688776 -0.09277405 -0.20484696 -0.024855375 0.40448546 -0.4470646 -0.1914619
-0.1891218 -0.45153254 -0.1637047 0.23758912 -0.3057044 -0.30190134 0.12256883 -0.3236666
-0.06368067 -0.6098237 -0.1550556 -0.16146661 -0.09125443 -0.09611702 -0.33262548 -0.3559827
0.0042297626 -0.22916946 0.1567984 -0.15015024 -0.23003307 0.10386035 -0.63859814 -0.36465022
-0.40470678 -0.2514164 -0.06335243 -0.16800264 -0.22581296 -0.3050794 0.24097575 -0.39562505

linear.weight f4 [12, 128]
00000000: 4abf bbbf 9925 03bc d5b5 c1bf 3e37 873f
00000010: a3f3 ecbe dd1c 9abe 3d20 183f 0f4b 5c3f
00000020: 9d0c e43e 5988 37bf 2491 5bbf c7f5 29bf
00000030: e2f7 273f d9ab 523c eaf5 1c3f 1cdb a6bf
00000040: dc23 2f40 ea3c f7bf 8af1 7dbf 25d3 bdbf
00000050: 6179 373f 847d 54bf 6f48 af3f e877 8cbf
00000060: a1c5 89bf 75d9 bc3f edff c2be a952 c9bf
00000070: bc43 13bf b7ff e23e 9cc3 13c0 60cf 2bbe
00000080: d033 733f d675 a73f 9e6a b33f 36dc bbbf
00000090: 971f 8dbf e14c 5bbf d79b 85bf b944 6ebe
000000a0: dd14 5cbf 4ffc 0bbf 5cb7 3f3f ae81 92be
000000b0: 4443 50bf 3fe5 953f 655e cf3f 8ae3 c3be
000000c0: 3aea af3f 08ef 2e3f a667 8b3f cba7 b43f
000000d0: c34d 09bf ecf4 85be 1ff5 25be ba5e 873f
000000e0: 6d0a 433f b8ca f0be 7138 19bf 071e 203f
000000f0: dcbf 6abf 406d 403f f554 0140 bb29 393f
00000100: 9d78 a83e 726b 783f 723d 99bf fae3 35bf
00000110: 9d96 2140 d05f b3bf 9089 3d3f df4a a6bf
00000120: 029a a63e 0268 03c0 b39f 0c3e 8396 833f
00000130: 5300 1c3f 32bf 253f 3396 6e3f d974 b1bf
00000140: 4e8f ab3e d752 0140 84c7 4c3f afd5 8fbe
00000150: 0614 043f 03fc c73f fd85 843f f6bd 8abf
00000160: 7e0c 34be cba0 d83e 68d7 dd3e b96a d4bd
00000170: f5f4 b73f b593 bfbe 4638 65bf b0bf 053f
00000180: 2bfe 93bd e083 823e 4860 fd3e 6919 3d40
00000190: d59d eabf a560 d0bf c235 d03f 27b4 afbd
000001a0: b488 27bf 5704 273e 0f4d acbe fe9f 753e
000001b0: dddc 5b3f 2c2d 8b3e 966e 2fbf 3506 de3e
000001c0: 1e48 fa3e 59cc a7bc fdc9 04bf 826f 263f
000001d0: 5fef b4bf b592 ba3f b774 543f 1c4c 05bf
000001e0: 2055 65be 3071 4bbf 657e 75be fc73 94bf
000001f0: 9a2e 893f 3b5a 6f3f 3938 c53f 9e5e d23f
00000200: 29e4 513f 0f2e 4c3e ccce 5dbf 41f8 37bf
00000210: 253d 1a3f d7f8 17bf 023b 033f 608d 57bf
00000220: 58d8 2e3e f50a ba3e 2439 d03d 929d 853f
00000230: 7995 063f 0cc4 80bf 4e2c 363f fade e0be
00000240: 183f 7cbe 06de 653e e9dc a03e e4a9 253e
00000250: 83d1 9e3e 8eba b53e e999 503f 3a78 2abe
00000260: 79a1 043f ea82 45bf 5b0f 03bc da2d dabd
00000270: 6be6 b8be 3ebc 29bd 145e a5bd c067 743f
00000280: 86c8 82be ce0d 933d 3e8c a73f 7e44 d7be
00000290: 7f13 123f 3f7c da3d eda2 263f fc6d 45be
000002a0: 4933 903f 67d1 45bf 61a3 5f3e 3db2 44bf
000002b0: 7773 593f a5b9 873e 7ec3 27be 6f38 9a3f
000002c0: e738 28bf b0e8 85bf e4a5 8dbe b0c2 7b3f
000002d0: 8451 82be 3fab 4e3f 5b55 21bf 2d1f 48bf
000002e0: 162f acbc b6e9 edbd b934 293f 9862 a43e
000002f0: cc00 7f3f be7a 443f d834 16bf 5099 81bf
00000300: 91df 973e d229 1ebf 076c d53e ab6a 75bf
00000310: 6434 483e 051e e23e 0090 5d3e d76c 753d
00000320: d612 3bbf 0667 1a3f 29a1 27bd 11d8 30bf
00000330: f06f 723f 6214 ba3f 636c 12bd b6af 223e
00000340: a5ca ccbe 5fc9 433a de86 273f f952 42bf
00000350: 0075 e8be 6a2c f63d 429a 183f ad98 473f
00000360: d720 7d3f 6ba9 8fbd d923 923d 786a 29bf
00000370: 635e 67be a260 bfbe b6fc 71bf 2a50 0c3f
00000380: f62f 123f d219 6abf 7292 07bf db6b 75bf
00000390: 19b1 33be 245b 4bbf 408c e3be a5f7 a1be
000003a0: bd54 4ebd 57ce 4a3f 1bdf dd3e f7c8 63be
000003b0: ec80 d83e d712 f8be 7f6c be3d 23df 4bbf
000003c0: 6c07 583f b907 9b3d 7fbf 77bf 0111 2cbf
000003d0: 8acd bbbe d2e9 9ebf 8d4a 6ebf 1c6e 8fbf
000003e0: b9dd 983f fb09 f93d 34f9 9d3e 1d64 8f3e
000003f0: 45a6 12bf ecfe f3be a841 f4bd 5579 9e3f
-1.4667752 -0.008004569 -1.5133616 1.0563734 -0.4627963 -0.30100146 0.5942419 0.8605203
0.44540873 -0.71692425 -0.8576834 -0.6639065 0.65612614 0.0128583545 0.61312735 -1.3035617
2.7365637 -1.9315464 -0.99196684 -1.4830061 0.71669585 -0.8300402 1.369398 -1.0974092
-1.0763437 1.4753863 -0.3808588 -1.5728351 -0.5752523 0.4433572 -2.308814 -0.16778326
0.95000935 1.3082836 1.4016912 -1.4676578 -1.1025265 -0.8566418 -1.0438184 -0.23268403
-0.85969335 -0.5468187 0.7488916 -0.28614563 -0.8135264 1.1710585 1.6200682 -0.38259536
1.3743355 0.6833348 1.0891006 1.4113706 -0.5363428 -0.26163423 -0.16206788 1.0575783
0.76187783 -0.47029662 -0.5985175 0.6254582 -0.91699004 0.751667 2.0208104 0.723293
0.3290452 0.9703895 -1.1971877 -0.7105099 2.5248177 -1.4013615 0.7403803 -1.2991599
0.32539374 -2.0532231 0.13732795 1.0280308 0.60937995 0.64744866 0.93197936 -1.3863784
0.3350777 2.0206811 0.79991937 -0.28092715 0.51593053 1.5623783 1.035339 -1.0839221
-0.1758289 0.42310175 0.43328404 -0.10371918 1.437163 -0.3741738 -0.8953899 0.52245617
-0.07226213 0.25491238 0.4948752 2.954676 -1.8329417 -1.6279494 1.6266406 -0.08579283
-0.6544297 0.1631025 -0.3365254 0.23986813 0.85883886 0.271829 -0.68528116 0.4336411
0.48883146 -0.020483183 -0.5187071 0.650139 -1.413555 1.4576021 0.8299059 -0.5206926
-0.22395754 -0.79469585 -0.23973997 -1.1597896 1.0717347 0.93497056 1.5407783 1.6435125
0.8198877 0.19939445 -0.8664367 -0.7186318 0.6024955 -0.59364074 0.51261914 -0.84200096
0.17074716 0.36336485 0.10167149 1.0438712 0.5257183 -1.0059829 0.71161354 -0.43920118
-0.24633443 0.22447976 0.3141854 0.1617809 0.3101922 0.35493892 0.8148485 -0.16647425
0.5180889 -0.77152884 -0.0079992665 -0.10653277 -0.36113295 -0.041439287 -0.080745846 0.9547081
-0.25543612 0.071803674 1.3089674 -0.42044443 0.57061 0.10668229 0.65092355 -0.19280237
1.1265651 -0.7727265 0.21839668 -0.7683447 0.8494181 0.26508823 -0.16383168 1.2048472
-0.65711826 -1.0461636 -0.27665627 0.98343945 -0.25452816 0.8073005 -0.6302087 -0.7817257
-0.021018546 -0.116168424 0.66096073 0.3210647 0.9961059 0.7674979 -0.58674383 -1.0124912
0.29662755 -0.6178256 0.4168398 -0.9586589 0.19551235 0.44163528 0.21636963 0.05991825
-0.73075616 0.6031345 -0.04092518 -0.6907969 0.94702053 1.453747 -0.035747897 0.15887341
-0.39998356 0.00074686663 0.65440166 -0.75907856 -0.45401764 0.1202019 0.5961038 0.7796734
0.98878235 -0.07014736 0.07135744 -0.66178083 -0.225946 -0.37378412 -0.9452623 0.5480982
0.5710443 -0.9144565 -0.5295783 -0.958677 -0.17548026 -0.79435945 -0.4444294 -0.3163425
-0.05037378 0.792211 0.43334278 -0.22244631 0.4228586 -0.48451874 0.09298038 -0.79637355
0.84386325 0.07569832 -0.96776575 -0.67213446 -0.3668025 -1.2415106 -0.93082505 -1.1205478
1.1942664 0.12160107 0.3085419 0.28006068 -0.5728496 -0.47655427 -0.119265854 1.2380778

linear.bias f4 [12]
00000000: e14d 9bbf 5953 853d 272c c2bd 8132 333b
00000010: b9b2 7cbf 7361 95be bb4c c63e 0537 b6be
00000020: 6570 22bf d611 a1bd c4e6 363e 817f e13d
-1.2133142 0.06510038 -0.09481078 0.0027343335 -0.9871021 -0.2917591 0.38730416 -0.35588852
-0.6345275 -0.0786473 0.17861468 0.110106476
