part2/runs/enc_only,epochs=5,batch_size=128,hidden_dim=128,timestamp=2023-03-10_01-27-26/folds_model/model_2.pt (torch, 888355 bytes, 6 tensors)

lstm.weight_ih_l0 f4 [512, 300]
000000 d3 71 8c 3c f5 2c 61 be 78 45 b4 3e d6 d9 59 3e
       0.01714412 -0.21989806 0.3520925 0.21274504
000010 c2 02 0d be ec bb 2f bf ea d1 09 3e ef 4c c5 be
       -0.13770583 -0.6864612 0.13458982 -0.38535258
000020 66 d2 10 be fd f9 e7 be 87 62 3d be 3e ea 39 3e
       -0.1414276 -0.45307913 -0.18494616 0.18155763
000030 5d 21 45 3c 23 1b eb bd b6 b5 49 be 4a 93 81 3e
       0.01203188 -0.11479785 -0.19698223 0.25307685
000040 8c 40 1f be 9f 4b 2c 3e 29 69 00 3f b8 bc c9 be
       -0.15551966 0.16825722 0.5016046 -0.39401793
000050 72 8f 35 be 1c 35 73 be 13 87 f7 bd 95 46 ce 3e
       -0.17730501 -0.23750728 -0.1208631 0.40288225
000060 93 5a 9a be 62 05 bf 3c fd eb 56 be 4a f7 ed be
       -0.30147228 0.023317996 -0.2098846 -0.4647773
000070 b1 61 98 be bb 66 7b be 83 85 73 3e 1c 6c 01 bf
       -0.29762033 -0.24550907 0.237814 -0.50555587
000080 43 f8 70 be ac a4 0c be 5e 50 67 3e 1f 3d 6f 3e
       -0.23532204 -0.13734692 0.22589251 0.2336316
000090 d7 58 00 3e 68 8e a3 3e f3 12 d1 b9 38 f9 a5 bb
       0.1253389 0.31944585 -0.00039877705 -0.0050651096
0000a0 ba d2 e2 3e fe 47 9b bd 5f 48 f6 3e f7 21 51 bd
       0.44301397 -0.07582091 0.4810209 -0.051057782
0000b0 de 3e 74 3e 93 83 4d 3e f5 f8 48 3e f2 c3 8f be
       0.23852107 0.20069723 0.1962622 -0.28079182
0000c0 be 9e 20 be 31 a3 8f be 83 9d d2 bd 8c b9 08 bd
       -0.15685555 -0.28054193 -0.10283949 -0.033380076
0000d0 f6 9f d8 3e 21 2f 09 bf 91 b8 9e bd 21 ec 24 3f
       0.4230954 -0.5358754 -0.07750047 0.64422804
0000e0 d6 b9 3f be 52 18 a4 be 8f 56 15 be dc a0 0e 3e
       -0.18723235 -0.32049805 -0.145838 0.1392855
0000f0 f3 c1 b9 be 76 50 1e bd 60 27 d9 3d c7 d3 28 3f
       -0.36280784 -0.038650952 0.10603213 0.65948147
000100 20 11 03 3f 0c 67 fb bd e7 83 aa 3c 76 9e 6b 3e
       0.51198006 -0.12275514 0.020814849 0.23009667
000110 20 59 e5 3e 50 03 77 bc 6c 22 38 3e e0 97 8d be
       0.4479456 -0.015076473 0.17981881 -0.27654934
000120 bb d2 a5 3e f2 a2 23 3e 62 11 4c bf b5 26 ff be
       0.32387337 0.15980127 -0.79714024 -0.4983422
000130 99 af 67 3e de a1 5f be a8 68 d2 bd 48 6a 93 3e
       0.22625579 -0.21839091 -0.10273868 0.28792024
000140 68 e1 8a 3e 0d 2f c8 be 60 cf ec bd 18 64 e2 bd
       0.27125096 -0.39098397 -0.11562991 -0.110542476
000150 1f b3 d9 3e ca 95 d4 3d 41 c7 1c bf 1e 70 96 3e
       0.4251947 0.103801325 -0.6124154 0.29382414
000160 f6 d1 a6 be 6f 75 ac 3d 50 c6 cd 3e 4e 1e 8d be
       -0.32582062 0.08420836 0.40190363 -0.27562183
000170 6d 3f 2a be c1 15 e7 3e f8 a3 3e 3e bc 62 b6 3e
       -0.16625758 0.45133784 0.18617237 0.35622203
000180 65 da 9b 3d 19 fe 68 3e d0 db 99 3e dc 90 d8 be
       0.07610015 0.2275318 0.30050516 -0.4229802
000190 b2 fe ac be fb 4c 3a 3c 10 91 c7 3c 2a 09 37 be
       -0.33788067 0.011370893 0.024361163 -0.1787459
0001a0 e6 ff 6f bd 35 a4 97 bd d2 d8 34 bf eb f5 78 3e
       -0.058593653 -0.07404367 -0.7064334 0.2431256
0001b0 71 c3 a2 3e a6 ec 75 3e 5a 11 0a 3e ab 74 73 be
       0.31789735 0.24016055 0.13483182 -0.23774974
0001c0 e5 98 67 be 4a 96 b9 be 5d 7e f0 be 15 50 aa 3d
       -0.22616918 -0.36247474 -0.46971408 0.08316056
0001d0 8c 17 a9 bc 14 08 d3 bd d8 91 a2 3e 9f f5 d3 bd
       -0.02064111 -0.10304275 0.31751895 -0.10349583
0001e0 0f fc 02 3e e2 3c 9f be e5 72 ad be 1e eb 34 bf
       0.12791465 -0.31101137 -0.3387672 -0.7067126
0001f0 83 52 03 3f 6a c3 95 be a8 87 78 bd d6 cc 50 be
       0.5129778 -0.29250652 -0.060676247 -0.20390639
000200 09 9a 17 3f ab 73 13 3b a0 4d ae 3e 8e 86 09 3f
       0.59219414 0.0022499363 0.34043598 0.5372094
000210 c7 7e 29 3e 66 21 b7 3e ef 9f 58 bd 10 3a 96 3d
       0.16552268 0.35767668 -0.0528869 0.07335293
000220 ba 16 96 bd 1f e5 62 be 95 b6 eb 3e 67 80 b5 3d
       -0.073285535 -0.22157715 0.46037737 0.088623814
000230 c7 87 81 3e a4 ee ed 3e c6 92 04 be 88 d1 17 3e
       0.25298902 0.4647113 -0.12946615 0.14826024
000240 3d 99 e7 3c 9f ed df be 76 f7 0d 3c b8 e7 e2 bd
       0.028271312 -0.43735978 0.008664956 -0.11079353
000250 cf 69 1b bf 35 c3 f6 3d e8 42 1d 3f 6a 01 44 bd
       -0.60708326 0.120489515 0.61430216 -0.04785291
000260 b1 37 67 3e 61 40 dc bd 08 f8 0b bf ee 98 03 bf
       0.22579838 -0.10754467 -0.5467534 -0.5140523
000270 e6 be 05 3e ae 2a 65 bc c5 7c 32 bf ca 47 de be
       0.13061103 -0.013987226 -0.69721633 -0.43414146
000280 5d c2 1b 3f df ed 8c be bf 4c 5e 3e 8a e3 eb bd
       0.6084345 -0.2752523 0.21708964 -0.11518009
000290 5f 41 b2 be 9e fa e7 3a 38 d4 cb be c6 00 b4 3e
       -0.348155 0.0017698591 -0.39810348 0.3515684
0002a0 32 d7 0c bf d9 15 41 3c a1 45 0c bf 68 2b 04 bf
       -0.5501586 0.011784994 -0.54793745 -0.5162873
0002b0 ce 17 26 3d 45 53 6f be 3e e8 9e 3e 52 29 0f 3e
       0.040550046 -0.23371609 0.31036562 0.13980606
0002c0 94 02 96 3e 8a b4 a0 be 91 d9 79 3d 4f 74 19 bf
       0.29298842 -0.3138774 0.060998503 -0.599431
0002d0 3d dc ab 3e 4c c7 e2 be 9b 9c e3 3d 49 b5 76 3e
       0.33566466 -0.44292676 0.111138545 0.24092592
0002e0 d3 ee 57 3e 24 d3 81 3e c1 8c 9c bd 8c d1 ed 3d
       0.21087198 0.253564 -0.07644034 0.116122335
0002f0 9d 0b 4e 3e ab a3 5e 3f 7d 8e c1 3e 82 8c 99 be
       0.20121618 0.8696849 0.37804022 -0.2999001
000300 9e a5 ed be d9 8d c0 3e 3b 15 57 bc 95 37 06 be
       -0.46415418 0.3760822 -0.01312762 -0.1310714
000310 e2 bc 03 bf f7 ff ec 3d 43 6d 17 be de 42 ab 3e
       -0.5146009 0.11572259 -0.14787774 0.33449453
000320 46 37 4d 3d 8f 57 81 be b8 fd f4 3e a7 71 d4 be
       0.05010154 -0.25262114 0.47849822 -0.4149296
000330 96 d3 e5 be f3 28 a0 be da ba 99 bc 69 74 bf be
       -0.4488799 -0.31281242 -0.018765856 -0.373935
000340 b9 d0 26 be 06 e7 73 be dc 94 0f be a2 b1 b5 bd
       -0.16290559 -0.23818597 -0.14021629 -0.088717714
000350 fb 86 97 be fd c5 73 3d cb a8 a5 be 76 21 8c 3e
       -0.2959517 0.05951499 -0.3235534 0.2736928
000360 fa 80 32 3e 41 01 92 be 52 6d b7 3e 9d 63 76 3e
       0.17432013 -0.28516582 0.35825592 0.24061437
000370 f9 ff c5 be ec 3c 6e 3e 93 2f 93 3e d9 2a 28 be
       -0.38671854 0.23265427 0.28747234 -0.16422595
000380 d8 a3 10 3e b3 9a ca bd 8b 1f 8b 3d b6 e8 cd 3e
       0.14125001 -0.09892788 0.06793126 0.40216607
000390 70 22 9d be da 27 ca be be ca 8c be 76 9a 9f be
       -0.30690336 -0.3948353 -0.2749843 -0.31172532
0003a0 ab aa eb be c6 d7 19 3f 41 f7 97 bd 07 16 81 3d
       -0.46028647 0.6009487 -0.07420207 0.063030295
0003b0 00 5e b9 3d 78 20 66 be f9 eb f8 3d b8 80 e2 3e
       0.09051132 -0.22473323 0.12154383 0.4423883
0003c0 57 62 b8 3d 54 17 35 be 35 ff 7a be eb bd 65 3e
       0.09003132 -0.1768468 -0.24511416 0.22435729
0003d0 4f d8 f9 bd cb 63 01 be 31 c9 c0 be e4 06 41 3e
       -0.12199461 -0.12635724 -0.37653497 0.18850285
0003e0 d4 da c2 be 7a b6 e9 be 24 fb 56 be a3 95 af be
       -0.38057578 -0.4564703 -0.2099424 -0.3429385
0003f0 80 5a 87 3e 03 9e e9 3e ae 87 76 3e 62 6c 09 bf
       0.26436234 0.45628366 0.24075195 -0.53681004

lstm.weight_hh_l0 f4 [512, 128]
000000 00 e3 d9 3c d9 01 3e be d2 ab a3 bd 03 90 ea be
       0.0265975 -0.18555392 -0.079917565 -0.45812997
000010 b0 d2 28 3d 9f 05 cf 3d da b2 03 3e 57 0b 7f 3d
       0.041216552 0.10108494 0.12861195 0.062266674
000020 29 af f5 3c 6c e4 97 be d8 0c 5e be fa 08 23 3e
       0.02999075 -0.2966646 -0.21684587 0.15921393
000030 9b 1a a5 3d ce 53 cd bd cc a8 ee 3d d3 ce a0 3e
       0.08061715 -0.1002575 0.11653289 0.31407794
000040 8a 46 2b bd 56 70 74 bd dc 6b 68 be 45 1b 8b 3d
       -0.04181532 -0.059677444 -0.22697395 0.067923106
000050 58 fd 62 3d fa 83 83 3e ec 8f 05 3e 8e 20 84 be
       0.05541739 0.25686628 0.13043183 -0.25806087
000060 a3 34 e9 be b2 b6 ad 3c 3d de d3 3e b6 59 92 bc
       -0.4554797 0.02120528 0.41380492 -0.017865043
000070 63 ea 9c bd 8d d6 77 bd 48 22 46 3d be 84 0b 3e
       -0.07661893 -0.060507346 0.048372537 0.13624856
000080 66 a5 51 be e2 af 05 bd 57 88 aa 3d 1a 48 34 3e
       -0.20473251 -0.032638438 0.08326786 0.1760563
000090 63 23 e0 3d 7f dc db 3d 35 8b d4 3d 6b 21 2c be
       0.109442495 0.10735416 0.10378114 -0.16809623
0000a0 48 53 b4 3e 7e 9c 12 3f 60 4f ab 3e 9c d3 9e 3e
       0.3521979 0.5727004 0.33458996 0.3102082
0000b0 5f fb 00 3b 6a 5e 23 3e 35 01 45 be 31 84 a6 3e
       0.001968108 0.15953985 -0.19238742 0.3252273
0000c0 53 b5 90 3e 3d fe 24 be a4 88 c8 3d a9 97 c4 bd
       0.2826334 -0.16112609 0.09791687 -0.095992394
0000d0 56 df 1b 3e 92 af 58 3e 9f 58 26 3d f1 f7 99 be
       0.15221915 0.21160725 0.04061186 -0.30071977
0000e0 00 20 6e 3e b2 81 9b 3e 5a 7d 8e be ee f3 a4 be
       0.23254395 0.30372387 -0.2783001 -0.32217354
0000f0 13 82 bd bc 52 38 b1 3e 39 0f b2 be 0e 0a b2 bd
       -0.023133313 0.3461328 -0.3477724 -0.08693324
000100 17 aa 8b be ba 15 1e bc b2 65 fc bd c9 ac 66 3e
       -0.27278206 -0.009648735 -0.12324084 0.2252685
000110 56 bb 0f bd 2b 62 d3 bd 56 5a 7f be 2a de 71 3e
       -0.035090767 -0.103214584 -0.24936804 0.23619905
000120 91 25 83 3e 31 3b 56 ba 7a 4e d4 3c 04 ae 29 3d
       0.25614598 -0.00081722724 0.025916327 0.04142572
000130 24 f5 69 bd d8 2f 62 be 30 8c 56 3d 75 31 88 be
       -0.05711855 -0.22088563 0.052379787 -0.26600233
000140 82 c5 b4 be 2a d0 1c 3e 02 fc fa bc cd 02 23 3d
       -0.35306937 0.15313783 -0.030637745 0.039797593
000150 d7 ee 35 3e 4e 57 60 3c f5 53 17 3d 26 c0 da bd
       0.17766891 0.01369269 0.036945302 -0.10681181
000160 ec 1b 8b bd 3e 33 55 bc 57 68 44 3e 29 b1 ee 3c
       -0.06792435 -0.013012705 0.19180427 0.02913721
000170 94 f3 45 3d 82 0f f6 bd 82 5b 4f bd 4f c2 6d 3c
       0.048327997 -0.12014677 -0.050624378 0.014511659
000180 f9 d1 81 3e 60 73 f7 3b 80 9e 15 be b8 97 73 3d
       0.2535551 0.0075515956 -0.14611244 0.059470862
000190 7e 2b e0 bd 1f ba 9a be 67 93 79 be c1 37 91 be
       -0.109457955 -0.30220124 -0.24372636 -0.2836285
0001a0 6d c7 bb 3d 50 05 bb bd 12 1b d4 bd 7d 63 d1 3d
       0.09168897 -0.09131873 -0.10356726 0.10224054
0001b0 da 78 00 3d 4c 37 5f be 97 55 04 3e 6d 3e 1f be
       0.031365253 -0.21798438 0.12923275 -0.15551157
0001c0 a9 64 a1 3e a1 c8 1f 3e 57 41 1b be c1 0f ce 3d
       0.3152211 0.15603878 -0.15161644 0.100615986
0001d0 d7 76 04 be 61 7d 2e 3e a2 60 43 3e ae a4 9a 3d
       -0.12935959 0.17040016 0.19079831 0.075509414
0001e0 91 b0 9f 3e bf c8 2b 3e 6b a3 62 be 56 00 5d bd
       0.31189397 0.16775797 -0.22132652 -0.0539554
0001f0 f0 09 76 3e d8 3f ab 3e 1f 08 10 be 81 b9 01 3e
       0.24027228 0.33447146 -0.14065598 0.1266842
000200 c5 43 85 bd bc a5 f6 bd 69 2a 86 be 21 1f c1 3e
       -0.06507067 -0.1204333 -0.2620423 0.37719062
000210 44 49 2b 3c 7b db 1a 3e 3f a6 3d 3d 74 50 1a bd
       0.01045448 0.15122788 0.046301123 -0.037674382
000220 8a ae e8 bd 41 84 00 3d 9b 97 27 3d 35 79 be bb
       -0.11361416 0.031376127 0.040916067 -0.005812789
000230 dd 97 67 bc d3 26 68 be e2 b3 2a 3b 4b 51 f7 bd
       -0.014135328 -0.2267106 0.002604716 -0.12076052
000240 13 fd 1b 3e a6 95 72 3e 57 ca be 3d e6 79 e9 3c
       0.15233259 0.23689899 0.09315937 0.028500509
000250 ee 47 90 be 4e 33 c6 3c 34 e3 83 3e f0 b5 2a 3e
       -0.28179878 0.024194386 0.2575928 0.16670966
000260 21 d4 ee 3c b5 15 d8 3c b0 85 20 3e 93 9c ad bd
       0.029153885 0.026377538 0.15675998 -0.0847713
000270 f3 19 15 be 3b 72 c7 ba d3 08 5c bd ea 9e 2c 3c
       -0.1456068 -0.0015216538 -0.053719353 0.010535935
000280 3b 03 d2 3c 10 a2 28 be 59 84 36 be 94 04 7b bd
       0.025636306 -0.16468072 -0.17823924 -0.061283663
000290 2c 5c e1 3e 8d e0 64 3e fb c1 e6 3c 95 ef 30 3e
       0.44015634 0.22351284 0.028168669 0.17278893
0002a0 61 6e 79 3d 48 e6 c1 bd b2 df da bd 8a 9a 11 3e
       0.06089628 -0.09467751 -0.10687198 0.14219108
0002b0 f5 06 69 3e 91 2c 0b 3e ed 84 d3 bd ce 5f 0e 3e
       0.2275656 0.1359122 -0.10328088 0.13903734
0002c0 dc c6 29 be 71 2e 37 3e 49 97 60 3e a3 a3 e8 3c
       -0.16579765 0.1788881 0.2193271 0.02839834
0002d0 5d 1f 81 3e 45 8e a9 3e 5c 71 8c be ad 3b d7 3d
       0.2521924 0.33116356 -0.27430236 0.10509429
0002e0 dd bd 96 3e 64 2d 51 3d 14 f4 3f be a5 51 91 3e
       0.2944173 0.05106868 -0.18745452 0.28382602
0002f0 52 04 83 bd c4 f0 7a be c0 11 19 3c 8c 31 d0 3d
       -0.063973084 -0.24505907 0.009342611 0.101657
000300 4c 69 1c 3c a2 c8 0b 3e 6e 5d 25 3e 04 21 45 be
       0.009546589 0.13650754 0.16148922 -0.19250876
000310 40 b5 e5 bd 13 49 22 3e d9 5e d4 bd 48 6f 6a bd
       -0.11216211 0.15848188 -0.10369653 -0.057235032
000320 60 8f 71 be 23 d7 94 bd c4 3c ab be 54 21 0f be
       -0.2358985 -0.072675966 -0.33444798 -0.13977557
000330 5f a7 cf 3d 1a a8 b9 be c2 c7 c5 bd bd 30 96 bd
       0.101393454 -0.36261064 -0.096572414 -0.07333515
000340 66 cf b0 bd 29 d9 bd 3d d7 57 d2 bd e0 0d 55 be
       -0.08633308 0.09269936 -0.1027066 -0.20806074
000350 16 5b c6 3b f5 7b 58 bb 25 4a 0e 3d 9d 81 4b 3e
       0.0060533388 -0.0033032869 0.03473868 0.19873662
000360 4a 80 e7 3d 47 d0 3d bd 2b 98 02 bd 45 3e e4 bd
       0.11303766 -0.046341207 -0.0318834 -0.111446895
000370 07 0f 83 3d 99 4b 42 bd 20 c9 88 be d6 88 85 bd
       0.063993506 -0.047435377 -0.26715946 -0.0652024
000380 32 fc 2f be 33 5d 89 bc c3 b2 d4 3c 6c 36 6f be
       -0.17186049 -0.016768074 0.025964146 -0.23360604
000390 9d 56 d7 bd 85 3a 32 3e 23 10 6b be 13 4a 66 bd
       -0.10514567 0.17405136 -0.22955374 -0.056222986
0003a0 78 73 f4 3e 0e 91 8a bd 14 49 89 3e da 42 16 be
       0.47744346 -0.06765948 0.26813567 -0.1467394
0003b0 f9 3c 42 3e 80 48 ae be 55 68 f4 bd 0f 27 35 3e
       0.18968572 -0.34039688 -0.11933962 0.17690681
0003c0 ea 7e 01 3e d7 49 60 ba c9 3b 05 3e 9b a4 db bd
       0.1264607 -0.0008555925 0.13011087 -0.107247554
0003d0 0f bc 2a 3d 63 f7 65 3b 89 b2 c9 be ba c8 89 bd
       0.041683253 0.003509008 -0.39394024 -0.06727739
0003e0 0e 9d e5 3d 76 63 0f 3e 00 7c 67 3e ca 48 9e bc
       0.112115964 0.14002785 0.22605896 -0.019321818
0003f0 37 8f 41 bd 06 07 e4 bd d0 4c 81 3e 08 4d 4f bc
       -0.04725572 -0.11134152 0.25253916 -0.012652643

lstm.bias_ih_l0 f4 [512]
000000 07 8a 5c 3e a9 58 b1 bd 0e 3f 87 3e ca c2 6e bc
       0.21537028 -0.08659489 0.26415294 -0.0145728085
000010 23 32 a3 3d ab e4 85 3e e1 34 65 3e 85 08 06 3e
       0.07968547 0.26151022 0.22383453 0.13089187
000020 58 f0 ef 3d e3 d8 20 bd d7 a2 c8 3e 6d 54 f1 3c
       0.11715764 -0.03926934 0.39186737 0.029459203
000030 1d 68 0b 3e 55 b3 7f 3b 61 5f 7a 3e ae 0a c7 3e
       0.13613935 0.0039016802 0.24450447 0.38875335
000040 82 76 06 be 89 99 16 3c 42 27 8b 3e 56 c6 3b 3e
       -0.13131145 0.009191879 0.2717839 0.18337378
000050 45 41 11 bc 2e a0 d6 3e 9b 3a 5e 3e 97 27 29 3f
       -0.008865659 0.41919082 0.21702044 0.66076034
000060 0e 14 cb 3e 75 8b 10 3e 73 64 33 3e 03 0d 88 3e
       0.39663738 0.14115699 0.17518787 0.26572427
000070 f1 c4 d4 3e ee d6 e6 3e 95 1f 21 3e a7 4b be 3e
       0.41556504 0.45085853 0.15734704 0.37167093
000080 ea f9 e2 3e 63 d4 c3 3e 7c 1e a2 3e b5 4f 9e 3e
       0.44331294 0.38247976 0.31663883 0.30920187
000090 e8 22 d2 3d 2f b2 8a 3e b8 62 b8 3d 58 74 c3 3e
       0.10260564 0.27089068 0.09003204 0.381747
0000a0 33 59 54 3e 17 d8 fe 3e 10 e8 fb 3d 14 d3 cd 3e
       0.20737152 0.49774238 0.12300122 0.40200102
0000b0 14 e5 9f bc 51 fd 89 3d 0b be bb 3e fd b9 f2 3e
       -0.019518413 0.067377694 0.3666843 0.47407523
0000c0 3b 73 d6 3d b5 5d 17 3f 97 d9 55 3e 50 d1 1b 3e
       0.10471197 0.5912736 0.20883785 0.15216565
0000d0 9e 89 2f 3f c6 85 40 3f 7c f6 2f 3e e3 ed 7b 3e
       0.6856936 0.7520412 0.1718387 0.24602465
0000e0 c3 76 6c 3d 54 d4 3c 3e 74 d6 0c 3e b3 f2 5c 3e
       0.057730448 0.18440372 0.13753682 0.21576957
0000f0 29 96 f4 3e 1f e4 cf 3e d6 fd 99 3e 07 df 14 be
       0.47770813 0.4060373 0.30076474 -0.14538203
000100 fb c5 18 3e 59 22 bd 3a b8 97 ae 3c 9e 7d 58 3e
       0.14919274 0.0014429792 0.02131258 0.21141669
000110 d7 38 67 3e 63 44 f4 3c 00 70 10 3c 10 9d 9d 3e
       0.22580276 0.029817766 0.008815765 0.30783892
000120 8b 4f d6 3e 9e 4e d2 3b a7 9f 95 bc c7 82 8a 3e
       0.4185756 0.0064180633 -0.018264605 0.270529
000130 d3 11 f7 3d 87 8e 81 3e 6c 28 0b 3f 81 e1 02 bc
       0.120639466 0.25304052 0.54358554 -0.007988335
000140 b2 87 f2 3e fc 41 15 3f 7e 6a 27 bd d9 ca 2b 3e
       0.47369152 0.5830381 -0.040873043 0.16776599
000150 5a b7 a0 3d 36 2a 1f 3e 02 bd 1b 3e a7 c0 99 3d
       0.078474715 0.15543446 0.1520882 0.07507449
000160 42 56 98 3e 7a b7 74 3e 18 0f 23 3f 6f b1 63 3e
       0.2975331 0.23898116 0.63694906 0.22235654
000170 2b e1 48 3e 15 b6 f4 3d 64 1e 6d 3e 5d 8e 39 be
       0.19617145 0.11948792 0.23156124 -0.18120714
000180 65 47 7b 3e 65 1b ab 3e d0 74 38 3f c9 53 35 3e
       0.24538954 0.33419338 0.7205324 0.17707743
000190 58 db 2f 39 5f 39 67 3e 22 90 6f 3d 48 75 41 3d
       0.00016771012 0.22580479 0.058487065 0.04723099
0001a0 97 04 05 bd 9b a1 c2 3e 38 9d 57 3e 16 56 3a 3e
       -0.03247508 0.3801392 0.21056068 0.18196902
0001b0 84 9b ba 3e 2d 46 03 3f 8c 9c 35 3e 59 16 3f 3e
       0.36446774 0.51278955 0.17735499 0.18660869
0001c0 cc ce 99 3c 1b 6d a9 3e 91 d1 a8 3e 07 76 91 3e
       0.018775366 0.33091053 0.32972386 0.2841036
0001d0 9b 9c b7 3e 26 4a d5 bc c5 0c d4 3c 9b 40 18 bb
       0.35861668 -0.026036333 0.025884995 -0.0023231867
0001e0 8c bd 94 3e d7 d3 18 3e c9 13 a4 3d c8 7f 9a 3d
       0.29050863 0.1492456 0.08011586 0.075439036
0001f0 aa 96 40 3e 5d 77 47 3f 42 d6 2c bd 0c 17 4d bd
       0.18807474 0.7791651 -0.04219652 -0.050070807
000200 09 6a f8 bd 19 21 5a be b3 d7 ce bd 4d 48 10 be
       -0.121295996 -0.21301688 -0.10099735 -0.1409008
000210 00 65 a5 bd dc 43 86 be 51 84 97 3c 2c 5a a0 be
       -0.08075905 -0.26223648 0.01849571 -0.31318796
000220 ec 6e c4 be af 53 9b 3d 11 98 92 3d a0 2c 8a be
       -0.38365877 0.07584321 0.071579106 -0.2698717
000230 40 f6 6b be 6d e0 29 3e 73 33 ff bd 6a 71 bc be
       -0.23043156 0.16589518 -0.12460985 -0.36805278
000240 a5 20 37 3d 0e 01 7a be 0c 9b 9b bd e8 f6 29 be
       0.044708867 -0.24414465 -0.07597932 -0.16598094
000250 08 f1 1f be 6f 4e cd 3d 66 25 7b be 54 24 fb 3d
       -0.1561929 0.10024726 -0.24525985 0.122627884
000260 67 d3 e9 3d 8b ac c9 3c 1d 26 d6 bd ee a8 29 bd
       0.11417275 0.024618408 -0.10456488 -0.04142087
000270 a6 f1 e0 3c d5 7b 0f be 6a 13 86 be 52 4f 24 be
       0.027458977 -0.14012082 -0.26186687 -0.16045883
000280 17 51 8b be d0 09 6a be 76 d7 d6 be a5 85 ac be
       -0.27210304 -0.22855306 -0.4196126 -0.33695713
000290 a2 e9 60 be ab 69 32 be e4 8e 3f 3e b8 4e a5 bd
       -0.21964124 -0.17423122 0.18706852 -0.08071655
0002a0 8e f6 80 be 34 f5 9a 3e d4 3a 54 be e9 86 bf be
       -0.25188106 0.302652 -0.20725566 -0.37407616
0002b0 28 51 04 3e 08 82 a4 3c 91 5f 9d 3e 86 c6 9f be
       0.12921584 0.020081535 0.30736974 -0.3120615
0002c0 db 3c 11 3d 1f 59 dd 3e c6 30 03 be dc 69 70 be
       0.035458427 0.43232056 -0.12811574 -0.23477882
0002d0 1d 96 93 3e 8e d0 0e 3f e3 cf 2e be cb 92 57 3c
       0.28825465 0.5578698 -0.1707149 0.013157557
0002e0 4b 44 ac 3c de d5 03 be ce f6 11 3d b4 fa d1 be
       0.021028658 -0.12874553 0.035635762 -0.41011584
0002f0 21 c6 ac 3e d2 f2 00 be df 1a 97 bd 59 a0 0d 3c
       0.3374491 -0.12592629 -0.07378172 0.008644187
000300 60 6d 13 3d 6b 5a b3 bd 00 5d a5 3d 3d a6 dd be
       0.03599298 -0.0875748 0.08074379 -0.43290892
000310 b3 cf f9 bd 2b cc 86 be 53 af c3 be 75 6e 98 3d
       -0.121978186 -0.26327643 -0.382197 0.07442943
000320 e6 99 d2 be cc 0a f8 bd da 6a cd bd 27 99 b1 3d
       -0.4113304 -0.12111434 -0.10030146 0.086717896
000330 eb 9d 56 3e 4d 05 0e be 90 d9 03 be 05 b5 54 be
       0.20958678 -0.1386921 -0.12875962 -0.20772178
000340 0d 9e 25 be f6 20 97 be ad 31 62 3d 84 c8 fc bd
       -0.16173573 -0.29517335 0.055223156 -0.12342933
000350 11 ed 21 be 7d c8 be be 18 03 9d be a8 03 44 be
       -0.1581309 -0.37262335 -0.30666423 -0.1914202
000360 18 4d 06 be df 8e ee be 87 70 85 be 0d dc 5a be
       -0.13115346 -0.46593377 -0.26062414 -0.21373005
000370 52 04 c5 bd a3 62 4b be 19 71 94 be 99 46 96 bd
       -0.09619965 -0.19861846 -0.28992537 -0.07337684
000380 31 6a b7 be e6 b1 81 be 3e 65 9d 3e 32 ea 50 be
       -0.35823205 -0.25331038 0.30741304 -0.20401838
000390 e5 f0 3d 3d 47 58 c2 be 44 bb 6e 3d e3 82 6a be
       0.046372313 -0.37957975 0.05828406 -0.22901492
0003a0 b0 55 04 3d c9 6a 65 be 36 02 1e be 31 d5 8c 3e
       0.03230828 -0.22404017 -0.15430531 0.27506402
0003b0 c0 3e 15 bf 48 e6 ae be 73 b0 70 3e 02 46 5b be
       -0.58298874 -0.34160066 0.2350481 -0.21413425
0003c0 8f 59 09 be e1 75 55 be 83 8c 13 be 0d a4 79 bd
       -0.1341307 -0.20845748 -0.1440907 -0.060947467
0003d0 93 84 8c be 6e f9 6e be 91 c1 0b be 8a 0e c5 bd
       -0.27444896 -0.23337337 -0.13648058 -0.09621914
0003e0 7e f5 81 3e 8d 2c b5 3d f7 7b 83 be fa cc 6b bc
       0.25382608 0.08846388 -0.25680515 -0.014392132
0003f0 e7 50 cb be d6 f4 55 3e a6 1d 5d be 00 c7 35 be
       -0.3971016 0.20894179 -0.21593341 -0.17751694

lstm.bias_hh_l0 f4 [512]
000000 a0 80 81 3e 69 e5 4e be 85 0a 71 3e dc eb a6 bd
       0.25293446 -0.202047 0.23539169 -0.08150455
000010 93 b5 55 3e 43 46 9b 3e e6 fe 6b 3e 07 11 1e 3e
       0.20870046 0.30327043 0.23046455 0.15436183
000020 48 3d f1 3d 3f 29 05 3d 63 f5 e0 3e e2 13 e6 3d
       0.117792666 0.03251004 0.43937215 0.11234261
000030 82 0c 26 3e a9 36 59 3d 22 f8 63 3e 3c a2 ab 3e
       0.16215709 0.053030644 0.22262624 0.33522213
000040 f1 49 ed bb f4 d8 21 3c e7 f6 48 3e 95 be ad 3e
       -0.0072414805 0.009878386 0.19625436 0.33934465
000050 db db ed ba 4c 19 d3 3e d7 cb 7a 3e 29 38 2d 3f
       -0.0018147187 0.41230237 0.24491821 0.6766382
000060 7d 05 b9 3e ef bb d8 3d 68 c5 0b 3e 1a 0e 13 3e
       0.36137 0.105827205 0.13649523 0.14360848
000070 0e 15 c1 3e 9d 11 c1 3e c9 f8 9e 3d 2f d2 c1 3e
       0.37711376 0.3770875 0.07762296 0.3785567
000080 5f a9 a5 3e fa 1b cb 3e ad f1 d0 3e 3b 96 b9 3e
       0.32355782 0.39669782 0.40809384 0.3624743
000090 96 ab 45 3e ea a6 85 3e a3 28 51 3e ef 1c 9e 3e
       0.19303736 0.26103908 0.20425658 0.3088145
0000a0 78 8c 22 3e 4a d4 d4 3e f2 20 1d 3e e6 90 81 3e
       0.15873897 0.41568214 0.15344599 0.2530586
0000b0 89 da c3 3d a1 f1 43 3e c0 aa cb 3e 79 a5 f7 3e
       0.09563167 0.19135143 0.3977871 0.48368433
0000c0 1c 62 e9 3c 34 18 1e 3f bf 1b 1e 3e d4 d1 82 3e
       0.028489165 0.6175568 0.15440272 0.2555071
0000d0 f6 80 3b 3f fc 79 34 3f f7 67 71 3e 5a 8e 25 3e
       0.73243654 0.70498633 0.23574816 0.16167584
0000e0 f9 3c 90 3d 3b ab 58 3e 5c f3 3b 3e d1 0e 23 3e
       0.070428796 0.21159069 0.18354553 0.15923621
0000f0 4c 61 1b 3f 77 6b e5 3e a4 2a 92 3e 60 64 3d bd
       0.6069534 0.44808552 0.28548157 -0.046238303
000100 43 9b 2c 3e 06 ef ab 3d db c4 5e 3d ec 7c 95 3e
       0.16856103 0.083951995 0.054386955 0.2919687
000110 3f 46 88 3e 43 e6 3d 3e 61 3e f4 bd da e0 52 3e
       0.26616094 0.18544869 -0.1192596 0.20593587
000120 c9 99 f2 3e 76 bb 20 bd 48 3a d0 bc b0 36 8d 3e
       0.47382954 -0.039241277 -0.025418416 0.27580786
000130 6d 7e 98 3d fc 9e a7 3e 0e f1 08 3f 61 cb c3 bd
       0.07445989 0.32738483 0.5349282 -0.09560276
000140 ba ed ff 3e 4d 88 05 3f e3 b1 a3 3d 65 1a 44 3e
       0.49986058 0.52161103 0.079929136 0.19150694
000150 66 a4 c2 3d 84 cc 4b 3e f6 4e f3 3d d0 06 8b 3d
       0.09504013 0.19902235 0.11880295 0.06788409
000160 ef ef db 3e 92 eb 90 3e 57 a4 0d 3f da ea 4b 3e
       0.42956492 0.28304726 0.5532889 0.19913808
000170 b9 2d 2a 3e 2f d7 20 3e f0 57 72 3e a8 50 40 be
       0.16619004 0.15707086 0.23666358 -0.18780768
000180 cc 3e 66 3e b1 64 98 3e ff ec 1f 3f de a3 3e 3e
       0.22484893 0.2976432 0.62471 0.18617198
000190 42 1f 93 3c 53 10 8a 3e 49 9c 1c 3e 2c e2 74 3a
       0.01795924 0.2696558 0.15293993 0.00093415636
0001a0 fe a7 26 be da 2b d6 3e e2 42 78 3e 8e 59 70 3e
       -0.16275021 0.4183033 0.24244264 0.23471662
0001b0 ed ef 93 3e b3 5f d3 3e 9a fd 8a 3e e0 9c 46 3e
       0.28893986 0.4128395 0.27146608 0.1939578
0001c0 94 47 38 3e 30 ad 91 3e a9 32 e0 3e 90 93 9d 3e
       0.17996055 0.28452444 0.4378865 0.30776644
0001d0 df 44 bd 3e 6e 5a 0d bd 0d 5c 8d 3d da af c0 3d
       0.36966607 -0.03451007 0.06902323 0.09408541
0001e0 97 c3 7b 3e 60 35 72 3e 39 49 44 3e 8d 63 bb 3c
       0.2458633 0.23653173 0.19168557 0.022874618
0001f0 a0 09 70 3e 59 a5 44 3f 92 ce d7 3d 16 df 9b 3d
       0.23441172 0.768148 0.10537447 0.0761091
000200 3a c9 30 be c0 90 6d be 30 38 48 3d d6 ac 93 bd
       -0.17264262 -0.23199749 0.04888171 -0.072107
000210 87 7a 6f be cf 33 34 be d0 eb 7f 3c 28 0b a4 be
       -0.23386584 -0.17597888 0.015620187 -0.32039762
000220 40 ad c6 be 0a b5 3a b9 73 87 02 3d e2 ea 85 be
       -0.38804054 -0.00017805785 0.031867456 -0.26155764
000230 60 72 26 be e0 cf 03 3e d3 20 45 bd e8 c1 85 be
       -0.16254568 0.12872267 -0.048127007 -0.261245
000240 f8 4e 21 bd de 77 36 be 6a 25 d7 3c 55 fc 8f be
       -0.03938195 -0.17819163 0.026262958 -0.28122202
000250 e9 3c 65 bd 7b d5 4f 3e 18 7d 8a be 45 3f f1 3d
       -0.05596629 0.2029628 -0.27048564 0.11779646
000260 1e 9d b5 3d 3d 26 e1 3d 95 a4 2f bc 44 da bd bc
       0.08867858 0.109936215 -0.010720392 -0.023175366
000270 31 11 e2 bc b5 47 07 be d0 3e 52 be bf 8c 4d be
       -0.027596088 -0.13210948 -0.20531774 -0.20073222
000280 e0 4c a9 be 3c 1c 6a be 2e c1 cf be 95 9e be be
       -0.33066463 -0.22862333 -0.40577072 -0.37230363
000290 29 6a 27 be eb bc a6 be c0 62 6f 3e 0f ba bd bd
       -0.1634909 -0.32566008 0.23377514 -0.092640035
0002a0 2d ad 71 be 99 7c b0 3e 73 22 b0 be b5 83 84 be
       -0.23601218 0.3447006 -0.34401283 -0.25881734
0002b0 53 20 d3 3d c5 82 2a bd df 32 cb 3e 53 68 47 be
       0.103089 -0.041628618 0.3968725 -0.1947339
0002c0 9a f1 e1 3c 35 71 a9 3e 9b 54 15 be a6 45 99 be
       0.027581025 0.33094183 -0.14583056 -0.2993595
0002d0 9c 12 db 3e be 63 0c 3f 46 01 33 be 6e 3b a5 3d
       0.42787635 0.54839694 -0.17480955 0.08067976
0002e0 53 14 3c bd 64 d7 01 be 0d 39 eb 3c d8 3e cd be
       -0.04591782 -0.12679821 0.028713727 -0.40087008
0002f0 43 32 8e 3e 4f 48 50 be f3 46 1f bc e9 92 07 bd
       0.27772722 -0.20340084 -0.009721505 -0.03309909
000300 36 45 31 bd ad 24 3d be 36 e7 1c 3c 59 44 a0 be
       -0.043278895 -0.18471022 0.009576609 -0.31302145
000310 8d 8d 19 be 94 b2 85 be d7 0e a4 be e8 a6 41 3d
       -0.14995404 -0.26112807 -0.32042572 0.047278315
000320 1c 95 91 be 3f 98 e2 bd 64 c4 a5 bd d8 95 2a 3e
       -0.28434074 -0.11064195 -0.08094099 0.16658723
000330 0a 2e 2b 3e 38 79 6e be a8 3b c9 bd 57 43 99 be
       0.16716781 -0.23288429 -0.09825832 -0.2993419
000340 a6 6b 40 be 49 c5 ba be 41 04 a6 3c 20 97 45 be
       -0.18791065 -0.36478642 0.0202657 -0.19295931
000350 5e c2 26 be d7 4c ae be ab 51 4b be 67 a7 40 be
       -0.16285083 -0.34043 -0.19855373 -0.18813859
000360 78 c8 f0 bd 46 e8 f9 be a0 6c c6 be d4 60 53 be
       -0.117569864 -0.48810023 -0.3875475 -0.20642406
000370 7e 37 3e be e8 ec 95 be 53 e2 8b be 78 80 80 bd
       -0.18575856 -0.29282308 -0.2732111 -0.062745035
000380 c8 48 6f be 43 8f 7a be 5e 10 3c 3e db 2c 45 be
       -0.23367608 -0.24468713 0.18365619 -0.19255392
000390 85 01 b1 bb 61 36 ad be 8a 0a 50 bd 1c a0 77 be
       -0.0054017925 -0.3383055 -0.0507913 -0.2418217
0003a0 71 ee d7 bb 76 af 07 be aa 43 8a bd 66 69 68 3e
       -0.0065897037 -0.13250527 -0.06751187 0.22696456
0003b0 76 4f e3 be 69 59 8d be d1 0a 03 3e af 36 95 be
       -0.4439656 -0.27607277 0.12797095 -0.29143283
0003c0 1b 56 5a bd 84 24 5b be 92 49 8f be 7a 3f aa bd
       -0.053304773 -0.21400648 -0.27985817 -0.083128884
0003d0 f7 8b b1 be e4 54 7f be 9c df 5b be ed 28 d9 bd
       -0.34677097 -0.24934727 -0.21472019 -0.10603509
0003e0 80 bf 47 3e df 61 12 3e 60 6b 97 be cc 6c 11 bd
       0.19506645 0.14295147 -0.29574108 -0.035504147
0003f0 1d 7d af be 4c c9 f1 3d b1 91 29 be 42 d9 06 be
       -0.3427514 0.118059725 -0.16559483 -0.13168815

linear.weight f4 [12, 128]
000000 b1 be 28 3f bb b7 ca bd 2d f8 cd be 25 d7 e9 be
       0.6591597 -0.09898325 -0.40228406 -0.45671955
000010 13 4b af 3e b6 96 d3 be 16 34 93 3f a7 a4 2f bd
       0.34236965 -0.4132592 1.150027 -0.042881634
000020 1b 76 63 3f a8 01 ac 3f 65 73 19 c0 8d 0b 87 bf
       0.8885209 1.3438005 -2.3976681 -1.05504
000030 ee d7 f5 3d 9b 76 2d 3f b5 29 5c 3e b1 15 60 3f
       0.12004076 0.677591 0.21500285 0.875331
000040 b6 e5 c7 bf 2c 6b 9e bf 10 be de bd fd 8e a4 bf
       -1.5616977 -1.2376456 -0.10876095 -1.2856137
000050 9e 95 69 3f 4b 21 50 bf 48 7f 5f bc da 56 57 3f
       0.9124392 -0.813008 -0.013641186 0.841169
000060 88 47 fd bc 01 b0 5d bf aa a1 b2 be e0 a5 35 3f
       -0.030917898 -0.86596686 -0.34888965 0.7095623
000070 ef 39 18 bf be 28 81 3f f6 d6 4c bf d9 ef 82 be
       -0.594634 1.0090559 -0.80015504 -0.25573614
000080 27 c3 b7 be fc 49 8b bf 77 88 4a be bc 3c 0c be
       -0.35891077 -1.0881953 -0.1977862 -0.13695043
000090 4d 38 af bf dd 1e fb bf 49 2d 9d bf 9e 88 19 3f
       -1.3689057 -1.9618794 -1.2279445 0.59974086
0000a0 05 e9 ae 3e 34 5d 36 c0 7c 3c b8 3e 99 0f d3 3f
       0.34162155 -2.8494387 0.35983646 1.6489135
0000b0 73 00 29 bf 25 b5 e0 3e e1 5e a3 3f a9 a2 65 bf
       -0.6601631 0.43888202 1.276333 -0.89701325
0000c0 e6 ae 28 be b8 91 9d bf 98 22 a5 3f d6 0f 35 bf
       -0.16472968 -1.2310095 1.2901182 -0.7072729
0000d0 6a e8 98 bf 4c e7 d4 3e 1d 23 2e 3e d4 42 14 3e
       -1.1945927 0.41582716 0.17005582 0.14478618
0000e0 e6 39 45 be c3 3e 25 3d 68 9c 62 3f 93 7a e1 be
       -0.19260368 0.040343057 0.88519907 -0.4403883
0000f0 f3 63 b8 3f ac 2c 5f bf 48 24 ef 3e e9 ea 1e bf
       1.4405502 -0.8717754 0.46707368 -0.62077194
000100 95 6a 6e bf 9b 58 92 bf 9e ab 42 3e 07 13 3f bf
       -0.9313138 -1.143329 0.1901078 -0.7463841
000110 f5 08 3b bf b2 88 e8 3e 97 75 df bf d3 e5 98 3f
       -0.7306054 0.4541679 -1.745776 1.1945137
000120 51 db 2c 3f 1d a7 f4 be c0 99 7b 3e 98 b9 ce 3f
       0.6752215 -0.47783747 0.2457037 1.6150389
000130 ce ab 9d bf e6 3c e5 be 66 fd 90 3f a5 70 54 be
       -1.2318056 -0.44773024 1.1327331 -0.20746095
000140 8c 39 6b 3f a2 17 c3 3f 48 93 1b bf 2b 6a 42 be
       0.91884685 1.5241587 -0.6077161 -0.18985812
000150 bf fb 9e bf 93 ba 59 3f ea cc d5 3f a2 45 51 bf
       -1.2420577 0.85050315 1.670316 -0.81746876
000160 4c 1f 7f be 7a 29 cb bd 07 52 03 be 1d b1 40 be
       -0.24914283 -0.099200204 -0.1282426 -0.18817563
000170 fd 92 81 3f e5 63 fd 3e ec d6 ed 3d b8 fa 73 3f
       1.0122982 0.49490276 0.11613259 0.9530444
000180 70 4c 1f bf 4c ec 67 bf e3 8d a1 3e 5b 84 d8 3d
       -0.6222601 -0.90594935 0.31553563 0.1057212
000190 59 75 0f 3f 7f 51 99 be 3c 46 72 3f 96 c7 1c 3f
       0.56038433 -0.2994499 0.9463842 0.61242044
0001a0 04 1d a5 3c 1c e8 50 bf e3 c2 a0 bf 35 a7 1d 40
       0.020155437 -0.8160417 -1.2559475 2.4633305
0001b0 a9 cb 6a 3f e1 60 cf be 10 94 e1 3f c2 c0 3e 3f
       0.9171701 -0.405036 1.762331 0.74512875
0001c0 6b 7c 8f 3f 59 4b 0d bf 13 d2 2c bf 76 6b 64 3f
       1.1209844 -0.55193096 -0.6750805 0.8922647
0001d0 0a b1 54 bf c6 70 53 bf 39 87 d0 3e 61 20 44 bf
       -0.8308264 -0.82593954 0.40728167 -0.76611906
0001e0 b9 f9 8d 3f e6 e6 95 3f 8e 5d 10 be 2b ec 00 3f
       1.1091834 1.171109 -0.14098188 0.50360364
0001f0 bb 68 d6 bd 29 72 a8 3e 82 d7 a3 3f 01 a4 29 3f
       -0.104691945 0.32899597 1.2800143 0.66265875
000200 e5 04 c8 3e 1d 9a a9 be ae 5b f5 3e 7b 74 f0 3e
       0.39066234 -0.33125392 0.4792151 0.46963868
000210 63 94 8c 3f 0f 83 2c 3f dd 76 d3 bd 34 f5 03 3f
       1.0982784 0.6738748 -0.10325406 0.51546025
000220 4e eb 81 3f 8a 47 2a bf 27 4c 61 3e 0a 2f 48 bf
       1.0149934 -0.6651541 0.22001706 -0.78196776
000230 f3 81 e0 bd 6a 3b 81 be 59 d3 b8 3e 76 5d 02 3d
       -0.10962286 -0.25240642 0.36098745 0.031827413
000240 f0 cd de 3d ac 22 95 3f 29 a4 d9 be 1a 72 ae bd
       0.10879123 1.1651206 -0.42508057 -0.08517857
000250 b0 ac 10 bf 01 54 5f 3e 35 f6 1b 3f 22 5a c1 3c
       -0.565135 0.21809389 0.6092256 0.023602549
000260 eb ba a1 3e 4b 51 3f bf c6 6b 5d 3e fb 2b c3 3e
       0.3158792 -0.7473342 0.21623144 0.38119492
000270 e5 e8 22 3f 2e fd f8 be c6 76 bb bc 66 e5 53 bd
       0.6363662 -0.4863066 -0.022883784 -0.051732443
000280 e3 6e 53 3f ce bd 1f bf 87 ff 7a bd 40 80 10 bf
       0.82591075 -0.62398994 -0.061278846 -0.56445694
000290 27 fb 0b bf bd 8f e5 3e d4 28 d0 be 89 4c 40 be
       -0.54680103 0.44836226 -0.4065615 -0.18779196
0002a0 9e 83 af 3e 63 8a ac be 1b 32 c1 bd 14 e2 86 be
       0.34280103 -0.3369933 -0.09433385 -0.2634436
0002b0 b4 f6 82 3e 61 89 09 3f 1c b2 c5 be f7 8f 89 3f
       0.25578845 0.5372525 -0.3861245 1.074706
0002c0 bb 5b 79 bf 30 fb 58 3e 03 73 0c 3d 99 8e f9 3e
       -0.97405595 0.2118957 0.03428937 0.48741606
0002d0 ab 7e 26 3f dc 34 fc 3e a1 25 64 3f 85 02 d2 3e
       0.6503703 0.49259079 0.8911992 0.41017547
0002e0 db a4 c3 be 2b f5 31 bf b6 2c e9 3d 6a c4 b4 3f
       -0.38211712 -0.6951472 0.11385481 1.4122441
0002f0 04 51 eb 3c c8 fe 57 bf 4e f7 85 be ea 69 35 bf
       0.028725155 -0.8437314 -0.2616524 -0.7086474
000300 fe e6 c5 be 99 fb 41 3f 14 10 41 bf a7 dc bf be
       -0.38652796 0.7577453 -0.7541516 -0.37473032
000310 a3 41 66 bf 81 55 4c bf d5 6f bf 3e 1e e1 77 3f
       -0.89943904 -0.7981797 0.3739001 0.96827877
000320 88 45 58 be dd 1b 98 bd ad e2 c5 3e bc fc 26 be
       -0.21120274 -0.074271895 0.38649502 -0.16307348
000330 f1 18 81 3e 07 83 c9 be 93 cb 9e 3e a8 27 81 3f
       0.2521434 -0.39357778 0.3101469 1.0090227
000340 19 c9 20 be 9c 81 60 bf f3 ae 85 be 11 0a b9 3d
       -0.15701713 -0.8769777 -0.26110038 0.09035123
000350 e9 6d 04 be 03 be dd 3d 8b b6 9a bf d1 f1 a5 3e
       -0.12932552 0.108272575 -1.2086958 0.32411054
000360 d9 3e 34 3e be 5e 92 be 0f b2 3f bf bd 6a 04 3f
       0.176021 -0.28587908 -0.7488107 0.5172537
000370 15 15 9c be e2 69 56 3f e2 f6 7c 3f c5 52 07 bf
       -0.30484834 0.83755314 0.98814213 -0.5286067
000380 c5 ed 4c bf e8 ad 38 3e 13 4b 7d bf 33 e4 2b be
       -0.8005031 0.1803509 -0.9894268 -0.1678627
000390 dd 57 bd 3e 5e c8 88 3f 20 dc ba be 02 83 7f 3f
       0.36981097 1.0686147 -0.36496067 0.9980928
0003a0 d2 6b 2f 3f 2d 3c 90 bd 95 87 b8 3e ff 6f 2a bf
       0.68523896 -0.070427276 0.3604094 -0.6657714
0003b0 bc 28 54 bd be b3 43 bf 0d 3c 86 bf d2 a0 8d 3f
       -0.05179666 -0.7644614 -1.0487076 1.1064703
0003c0 81 4a 10 3c 34 2a 3e 3e 1a 77 5a bf 3d 78 68 bf
       0.008806826 0.18570787 -0.85337985 -0.9080847
0003d0 c3 ec 66 3f ad 5d cc bb 06 2b 32 3e 77 17 9d bf
       0.9020502 -0.006236753 0.17399225 -1.2272786
0003e0 d1 9a b3 be 42 bd 32 be ba 5a 8c 3e ac b2 5e bf
       -0.35079053 -0.17455009 0.2741297 -0.8699138
0003f0 94 88 37 bf f2 11 92 bf 88 bf 1b 3f c0 66 b8 3e
       -0.71692777 -1.1411726 0.6083913 0.36015892

linear.bias f4 [12]
000000 d5 64 8c bf d7 04 15 3e a0 01 02 be 75 aa b3 bd
       -1.0968271 0.14552628 -0.12695932 -0.087727465
000010 1b 0c 36 bf 48 8e f5 be 13 e6 a0 3e b6 cf cb be
       -0.7111222 -0.47960114 0.31425533 -0.39806908
000020 da b9 08 bf ae e3 97 3d 33 44 ea 3d a6 b7 a6 bc
       -0.53408587 0.07416473 0.11438789 -0.020351242
