part2/runs/enc_only,epochs=5,batch_size=128,hidden_dim=128,timestamp=2023-03-10_01-27-26/folds_model/model_3.pt (torch, 888355 bytes, 6 tensors)

lstm.weight_ih_l0 f4 [512, 300]
00000000: 1798 88be dbb3 913d 8bce f2be 9456 5cbe
00000010: 9a1c 823c a3c7 193d f036 033e 2e16 58be
00000020: f5fd 683e 9ac8 de3d 0fbb 35be 96ba 3a3d
00000030: 5d43 803d 20a8 e83d 1e18 2f3c cd9d 0abe
00000040: 0ce5 123e ced2 0e3f 943b d1be 2b50 6cbe
00000050: 830c d3bd 1d18 e8bb dc74 eebd aaae a73e
00000060: 8ca2 0b3d ed64 093e 4206 1fbe b440 5f3e
00000070: efb4 033f 3f49 e13e 4993 17be 6cf4 92be
00000080: 58fb 643d e0d9 2c3e 4443 77bd d1ed 84be
00000090: 5e93 613e 6d20 dbbe 037a bbbe c7a9 d5bd
000000a0: 0661 aabd 7ae7 4c3d 2383 27be 9e61 a53e
000000b0: d824 973e 2749 b4be 6ca6 9cbd e67a 323d
000000c0: 4405 923e 0a7d c8bd e1e9 a83d 57de 80bd
000000d0: 14a5 fbbe 8766 a23d f12f 273f 10e9 183f
000000e0: 9b88 f1bd fcda 8ebe 695c 11bd e915 eabe
000000f0: 3a55 b0bc 48a6 14be b19f 58be 518f 1f3d
00000100: 01e3 853e 8cc4 9c3e b37e d43c 5764 f6bd
00000110: c96a b7bd 0b64 aa3e dc98 e33d bc3a 41be
00000120: 38c2 3bbd a7a7 05bd 1d00 66be 93bb 97bc
00000130: 3e5f febb 78a8 c9bd 2511 853e d5a2 c13d
00000140: fd4e dd3c 00f8 0f3f 95a2 bcbd d5fa 25be
00000150: fa91 883d 825c 31be a386 26bf a744 a7be
00000160: 2fff d13e c1de a9bd 1baf de3e c13c bfbe
00000170: fbf2 98be bc3f 69bc 25b4 e73d 9250 ed3d
00000180: 7300 2c3e 7fd4 0bbf 46e7 8e3e 703b 80be
00000190: d9e3 25be 78db 923e 2af9 95bd 0e7f 73be
000001a0: e115 543e 2d0a c9be e336 9f3d fd69 3b3f
000001b0: f3fb cfbd 54ef cebe 2195 b83e 3cb0 a6bb
000001c0: 7ffd 1c3e 5324 f8bd 4125 a33d 5b63 93bd
000001d0: 4712 083d 1489 24bd 401a ac3e 33ec 49be
000001e0: 2230 b6be 920f 7ebd f24e d9bc 1a97 2cbd
000001f0: a3d9 3abe 95cb 813e e6be b6bd 106a dd3e
00000200: 4bbc 183e 2fac a33d 2c7c 97be 9593 e03d
00000210: 73dc 9b3d 5fe7 183d 675f 04be dc21 37be
00000220: 9a17 903d a556 03bc 31e6 043d a61e 723e
00000230: 18d8 debe 832b 0bbf c3fd aabe effe 66bd
00000240: e467 463e 60e3 223e 2ad4 27bf 4508 203e
00000250: 1f48 4f3d dfdd d13d 4c40 c93e c876 7d3e
00000260: 69ff 88bd aa22 97be ad9c c8bd 5335 2ebd
00000270: c54c eebd 3c7c d23e 1e36 703d c1da fdbc
00000280: e6ad 07be 63c4 0bbe bf68 d13e 6ef3 febe
00000290: 6d4d 97bd b971 12be 31ba 20be d6da 193e
000002a0: fbc4 173e d989 093d dde8 193e 762e af3e
000002b0: b40c a03e 6b34 053f 56c4 e5bd 122a a6be
000002c0: fb76 94bc 7b95 2fbe 15f0 e6bd 5780 2e3c
000002d0: c29a df3d 7bd6 9abe 0947 3a3e 0fd4 8abe
000002e0: 976c d33e fded 16be be3e c93d f68f 7bbe
000002f0: af8c 69be ad67 d43d 76aa f1bc 425c bbbe
00000300: 4d1e 83be 92aa 1cbe bfee bcbe e94e 4d3e
00000310: ca90 483e 1f9f 213e e7ba bb3d a15d bebd
00000320: 239b 873e d412 abbe 63de 29be add6 bbbe
00000330: 6d22 d9bc a04f c5be 73c0 bfbd e626 73be
00000340: e88c 63bd 918b 1dbe d770 eabe 42ab 423e
00000350: 221d 02be aede 35be d720 8b3e e50e 36bf
00000360: 4c5d 5f3e 0226 ed3e 39c5 ac3e b418 d3be
00000370: 0658 cc3e 75ff 2b3a 3dbc 8e3d 1b53 2abd
00000380: 065b 2dbd 55bf 2cbe 86c2 4bbe b4a8 a3bd
00000390: 8b4b 533e 9338 15bd 1d41 983e 7ef5 55be
000003a0: 0de5 44be d7b0 31be fa96 3d3e 14c5 7c3e
000003b0: bee7 f23d c575 c63e c8b4 85be e311 c83e
000003c0: 0cae c63e 2ad7 83bc 92fc 823d d81a 59bb
000003d0: 2d14 cdbe 17ff 26bc c79a 93be 00c7 0f3e
000003e0: 551e c8bd a2bc 183f 4690 503e 75ad 9fbe
000003f0: 644c a93d 2e11 bdbd 5a7f 893e 0a92 c6be
-0.26678535 0.07114383 -0.47423205 -0.21517402 0.015882779 0.037543904 0.12813926 -0.21102211
0.22753127 0.108781055 -0.17747138 0.0455881 0.062628485 0.11360192 0.010686902 -0.13536759
0.14345187 0.5579041 -0.40865767 -0.23077457 -0.10305121 -0.0070829527 -0.11643383 0.32750446
0.034090564 0.13417406 -0.15529731 0.21802026 0.5144796 0.44001195 -0.14802279 -0.28702104
0.055903763 0.16879988 -0.060366884 -0.2596269 0.22028872 -0.42798176 -0.36616525 -0.10432773
-0.08319287 0.05002544 -0.16358618 0.32301039 0.29520297 -0.3521206 -0.0764893 0.043574236
0.28519642 -0.09789474 0.08247734 -0.06292408 -0.49149382 0.07929712 0.6530753 0.59730625
-0.117936336 -0.27901447 -0.03548852 -0.4571984 -0.021525014 -0.14516556 -0.21154667 0.038955037
0.26149753 0.30618703 0.025939321 -0.12030857 -0.089559145 0.33279452 0.1111314 -0.18870062
-0.04583952 -0.03263059 -0.2246098 -0.01852206 -0.0077628186 -0.09846586 0.25989643 0.09454886
0.027015204 0.5623779 -0.092106976 -0.16208966 0.06668468 -0.17320445 -0.6504919 -0.32669565
0.41015002 -0.0829444 0.4349297 -0.3735104 -0.2987288 -0.014236387 0.11313657 0.11587633
0.16797046 -0.5462112 0.27910823 -0.25045347 -0.16200198 0.28683066 -0.07322915 -0.23778936
0.20711471 -0.39265576 0.07774141 0.732086 -0.101554774 -0.40416968 0.36051276 -0.0050869267
0.15331076 -0.12116303 0.0796609 -0.07196685 0.033220556 -0.04016979 0.33613777 -0.19719009
-0.35583597 -0.062026568 -0.026526902 -0.04213629 -0.18247084 0.25350633 -0.0892313 0.43244982
0.14915578 0.07991826 -0.29586923 0.10965649 0.07610407 0.037330028 -0.12927018 -0.1788401
0.07035752 -0.008016263 0.03244609 0.23644504 -0.4352424 -0.5436327 -0.3339673 -0.056395467
0.19375569 0.15907049 -0.6555811 0.15628155 0.05060589 0.10247397 0.39306867 0.24752343
-0.066893406 -0.29518634 -0.097955085 -0.042531323 -0.116357364 0.41110408 0.05864536 -0.030988099
-0.1324993 -0.13649134 0.40900227 -0.49795097 -0.07387815 -0.14301194 -0.15696026 0.15024886
0.14821236 0.033578727 0.15030237 0.34215134 0.31259692 0.5203311 -0.11219089 -0.32453972
-0.01812314 -0.17146866 -0.11276261 0.010650716 0.109181896 -0.3024176 0.1819116 -0.27114913
0.41293785 -0.14739223 0.0982642 -0.24566635 -0.22807573 0.10371337 -0.029500227 -0.36593825
-0.25609055 -0.15299442 -0.369009 0.20049633 0.19586483 0.15783356 0.09166508 -0.09295202
0.26485547 -0.33412802 -0.1658874 -0.36687222 -0.026505673 -0.38537312 -0.09362879 -0.23745307
-0.0555543 -0.15385272 -0.45789215 0.19010642 -0.12706426 -0.17760727 0.27173492 -0.7111648
0.21812934 0.4631806 0.3374422 -0.41229784 0.39910907 0.00065611984 0.06969497 -0.04158316
-0.042323135 -0.16869862 -0.19898424 -0.07991162 0.20634286 -0.036430907 0.29737177 -0.20894429
-0.19228001 -0.17352615 0.18514624 0.24684554 0.118606076 0.38761726 -0.26114488 0.39076146
0.38804662 -0.01609381 0.0639583 -0.0033127572 -0.40054455 -0.010192654 -0.28829023 0.14040756
-0.097714104 0.5966283 0.20367536 -0.31187025 0.082665235 -0.092317924 0.26854974 -0.38783294

lstm.weight_hh_l0 f4 [512, 128]
00000000: a12a 033e 14fb 3b3e e44c b83d 2992 c53d
00000010: 9a95 5e3d d0f0 d5bc 8bcb e53c 9844 3c3e
00000020: b648 d0bd 6406 0b3d ea38 fcbc 256e ebbd
00000030: cd26 d23e aeaa 41bc 1eed d23d a9f8 153d
00000040: 1ef6 0dbe 294b e23d 9000 a43d a3de a4be
00000050: bcd7 843b 361b 9e3e 780a fabc 3b12 b0be
00000060: d5f6 213d 653a 3a3d d154 a2be 65ea cbbe
00000070: 26fb 293e 9222 bfbd 28db 78bd 9812 0b3d
00000080: 577e 1cbd a789 37be 177d 21be cbdb e13c
00000090: 668b 153d 7194 473d 4713 debd 1123 87bd
000000a0: 2f11 c0be e114 233e 4968 943e bad1 983d
000000b0: c87e 93be d8f4 d03c 3e2a 3f3a b81a 913d
000000c0: cdf2 e03c d0ed c5be 2dff 393e 1dec 033e
000000d0: b9d6 773e 4af1 5cbd 3c1e 96bd e26a 663d
000000e0: 21c2 08bb 54f4 14be 5d4c eb3c 06ca 853d
000000f0: 0d51 313d cc75 713e e338 54be 8165 5f3e
00000100: eca3 01be 6c70 8d3c 26d8 8abc 23d0 86be
00000110: 6a32 80be 98b2 1fbe ba87 643e 70a2 30be
00000120: 81c9 943e c261 2d3e f97e e8bd 0258 b1bd
00000130: 7664 8a3e 3f7c b5bb 7fb8 333e 8114 e4bd
00000140: 4991 143d d346 6a3d 3f53 833e dfbc 92be
00000150: 2969 233e b5ef 0fbe 4df7 24be 8939 f3bc
00000160: bef9 debd 2beb 0b3e 4803 2a3e 2f17 a0bd
00000170: 4b93 943e e835 72be 23e0 a4bd d771 593d
00000180: 6b23 9fbe a2d4 f03c 4a0f aabd 85bc 823e
00000190: 2a18 b73d 87c5 2cbc 5f41 33be 061d 113d
000001a0: 1adb 07bd 7100 833e b253 b63e 272b f93c
000001b0: 01b5 033e daab db3b 49da 51be d9e4 8dbe
000001c0: 634d 2fbe 08d9 3b3d 3701 1b3e 4384 82bb
000001d0: d08c 45be f032 183e 0094 e43d 758a d33d
000001e0: bae2 58be 3ed9 5fbb 8c70 25bc 0bc2 433e
000001f0: 02e0 c3bd ee38 e83d dc32 bbbd fcca 6d3c
00000200: 419e 3a3e 2dff 703e 4ffb 18be 8f71 4cbd
00000210: a970 883e a4d7 36be ad95 c1bc fccc 93ba
00000220: f3c9 3abe 83c4 703e 53cc a83d 882b bbbd
00000230: 0224 10bc 3f7f 513e a504 5bbe 8200 1b3e
00000240: c0c5 33be 5222 433e bc9e eebd 9b82 aebd
00000250: d878 d9bc 3971 a53d 5285 febd 1cd6 723e
00000260: 502e 9bbe e4f0 a13e cb95 d83d 8f70 973d
00000270: b654 37bd bd37 2e3e 7d9d 673d f15b d4bd
00000280: 3d8e 0c3e d8cd c83b 339d 3b3e 3173 813c
00000290: 7b34 473e fb3d 88be 3844 f73d 9bf3 98bd
000002a0: 0f3c 95bc 08ac 433d 4d8b 86bd a66c 203e
000002b0: c3ff 58bd c5a7 763d 3146 953e 5db6 803e
000002c0: 019e 84be 8caa 19be 92c9 10bd 7db1 76be
000002d0: 1210 6dbd aa03 b83e 8e60 003e 73b8 02be
000002e0: 2a2d 0c3d 3de5 7b3e 8731 2ebe 3384 9d3e
000002f0: 296b b4bd 8311 acbc f25f 083e 8ffa 3a3c
00000300: 5b80 833e d22d 843e 1ea7 b7bd 597b 663e
00000310: 324d e93c 518d 303d 2f6e 523d 234b d6bd
00000320: 22d1 7c3e c9c0 eb3a 2446 133e bb8a a3be
00000330: 57ee f6be c42a 33be 5596 41be 0f78 6c3e
00000340: 2f85 2a3d e06b 2ebf 027c 613e 9025 a33e
00000350: aeea 0c3e de79 adbd 8bdb b7bc ceca 8bbe
00000360: 6f28 5dbe 1b90 b1bd e8ac 9b3e 8a25 123e
00000370: 6afe 473d f2a8 0dbe b125 4d3e 3625 323d
00000380: b922 d03e 7046 08bc 3a93 38be f84d f8bc
00000390: 2189 cd3d ff1e 21bd f54f 3fbe d794 73bd
000003a0: 1f84 7ebe 68ba 6c3d 4458 783d ea88 6bbe
000003b0: a8a3 59be ff92 7b3e 03ee 2fbe 0837 acbd
000003c0: 5595 d43d 420a 1cbc 9e57 81bd b86a 13be
000003d0: b295 a0be afd4 01bf 7225 8e3e cc01 6cbe
000003e0: 954d e0bc 1d01 883c c76b babd d7cf a0be
000003f0: 1bd1 843d de77 933e 2104 51be 4923 063d
0.1280923 0.18357497 0.08999041 0.096470185 0.05434189 -0.026115805 0.028051158 0.18385541
-0.101701185 0.03394164 -0.030788857 -0.11495618 0.41045228 -0.011820478 0.10299133 0.036614094
-0.13863418 0.11049492 0.0800792 -0.32201108 0.004054038 0.30880135 -0.03052257 -0.3438891
0.039542038 0.045465846 -0.31705335 -0.39827266 0.16599712 -0.09332766 -0.06075588 0.03395328
-0.038206425 -0.17923604 -0.15770374 0.027570626 0.036509894 0.04872555 -0.108435206 -0.06598485
-0.3751311 0.15925933 0.28985813 0.07461877 -0.28807664 0.025507376 0.00072923664 0.07085174
0.027459526 -0.38658 0.18163748 0.12883039 0.24203004 -0.05394105 -0.073299855 0.056254275
-0.0020867663 -0.14546329 0.028722936 0.065326735 0.043290187 0.23580092 -0.20724826 0.21816064
-0.12660187 0.017265521 -0.01694877 -0.2633067 -0.25038463 -0.15595472 0.223174 -0.17249465
0.29059985 0.16931823 -0.11352343 -0.08659364 0.2702977 -0.005538493 0.17550848 -0.11136723
0.036271367 0.05719645 0.2564945 -0.28659722 0.15958084 -0.14056285 -0.16109963 -0.02969052
-0.10887478 0.13663928 0.16602814 -0.07816922 0.29018626 -0.23653376 -0.08050563 0.05308708
-0.3108171 0.029398266 -0.083036974 0.25534454 0.08940156 -0.010545141 -0.17505406 0.03542807
-0.033167936 0.25586274 0.3561073 0.030416084 0.12862016 0.006703836 -0.20493425 -0.2771366
-0.17119364 0.045861274 0.15137182 -0.003983052 -0.19291997 0.14863181 0.11161041 0.10329143
-0.2118024 -0.0034156586 -0.010097634 0.1911699 -0.095642105 0.113389835 -0.0914056 0.014513727
0.18224432 0.23534842 -0.14939617 -0.049912985 0.26648453 -0.17855698 -0.023630941 -0.00112763
-0.182411 0.23512463 0.08242097 -0.09139162 -0.008797647 0.20458697 -0.2138849 0.15136912
-0.17555904 0.19056061 -0.1165137 -0.08521005 -0.02654688 0.08078236 -0.124277726 0.23714489
-0.3030877 0.31629097 0.10575446 0.07394516 -0.04475852 0.1701345 0.056546677 -0.10369099
0.13726135 0.006128054 0.18321685 0.015801998 0.19453613 -0.26609787 0.120735586 -0.07468339
-0.018217115 0.047771484 -0.06569538 0.15666446 -0.05297829 0.06021859 0.29155114 0.25139132
-0.25901797 -0.15006465 -0.035348482 -0.24091144 -0.057876654 0.35940295 0.12536833 -0.12765674
0.03422276 0.24599166 -0.1701108 0.30764922 -0.08809502 -0.021004444 0.1331785 0.011412277
0.25683865 0.25816208 -0.08967422 0.22507991 0.028479192 0.04310352 0.05137461 -0.1046355
0.24689153 0.0017986532 0.14382225 -0.3194178 -0.48228714 -0.17496783 -0.18905003 0.23092674
0.04163092 -0.68133354 0.22019961 0.31864595 0.13761398 -0.0847051 -0.022443553 -0.27303165
-0.21597455 -0.08670064 0.30405354 0.14272133 0.048826613 -0.13833979 0.2003391 0.04349252
0.4065149 -0.008317575 -0.18024912 -0.030310616 0.10035921 -0.0393362 -0.18682845 -0.059468117
-0.24855088 0.05779496 0.06063105 -0.23001447 -0.21253836 0.24567793 -0.17180638 -0.08408934
0.10380045 -0.00952393 -0.0631554 -0.14396179 -0.31364208 -0.50715154 0.27762944 -0.2304756
-0.027380744 0.016602093 -0.09102588 -0.3140857 0.06485196 0.2880239 -0.20411731 0.032748494

lstm.bias_ih_l0 f4 [512]
00000000: ffed 783e 0aa7 543d 5d33 ad3e 9539 b33e
00000010: 75ba 2d3e d7c9 e83d 29b8 e43e f35e 8ebd
00000020: c276 f13e f636 8f3e ee04 243e 4c33 823e
00000030: 64f6 7cbe 5721 fa3e 1fee f23d a3cf 9d3e
00000040: cd67 433e e5d4 eb3e 2be7 c53e 0f58 5c3d
00000050: ccca 563e 288f 773e 0ebc 6a3a 5cea 29be
00000060: 2ba4 683e 2624 cc3e 314a 573e f3e5 293e
00000070: 5587 ebbd 206e 8c3e 3117 903d f530 083f
00000080: 9cff ba3e 6777 093f 1baf 2b3e a868 1b3f
00000090: 4bbc 743e 15b6 af3e 22ba 3d3f dc0a 78bd
000000a0: bd45 b83e dadc 443e cb7e 1dbe c32a d93e
000000b0: 3786 bd3d 96b1 ce3e 2e1c 433f 0582 6a3d
000000c0: 8f87 223e c47d 0c3f 4892 123f ff75 813e
000000d0: 9e5a 873e 5f28 5a3e 494d cb3b 4967 a73e
000000e0: 61bb 8a3e f998 273e 5579 f53e c81e 043f
000000f0: 8fe6 9c3e f583 5c3e 5079 273c 2d00 20bd
00000100: 546e 8e3e 79d7 b63e 503b bd3e e125 cb3e
00000110: 4664 033f b355 403f b21e d33e 6db8 0d3e
00000120: e1c8 1c3f d315 aa3e de96 c83e 2fa7 ba3e
00000130: d0f1 ac3e c1ed 2c3d 7f5e c23d 0f78 1f3e
00000140: b23e b33d 5997 3a3f 9838 aa3e cd18 cb3d
00000150: 3f80 253d fcdd c53e 1a3c 303f ec2a cc3e
00000160: be5b 7f3e 8e50 843f 203b 053d 6837 103f
00000170: 3c80 e43e f785 b63e c3ec 423e 07cb f83e
00000180: ce02 d93d cba6 b43e 8af2 373e 466e 0a3e
00000190: 686c a13e a5d5 ab3d 4db3 393d 8617 633e
000001a0: c393 983e 754f 193f f882 5c3e c623 6a3e
000001b0: 5e64 963e b6c4 483e 635b af3e 80f8 363a
000001c0: 6a6b 473a e506 633f da21 ac3e 233d 793e
000001d0: dafd 513e 5a88 4e3e 30e4 5a3d 1d5b 2ebc
000001e0: 7b73 e23e 0942 723e 12b7 093f 8931 413e
000001f0: 44b3 8e3d 1feb 063f a21a 9f3e acb7 45be
00000200: 6f2e c0be 5e7b 743d 99e7 68bd 0856 e4bd
00000210: 85b7 01be dadd 48be 0331 65be 9db8 5fbe
00000220: fb32 9a3e cc35 90be 39c9 f9bd 2ca4 273c
00000230: fd73 13be 6359 0b3e 551e e7be c6db c9be
00000240: dbdd 46be 94e2 7cbd 7261 66be 63f0 f5bd
00000250: 3129 09be f302 3d3d 52f7 a9bd f71c c6bd
00000260: b430 c73c ce10 79be 54e0 90be 9d87 50be
00000270: 4606 84bd 9786 82bc d5da 8bbe c17a 98be
00000280: 9f82 c0bd 939e 10be afb9 aebe 170f 583d
00000290: 71a8 97be 2f1c 37be 9b4e f53c d17e ee3d
000002a0: 87b6 9cbe a210 8bbe 64d1 863d 3b64 37be
000002b0: 62f7 80be 13e0 73be e882 3a3e 43dc 26be
000002c0: 818a 87be b539 913e 0dfb 353e 5b4d 91be
000002d0: b4ec b13d 705b 82be ff90 36bd be90 90bd
000002e0: 4067 90bd 06ac 643d e1b7 923d a3a9 f6bd
000002f0: c193 85be d0d7 e23c 8a1f 0c3e 9de4 a2be
00000300: 86d4 b2be 77a9 913d 9628 14be 7ced 80be
00000310: 9d6f 5dbe 9b80 73bd 276c 7abe 29a9 05bd
00000320: dcbe 543e 5586 7e3e 8efe 36be a15c 96be
00000330: f325 bebe 1782 68be d8d7 7dbd b32e bdbe
00000340: 494c a1be 0c13 7c3e ed50 823e 9b9c 7dbd
00000350: e45c e5bd 04f6 1dbe 6d8c a5be a708 85be
00000360: f74f 2dbe 068b cb3e 85f0 8dbe d944 3c3e
00000370: 72d4 3cbe 1f4b 2b3d f208 c3be 31d5 8d3d
00000380: 42f5 703b 8f93 d9be 3bbb fbbd 9c99 593c
00000390: 0a7f 4f3c 30b7 c8bd 3c31 37be 94f6 71be
000003a0: 0acc 02be a1c0 343e b957 69bd f082 d33d
000003b0: 6718 adbe dfb6 923d 01c1 7fbe f7ab 84bd
000003c0: 2adf d9be c03e 9a3e 700d afbe 0ff9 23bb
000003d0: ef54 abbe 559a 88be a338 27bf cad4 653d
000003e0: 5688 7fbd 0b94 aebe f12a 16bb 9385 15be
000003f0: b8bf 83be 6007 65be fbdb 8abd b254 6abe
0.24309538 0.051917113 0.3382825 0.3500487 0.16965659 0.11366623 0.44671753 -0.06951704
0.47160918 0.2797162 0.16017506 0.2542976 -0.24703366 0.4885356 0.11861824 0.30822477
0.19082566 0.46060863 0.3865293 0.053794917 0.20975798 0.24175704 0.0008954414 -0.16593307
0.22718875 0.3987133 0.21024396 0.16591625 -0.11500422 0.2742777 0.070356734 0.531997
0.3652314 0.5369782 0.16766016 0.6070657 0.23899953 0.34318605 0.7411214 -0.06055723
0.35990706 0.19224873 -0.15380399 0.42415437 0.09254115 0.40369862 0.76214874 0.057252903
0.15872024 0.54879403 0.5725446 0.25285336 0.26436323 0.21304463 0.0062042815 0.32695988
0.27096084 0.16366948 0.47944131 0.5160947 0.30644652 0.21534713 0.010221794 -0.039062668
0.2781855 0.35711268 0.36959314 0.39677337 0.5132488 0.75130767 0.41234356 0.13839884
0.61244017 0.33219776 0.39177603 0.36455676 0.33778238 0.042218927 0.0949068 0.15573142
0.087521926 0.7288719 0.33246303 0.0991684 0.040405508 0.38645923 0.6884171 0.39876497
0.2493734 1.0337083 0.03252709 0.56334543 0.44629085 0.35649082 0.1903563 0.48592398
0.10596238 0.35283503 0.17963615 0.13518628 0.3152802 0.08390359 0.04533701 0.22176942
0.29800233 0.59886867 0.21534336 0.22865209 0.2937345 0.1960629 0.3424941 0.00069797784
0.00076072535 0.88682395 0.33619577 0.24339728 0.20506993 0.20169201 0.053440273 -0.01064184
0.4422873 0.23658003 0.5379497 0.18866552 0.06967786 0.52702516 0.31075007 -0.19308347
-0.37535426 0.059687965 -0.056861494 -0.11149222 -0.12667663 -0.1961588 -0.22381978 -0.21847768
0.3011702 -0.28166044 -0.12196583 0.010232013 -0.14399715 0.13608317 -0.4514033 -0.39425486
-0.19420569 -0.06173952 -0.2249811 -0.12008741 -0.1339462 0.04614539 -0.08299126 -0.09673493
0.024315216 -0.24322817 -0.2829615 -0.20364232 -0.06446509 -0.015933318 -0.27315393 -0.29781154
-0.09399914 -0.14122991 -0.3412604 0.052748766 -0.29620698 -0.17881845 0.029944709 0.11645282
-0.30608007 -0.27161127 0.06582907 -0.17909329 -0.25188738 -0.23815946 0.18214 -0.1629496
-0.26472858 0.2836434 0.1777155 -0.2837933 0.08687726 -0.25460386 -0.044571873 -0.070588574
-0.070509434 0.055828117 0.07163978 -0.120440744 -0.2608929 0.027690798 0.13683906 -0.31815043
-0.34927768 0.07112401 -0.14468607 -0.25181186 -0.21624608 -0.05944882 -0.2445532 -0.032632027
0.20775932 0.24855931 -0.17870542 -0.29367545 -0.37138328 -0.22705875 -0.061973423 -0.3694969
-0.31503513 0.24616641 0.25452366 -0.06191693 -0.11199358 -0.15425879 -0.323337 -0.25983164
-0.16925035 0.39754504 -0.27722564 0.18385638 -0.18440416 0.041819688 -0.38092762 0.06925429
0.0036767279 -0.4249539 -0.12291571 0.013281252 0.012664566 -0.09800565 -0.17889875 -0.23629218
-0.12773147 0.17651607 -0.056968424 0.10327709 -0.3380768 0.07163786 -0.24975969 -0.06478112
-0.42553073 0.30126 -0.3418994 -0.0025020277 -0.33463237 -0.26680246 -0.65320796 0.056111135
-0.06238588 -0.34097323 -0.0022913779 -0.14601736 -0.25732207 -0.22366095 -0.06780239 -0.22883871

lstm.bias_hh_l0 f4 [512]
00000000: 75d3 613e d8e6 453d e91e 833e fea7 e33e
00000010: b968 523e ba9b e03d 683a c43e d98f b43b
00000020: dde4 e33e 5134 d33e 3f1f d83d aa48 443e
00000030: e204 75be 46c1 af3e 7f63 2839 6927 c83e
00000040: c1b5 973d 7d9a d73e bc29 d13e 97a0 c43c
00000050: 004d 2a3e 9f51 8d3e ce6e 2d3d cf6a 1bbe
00000060: a536 1d3e 2591 c43e 3635 973e 06dc 703e
00000070: d998 f5bb d4eb a03e 9dc2 5e3d d6a4 be3e
00000080: 89ef 8c3e f606 093f 2401 b73d fa56 293f
00000090: e27e 743e 0ff9 d83e 9b93 303f ff65 17be
000000a0: a4e6 e13e df6a 5e3e 7a94 42be c0fd da3e
000000b0: ca49 fc3d e793 c93e 8cbb 233f 2374 41bd
000000c0: df44 0d3d 6729 e53e 04ef fa3e 0c54 e23d
000000d0: ee66 063e 74b6 8b3e 04dc fb3c 15cf ca3e
000000e0: 5fef 2f3e 9495 c33d 9f6a c03e 5773 c73e
000000f0: 9f07 933e 7c82 b83d 40e8 813b 1495 293b
00000100: f74a c13e a06c 653e 70ba 953e b0a6 da3e
00000110: 155a e43e 8a2e 363f a5d4 be3e 4f82 693e
00000120: b4bc 283f 0c8b b83e ba64 023f 1030 b13e
00000130: eddb d93e 966d ce3d dfde 2f3e 83fd 5d3e
00000140: fbdd d63d fc46 2f3f 7206 9b3e 34b0 633c
00000150: 03c4 083e b2d5 b03e 43c8 3a3f b5cd e63e
00000160: 4f71 c03e b188 813f f26d 2c3d c093 113f
00000170: 807a d73e 7847 d13e 1013 f43d 3f07 ef3e
00000180: 88f1 1f3e 2422 b43e 2328 b53d 6fb0 773e
00000190: 2f2f 813e 59da 613d 2d9e b03c 7ee8 843e
000001a0: cce6 2b3e 24ad f13e bcb4 cd3d 2db3 ee3d
000001b0: 0f35 4f3e 4020 603e 850a 993e 76a1 073c
000001c0: 9f55 903d 125e 5d3f 5e61 9b3e 9bc7 823e
000001d0: 2d16 3d3e 42c0 543e 970e c63d 7ca6 17bb
000001e0: c21a d03e a5e4 ba3e 616c 113f f2ea 613e
000001f0: 6330 063d 81ed e33e a9a0 ac3e 72b2 86bd
00000200: 55bd 9bbe 0d41 58bd 5154 e9bd 0dd8 ddbd
00000210: 942b b8bd 202d e5bd b148 24be 086f 0dbe
00000220: 27da 563e bb32 c4be 319b f8bd 358c 233e
00000230: ffd6 18bd 318f 2b3e fcfe d2be 793c 89be
00000240: 459f 28be 7cfe 9ebd 1805 4fbe 6287 02bd
00000250: 0327 2abd b2b6 9a3c b190 35bd db00 dabd
00000260: a88e ecbc c37c 02be eb3b 1cbe b283 0ebe
00000270: 2462 213d 5b66 cebd bfbc 90be 399c 8dbe
00000280: 9475 033d 4084 8bbe de4c d2be fe24 1f3e
00000290: 7390 aabe 4233 4ebe 7b26 913c 064b a73d
000002a0: 7baf 8fbe df3a 82be 031a 6b3c 6e19 81bd
000002b0: 5ef6 8ebe 57b3 90be cc02 993e dc73 debd
000002c0: b4bf 4cbe a466 3c3e 1edc 043e dd3b 83be
000002d0: 7500 66bc 4263 a7be aee2 6a3d 13f1 493a
000002e0: dec9 5dbc e8e9 79bb 1627 193d 5021 edbd
000002f0: 30ab 0ebe 2387 eb3a 2ada 953d a374 45be
00000300: 9223 c2be 0ba3 0abd 273e 25be ba37 60be
00000310: abfe 87be 4afd edbd 960d b4be f780 a5bc
00000320: 2855 a03e 96c9 533e 5d5d d3bd 343e 8fbe
00000330: cec0 b1be c425 acbe c61d e4bd 60ff febe
00000340: e5f4 6cbe 03dd 8e3e f6e9 4c3e 5f3f 28be
00000350: a401 fdbd 7f09 21be 30d4 81be 5cdb c4be
00000360: 1e43 38be f7d3 dc3e dea3 89be 34b8 b93d
00000370: eb32 8dbe 3a7a 1c3e 4b5b b6be a3b5 b03d
00000380: 98c3 c13c 61b3 ddbe 1afe acbd d505 78bd
00000390: 6315 b8bd e225 92bd c1b4 4cbe e080 86be
000003a0: d01a 5dbe 8160 2b3e 4164 c8bd 0f88 0ebd
000003b0: cefd 9fbe 29bf 2b3e adb1 55be 68fa e9bd
000003c0: 49b9 cebe afb8 803e 4937 c7be a96e 073d
000003d0: 9e66 42be ed69 aabe 6eab fcbe bd75 39bd
000003e0: a721 72bd 080e 39be a648 b93d 970e 17be
000003f0: a972 bcbe 493a 81be f8ce 39be 907b 56be
0.2205332 0.048315853 0.2560952 0.44464105 0.20547761 0.109672025 0.3832581 0.005510312
0.44510546 0.41250852 0.10552835 0.19168344 -0.23927644 0.34327143 0.00016058794 0.39092568
0.07407714 0.42110053 0.40852153 0.024002356 0.16630936 0.27601334 0.042342 -0.15177463
0.15352876 0.38391986 0.29532784 0.23521432 -0.0074950275 0.31429923 0.054384816 0.37235135
0.275265 0.53526247 0.089357644 0.6614834 0.23876527 0.42377517 0.6897523 -0.14785002
0.44121277 0.21720456 -0.19001952 0.4277172 0.12318762 0.39370653 0.6395805 -0.047229897
0.03448951 0.4475815 0.4901048 0.11051187 0.13125202 0.27287638 0.03074456 0.39611116
0.17181157 0.09550014 0.37581345 0.38955185 0.28716752 0.09009263 0.003964454 0.002587621
0.37752506 0.22404718 0.29243803 0.42705297 0.44599977 0.7116476 0.3727161 0.22803615
0.6591294 0.36043584 0.50934947 0.3460698 0.42550603 0.100794956 0.17174862 0.21678738
0.10491558 0.6846769 0.30278355 0.013896991 0.13356023 0.34538037 0.72961825 0.45078817
0.37586448 1.011984 0.04209704 0.56866074 0.42085648 0.4087484 0.119176984 0.46685216
0.1561948 0.35182297 0.08845546 0.24188398 0.2523131 0.055139873 0.0215598 0.25958627
0.16787261 0.47202408 0.10044238 0.11655269 0.20235084 0.21887302 0.29890838 0.008278241
0.07047581 0.86471665 0.30347723 0.25542912 0.1846549 0.20776466 0.096707515 -0.0023140004
0.40645415 0.36502567 0.56806 0.22062281 0.03276099 0.4451714 0.33716324 -0.065770045
-0.30417886 -0.052796412 -0.11393035 -0.10832224 -0.08992687 -0.111902475 -0.16043355 -0.13811886
0.20981656 -0.38319954 -0.121389754 0.15971453 -0.03731441 0.16753842 -0.41210163 -0.2680395
-0.16467007 -0.07763383 -0.20216787 -0.031867392 -0.04154111 0.018885944 -0.04432744 -0.106446944
-0.028876618 -0.12742905 -0.15257232 -0.13917425 0.039400235 -0.100781165 -0.28269002 -0.2765825
0.032094553 -0.27249336 -0.4107427 0.15541455 -0.3331333 -0.20136741 0.017718544 0.081686065
-0.28063568 -0.2543554 0.014349463 -0.063036785 -0.27922338 -0.28261825 0.29884946 -0.10861942
-0.19995004 0.1839853 0.12974593 -0.2563161 -0.014038195 -0.32692915 0.057345085 0.00077034644
-0.013536898 -0.0038133804 0.03739079 -0.115786195 -0.1393249 0.0017969351 0.07317002 -0.19282775
-0.37917763 -0.033846896 -0.1613699 -0.21896258 -0.26561484 -0.11620577 -0.35166615 -0.020203097
0.3131497 0.20682368 -0.10320542 -0.27977145 -0.3471741 -0.33622563 -0.11138491 -0.4980421
-0.23140295 0.27902994 0.20011124 -0.16430424 -0.123538285 -0.15726279 -0.253572 -0.38448608
-0.17994353 0.43130466 -0.26882833 0.09068337 -0.2757791 0.15281 -0.35616526 0.086283945
0.023652837 -0.43300918 -0.084469035 -0.060552437 -0.08988454 -0.07136132 -0.19990827 -0.262702
-0.2159226 0.16736032 -0.09784747 -0.034797724 -0.31248325 0.1677214 -0.20868559 -0.11424714
-0.40375736 0.25140902 -0.38909367 0.033064518 -0.18984458 -0.3328394 -0.4934954 -0.0452783
-0.059114125 -0.18071759 0.0904706 -0.1475166 -0.3680623 -0.2523978 -0.18145359 -0.20945573

linear.weight f4 [12, 128]
00000000: 5c18 a93e b74a b23d fc32 713e c53d 6bbe
00000010: 186c a43f 40b2 543e 6232 fd3e 1c0f 603f
00000020: ff6d ef3f d603 a63f 09c3 ac3e 989e c1be
00000030: 121f eabe 406c 24bf b22b 4c3f 5a4d 25bf
00000040: c20b 1d3f 3a99 91bf f60d 363f b896 623f
00000050: 1976 f4be 980f b33f b69b 39be 0783 c13e
00000060: 10de 073f f535 07bf e280 84bf 60b6 553f
00000070: 8c65 ff3f 5337 3bbf 0b31 43bf aa6c 003f
00000080: 66c8 31be c5ba 773f d42f 843f 6670 c9bf
00000090: a387 2dbf ab68 0240 3ca9 28c0 d6cc e2be
000000a0: 0d36 6a3f 2efb b13f 93df 893f 183b 8c3d
000000b0: d9f7 8a3f 44bd 71bf 05d4 453f 181b 2d3d
000000c0: d24e 34be 288c dbbf 660f 933f af82 a1bf
000000d0: 5e6f 03be 93de 113f f29f 203f 598a a73e
000000e0: 21eb ae3f 2a4c 363e c59d bbbf 3bb7 06bf
000000f0: 2c5d f8be 8058 c5bf 0205 03bf 9d20 293e
00000100: 2f75 ffbe c3bf 10bf 8e0a 8a3f 8c73 4ebf
00000110: c8e7 d33e 4e65 a23f 841c 21bf 5e63 c2bf
00000120: 6a56 653e 1222 55bf 6073 683f 9ab7 71bf
00000130: b6ce 78bf e512 1ebf 109c 1ebf 5410 85bf
00000140: b998 68bf 09fb 263f 2117 893f 72fe db3f
00000150: 1fbe 533f 0e20 773e fd24 70bf 8cd7 b5bf
00000160: 476e e23e 4fb1 18bd 90d0 93be 218d cf3f
00000170: c1c8 79bf 5474 e93f 29ec 753f bf99 2ebf
00000180: 8610 b2be 242a 7c3f d421 f5bd 9431 553f
00000190: be20 9abf a872 93be 49f4 76be 1115 6cbf
000001a0: 5702 b43f 0cea 74bf c559 42bf 527b 4dbe
000001b0: 38ff a0bf 6d49 2bbf 6011 64bf b147 4f3f
000001c0: 754e 4a3f faad d13f 0782 50bf 67b1 0040
000001d0: 7c7f 5a3d f90e e53e 2f25 723e d7bc b93e
000001e0: 1417 61bf f044 71bf b86f f33f a653 083f
000001f0: 61de e6bf 8d09 0abf fccb bbbf 6752 48be
00000200: f222 61be 597b f1be b4db e73d 2b0b 18bf
00000210: f94e 62bf 2e6b 25bf 3283 1abf f8fe 9abf
00000220: 0cd7 5dbe 240a 993f b50c 8abe 952e 7c3c
00000230: 6892 343f d669 613e 9eb4 63be 82a6 923f
00000240: 57ec 1a3f 34ef dfbe 16e3 f7be dd5b 973f
00000250: a64e 38bf 1ea1 00bf cafe 763e 6823 093f
00000260: 1072 adbd 75b0 203f 3af8 203f 3fb5 f3be
00000270: 61df 44bf caf7 813e f32f 76be 3324 88bd
00000280: e241 1bbf d78d 17bf 906a 8e3f 72d9 f43e
00000290: 975d 193f 3f9c eabe 94eb 093f 08dc 3abe
000002a0: dd5c 0e3f 9aef 5dbf b108 06bf a697 f13e
000002b0: bf4d 71bf 01cd 43bf 3edd e4be c17c 353f
000002c0: c5b6 00be 57ed 313e db0f 5fbf cd09 3e3f
000002d0: 331f cfbd 1250 403f 58cf e33e b23c 353e
000002e0: a447 1abf 7c0c 783c a1d7 a6be 04b5 3e3f
000002f0: e039 91be 193b 933e 7cf4 d03d 5e74 3d3f
00000300: 4c88 6a3f c5e1 373e 388c 5dbf 64a7 b6be
00000310: c475 8ebd 1ec6 19bf cc9a e8bd dae3 d63d
00000320: b76c 183f fb5b 3d3e 1b51 93be 4e4c 5ebf
00000330: 9324 d4bd 26ce 59bf 2b9f 8fbe 8dc8 b13f
00000340: f17d 3abf acb7 073f a79a 533f 33e8 0e3f
00000350: c7f0 c83e df03 6fbf a4e3 5fba 5788 0bbf
00000360: 93d4 30bf 8ec2 f93e 4f63 a43d a624 a6be
00000370: 7eb0 3ebf 5b9f 2cbe 567c f83e 44d9 45bf
00000380: 2a3f be3d 576a 2bbf 7d8f c5be db90 8dbe
00000390: 80a3 de3e 2b71 01bc 914e 8cbf 455c 08bf
000003a0: 0c70 1cbf 611d d1bd 0779 82bf 7cb3 063f
000003b0: 3d03 0b3f 0bc8 3b3f 4a9a f43e 08d4 be3e
000003c0: 5331 19bf 595b 82bf a0d3 05bf 201e 36bf
000003d0: 7827 2c3f b840 633f bb00 28bf 529f f83e
000003e0: af18 033f bc35 8c3f ed20 3e3d 8e96 ce3d
000003f0: aa08 8c3e 6c41 6e3d 8031 da3e afab 193f
0.33026397 0.08705657 0.23554605 -0.22972782 1.2845488 0.20771122 0.49452502 0.87523055
1.8705443 1.2969921 0.3374255 -0.3781631 -0.4572683 -0.64227676 0.79754174 -0.64571154
0.61346066 -1.1374886 0.7111505 0.8851123 -0.4774635 1.3989134 -0.18125805 0.37795278
0.53073215 -0.52816707 -1.0351832 0.8348141 1.9952865 -0.73131293 -0.7624671 0.5016581
-0.17361602 0.9676936 1.0327096 -1.5737426 -0.6778509 2.0376384 -2.6353292 -0.44296902
0.91488725 1.3904779 1.0771354 0.06847209 1.0856887 -0.9442942 0.7727664 0.042262167
-0.17608193 -1.7152147 1.1489074 -1.2618006 -0.12835452 0.56980246 0.6274406 0.32722738
1.3665506 0.17802492 -1.4657522 -0.5262334 -0.48508584 -1.5417633 -0.51179516 0.16516347
-0.4989409 -0.56542605 1.0784471 -0.8064506 0.41387773 1.2687166 -0.62934136 -1.5186574
0.22396246 -0.8325511 0.9080105 -0.9442078 -0.97190416 -0.6174758 -0.6195688 -1.0395608
-0.90858036 0.652268 1.0710183 1.7187026 0.82711977 0.24133322 -0.9380644 -1.4206405
0.4422476 -0.03727847 -0.28870058 1.6214944 -0.9757195 1.8238626 0.96063477 -0.6820335
-0.3477823 0.985018 -0.11969343 0.83278775 -1.2041242 -0.28798413 -0.24116625 -0.92219645
1.4063214 -0.9566963 -0.7591823 -0.20066574 -1.2577887 -0.66908914 -0.8908901 0.8096877
0.79025966 1.6381218 -0.81448406 2.0108278 0.053344235 0.44737986 0.23646997 0.36276886
-0.8792584 -0.94245815 1.9018469 0.5325264 -1.8036615 -0.53920823 -1.4671626 -0.19562684
-0.21985987 -0.4716442 0.11321202 -0.5939204 -0.8840175 -0.6461667 -0.6035644 -1.210906
-0.21664065 1.195622 -0.2696282 0.015391965 0.705359 0.2201303 -0.22236869 1.1457064
0.60516876 -0.43737185 -0.4841544 1.182491 -0.7199501 -0.50245845 0.24120632 0.5356965
-0.08469021 0.6276925 0.62878764 -0.47599217 -0.7690335 0.2538436 -0.24041729 -0.066475295
-0.60647404 -0.59200805 1.112627 0.47822148 0.5990843 -0.4582233 0.5387509 -0.18247998
0.5561045 -0.8669373 -0.5235701 0.4718601 -0.94259256 -0.76484686 -0.44700044 0.70893484
-0.12569721 0.17375694 -0.8713357 0.74233705 -0.10113373 0.7512218 0.44494128 0.17698935
-0.60265565 0.015139695 -0.32586387 0.7449496 -0.28364468 0.28756025 0.10202882 0.7400569
0.9161422 0.17957218 -0.8654208 -0.35674584 -0.06956056 -0.6006793 -0.1135765 0.10492678
0.59540886 0.18492119 -0.28772816 -0.8683518 -0.103585385 -0.8508018 -0.28051123 1.3889328
-0.7284842 0.53014636 0.82657856 0.5582306 0.392462 -0.9336528 -0.0008540696 -0.54504913
-0.6907436 0.48781246 0.08026754 -0.32449836 -0.74488056 -0.16857664 0.4853236 -0.77284646
0.09289391 -0.66959137 -0.38586035 -0.27649578 0.43484116 -0.0079005165 -1.0961477 -0.5326579
-0.6110847 -0.10210682 -1.0193185 0.5261762 0.54301816 0.73352116 0.47773963 0.37271142
-0.5984089 -1.0184127 -0.5227604 -0.7113972 0.67247725 0.8877063 -0.65626115 0.48559052
0.5120954 1.0953898 0.04641812 0.1008731 0.2735036 0.05816786 0.4261589 0.60027593

linear.bias f4 [12]
00000000: 74e1 8dbf ca29 053e d3d3 70bd d826 8dbd
00000010: ada5 45bf 4925 a4be 371a 733e 38b2 bdbe
00000020: d0c8 11bf e05e dc3d 1034 013e 7f79 a7bc
-1.1084428 0.13004223 -0.05879576 -0.068921745 -0.77205926 -0.32059696 0.23740469 -0.37050033
-0.5694704 0.107602835 0.12617517 -0.020443676
