part2/runs/enc_only,epochs=5,batch_size=128,hidden_dim=128,timestamp=2023-03-10_01-27-26/folds_model/model_4.pt (torch, 888355 bytes, 6 tensors)

lstm.weight_ih_l0 f4 [512, 300]
-0.45543063 0.22464955 -0.0054716016 0.02595713 0.0044404254 0.23201258 0.13572162 0.067958385
0.22099982 0.3793955 -0.1456623 -0.41382346 0.28457105 0.10927387 0.16969061 0.4597315
0.47682592 -0.080668636 -0.12660071 -0.17904057 -0.64245564 -0.049806286 0.055193592 0.42742926
0.28477123 -0.06980029 -0.0667898 -0.19179887 -0.08366248 0.049558997 0.3697179 0.013448476
-0.2154154 -0.085366145 -0.10056339 0.37607452 -0.6463415 -0.17350338 -0.24473187 0.328847
-0.21946356 -0.19172929 -0.12205023 -0.03446235 0.22091685 -0.024982372 -0.29160553 -0.3879118
0.2048165 -0.08813637 -0.37701187 -0.21557894 -0.1664364 -0.5402112 0.48639417 -0.2790137
0.07012587 0.100448795 0.065008625 -0.7598249 -0.37773067 0.49206963 -0.7690893 -0.002168121
-0.44462103 0.033141777 -0.16476706 0.11375952 -0.20645249 -0.24998496 -0.046591025 -0.06938257
0.29446635 0.73726225 -0.07496837 -0.41448802 0.1440486 -0.35908118 0.3663596 -0.1272281
-0.12221859 0.35641304 -0.3285388 0.07091156 0.28813666 -0.09167107 -0.45052403 0.40545925
0.16970725 -0.22725506 0.43818223 -0.12022178 0.16395888 -0.228244 0.087463945 0.27506277
0.22601904 0.5551214 0.4238891 -0.19040805 -0.36817378 -0.7265542 0.105860025 0.09812009
-0.23787528 0.25744963 -0.1255972 -0.3199286 -0.2797923 0.16988313 -0.3134898 -0.48354444
0.07918031 -0.13093613 -0.1826861 0.029040935 0.27692655 0.2420257 0.3536431 0.3392859
-0.054464772 0.060319025 -0.1533071 -0.24677414 0.0055789496 0.11115659 -0.1943919 -0.191802
-0.3068033 -0.07184098 -0.047837235 -0.16617382 -0.1856202 -0.053846546 0.55904335 -0.5534016
-0.10314033 0.539976 -0.4510499 0.40245458 -0.084114306 -0.47254756 -0.16820934 -0.26798826
0.38910726 -0.41203725 -0.10136303 -0.30171657 -0.10539163 -0.0012764606 -0.008579008 0.24407229
0.08741917 0.044872675 -0.21364383 -0.36164367 0.4328579 0.09521241 -0.16879494 -0.27367228
-0.25625363 -0.22543013 -0.34881154 0.2382964 0.042928386 -0.057278227 0.1932007 0.007332976
-0.55515236 0.28073743 0.12503539 0.08656058 -0.12940899 -0.13875236 0.13623895 -0.17208289
0.8293187 -0.7743536 0.11663321 0.263063 -0.036062326 -0.036185294 -0.09160685 -0.08830618
-0.08540459 -0.08077971 0.07932638 -0.038158614 -0.2547262 0.17155339 0.46645465 -0.07732701
-0.16157386 0.18497132 -0.04991386 -0.11059107 0.23254341 -0.039324407 0.044123717 -0.533524
0.28429663 0.29179165 -0.52614856 -0.10392031 -0.48190376 0.19757427 0.103542194 -0.38468048
-0.22555579 -0.47643626 0.07277001 0.5053596 -0.31432733 0.651136 0.1875001 0.106695525
-0.23050481 0.58030766 0.12687598 -0.39162618 0.14537874 -0.20434473 -0.25661236 0.66650003
0.3810125 -0.6313287 0.05936533 0.19723898 -0.39646772 -0.023535786 -0.38437614 0.24001275
0.017885845 -0.073097624 0.23360832 -0.18070407 0.18882358 0.09899178 0.030819511 0.46487153
-0.02724611 0.33468518 0.3072224 0.062396176 -0.25477043 0.19182742 0.10195751 0.2078749
0.6078943 0.16469486 -0.27026752 0.3919123 -0.048931383 0.3160422 0.5248621 -0.079300515
00000000: 342e e9be 880a 663e 1f4b b3bb 0ca4 d43c
00000010: fd80 913b b594 6d3e 9cfa 0a3e c42d 8b3d
00000020: c74d 623e 2140 c23e 7f28 15be abe0 d3be
00000030: 4cb3 913e fbca df3d 60c3 2d3e ed61 eb3e
00000040: 8722 f43e 9935 a5bd 9ea3 01be 6956 37be
00000050: f977 24bf ad01 4cbd ad12 623d 02d8 da3e
00000060: 89cd 913e 74f3 8ebd 17c9 88bd ec66 44be
00000070: 3c57 abbd 60fe 4a3d aa4b bd3e ff56 5c3c
00000080: db95 5cbe 72d4 aebd 2ef4 cdbd d78c c03e
00000090: a376 25bf dfaa 31be fe9a 7abe a25e a83e
000000a0: 0ebb 60be af54 44be 79f5 f9bd 6528 0dbd
000000b0: 0738 623e d5a7 ccbc 524d 95be 609c c6be
000000c0: 6bbb 513e d780 b4bd b307 c1be bac0 5cbe
000000d0: 4e6e 2abe 484b 0abf a808 f93e e2da 8ebe
000000e0: 279e 8f3d 19b8 cd3d 3e23 853d e283 42bf
000000f0: ea65 c1be 8df0 fb3e 09e3 44bf 0917 0ebb
00000100: 5ea5 e3be acbf 073d b2b8 28be c0fa e83d
00000110: 4868 53be 0ffc 7fbe 3bd6 3ebd 7318 8ebd
00000120: 4bc4 963e 38bd 3c3f 0489 99bd c637 d4be
00000130: 7a81 133e 7dd9 b7be 7c93 bb3e 1548 02be
00000140: bd4d fabd c57b b63e 3d36 a8be 143a 913d
00000150: a686 933e 0bbe bbbd 16ab e6be 5b98 cf3e
00000160: bdc7 2d3e 8db5 68be 6c59 e03e d636 f6bd
00000170: d6e4 273e ccb8 69be 4c20 b33d 07d5 8c3e
00000180: 8971 673e 701c 0e3f fe07 d93e 54fa 42be
00000190: 4681 bcbe 75ff 39bf 24cd d83d 30f3 c83d
000001a0: 9495 73be 70d0 833e 8d9c 00be aecd a3be
000001b0: f040 8fbe d8f5 2d3e bc81 a0be 2393 f7be
000001c0: 4929 a23d 1f14 06be 1112 3bbe 41e7 ed3c
000001d0: 51c9 8d3e 96d5 773e b510 b53e e2b6 ad3e
000001e0: 7416 5fbd 1511 773d 89fc 1cbe 5cb2 7cbe
000001f0: 9fcf b63b 11a6 e33d ac0e 47be be67 44be
00000200: 5215 9dbe 5d21 93bd faf0 43bd 7829 2abe
00000210: 3913 3ebe 328e 5cbd 771d 0f3f baab 0dbf
00000220: 3d3b d3bd de3b 0a3f 03f0 e6be 870e ce3e
00000230: 1f44 acbd c1f1 f1be 123f 2cbe c235 89be
00000240: 1139 c73e 8cf6 d2be 6c97 cfbd 987a 9abe
00000250: 91d7 d7bd e94e a7ba f88e 0cbc 16ee 793e
00000260: d208 b33d 69cc 373d 73c5 5abe 5c29 b9be
00000270: 8d9f dd3e b9fe c23d 95d8 2cbe c61e 8cbe
00000280: ad33 83be 28d7 66be 6d97 b2be f903 743e
00000290: add5 2f3d 939c 6abd 68d6 453e 7649 f03b
000002a0: 771e 0ebf d1bc 8f3e 4709 003e ac46 b13d
000002b0: ca83 04be 1915 0ebe 3982 0b3e 7f36 30be
000002c0: 3b4e 543f 0a3c 46bf 64dd ee3d 32b0 863e
000002d0: 17b6 13bd 0837 14bd 5f9c bbbd dfd9 b4bd
000002e0: 9ae8 aebd d56f a5bd de75 a23d 354c 1cbd
000002f0: 796b 82be b1ab 2f3e 25d3 ee3e a05d 9ebd
00000300: 9e73 25be 1f69 3d3e 7a72 4cbd 927d e2bd
00000310: dc1f 6e3e a112 21bd 12bb 343d 0795 08bf
00000320: 548f 913e b765 953e acb1 06bf 2cd4 d4bd
00000330: 17bc f6be e950 4a3e ee0d d43d d7f4 c4be
00000340: 19f8 66be 74ef f3be 7108 953d 3f5f 013f
00000350: 83ef a0be d9b0 263f 0700 403e 2f83 da3d
00000360: 7409 6cbe 0b8f 143f c7eb 013e 3a83 c8be
00000370: 2ade 143e bf3f 51be b262 83be bf9f 2a3f
00000380: 1214 c33e c29e 21bf 0f29 733d 04f9 493e
00000390: d1fd cabe 1fce c0bc f3cc c4be e7c5 753e
000003a0: 5685 923c 35b4 95bd 0537 6f3e 7d0a 39be
000003b0: f85a 413e 34bc ca3d 3379 fc3c a403 ee3e
000003c0: 3c33 dfbc db5b ab3e 414c 9d3e 2293 7f3d
000003d0: 4571 82be 686e 443e 19cf d03d 28dd 543e
000003e0: f69e 1b3f c5a5 283e 8160 8abe bba8 c83e
000003f0: 466c 48bd 49d0 a13e 5d5d 063f 4f68 a2bd

lstm.weight_hh_l0 f4 [512, 128]
-0.3731769 -0.26196232 0.008409256 0.38383338 0.10059536 0.13014212 -0.18904054 0.20289734
0.097011544 0.034187794 -0.28710648 0.051677268 -0.026076125 0.068465196 0.13853106 -0.46259066
0.16589954 0.042424332 -0.1544865 -0.1049959 -0.27393204 0.18181059 0.27326113 0.056084506
-0.2617833 -0.033710178 0.19598974 0.016530612 0.07626578 -0.16860919 -0.019722033 0.30187875
0.24549386 -0.13391623 -0.039729662 0.060726464 0.15865217 -0.3426897 0.30636892 0.23200665
0.115937464 0.36766917 -0.025911069 -0.108734295 -0.28649515 0.13606954 0.045898035 0.2799984
-0.07108049 -0.12704168 -0.07312733 0.2641231 -0.18149278 0.1503331 0.33702773 -0.056274395
0.20893024 0.3388147 -0.07601281 0.11521537 -0.09298986 -0.11099498 0.10326967 -0.07104268
0.028432535 -0.1232018 -0.21241367 0.04615596 -0.14293258 0.081069365 -0.08047213 0.056669276
0.12679574 0.09261679 0.122532405 0.41586903 0.08420206 0.14475356 0.007825236 0.0022271376
-0.05312933 -0.23339221 0.15688287 -0.015406487 0.14472051 0.049407553 -0.034150828 0.26684555
0.14086515 0.09397097 0.0135198645 -0.015774708 0.011427178 0.1283418 0.09351134 0.11974106
-0.08790288 0.019085504 0.0037362264 -0.08010397 0.14651611 0.42424375 -0.074930295 0.22928311
0.36409605 -0.1614067 -0.18716134 -0.10411305 -0.20855792 0.0005944246 -0.2879879 0.17454961
-0.054484583 -0.39067015 0.2611198 0.0072241803 0.107446514 0.16960023 -0.32038608 -0.20633547
-0.017908374 0.23158826 0.3402808 -0.10181666 0.31725594 0.49469352 0.302074 0.17139271
-0.15994455 -0.060496695 0.23848526 0.19394368 0.509176 0.19926448 0.23168759 -0.09573298
-0.11485884 -0.10552635 -0.28047603 0.36579162 0.29530555 -0.15095343 -0.25366414 0.13962623
0.092788845 0.4151046 0.33630088 0.24693249 -0.199036 0.053691436 0.19368802 -0.2838976
0.5647373 -0.36987445 -0.13148175 0.4333967 -0.15041015 -0.26971838 0.010020652 -0.32834753
-0.23589498 -0.3472374 -0.06453665 0.08318863 0.39324403 0.21096665 0.16688865 -0.22265282
-0.1416188 0.16745655 0.32901973 -0.14281328 0.0021436412 -0.09440657 -0.1112559 -0.0014529205
0.15148729 0.15304896 -0.08798095 -0.13275531 0.2345394 0.18564902 0.09445869 -0.10694842
0.2754498 -0.07781398 0.37237614 -0.04870296 -0.1195134 0.00029345235 0.23023777 0.31304196
-0.07431515 0.0010432858 0.13689283 0.19629224 -0.30177316 -0.31360132 -0.3670665 0.13360724
0.37424803 -0.2327765 0.12831998 0.11420873 -0.1658781 -0.16846141 0.23974518 0.055971902
0.20107166 0.20095196 -0.2134164 0.024202194 -0.23903437 0.18417276 0.13106762 0.15659164
0.02443941 -0.097255945 0.4297136 -0.18751103 -0.25173515 -0.53465694 0.19060634 0.47725496
-0.09971227 0.22661701 -0.07835488 0.5142974 -0.061899304 -0.047246616 -0.16003391 -0.03713509
0.015524021 -0.22937374 -0.18785675 0.35762635 0.24249275 -0.1786453 0.21242149 0.009802575
-0.16901504 -0.03203586 -0.21215673 -0.2642869 -0.0026123195 0.40447956 0.050297134 -0.016783178
-0.2686361 0.12551878 -0.15406075 -0.4674714 -0.15118891 -0.18575682 -0.026910381 0.21483168
00000000: 0b11 bfbe ed1f 86be fac6 093c cf85 c43e
00000010: f104 ce3d fa43 053e d893 41be 52c4 4f3e
00000020: fdad c63d 8008 0c3d 9fff 92be 8bab 533d
00000030: 999d d5bc 7b37 8c3d 16db 0d3e afd8 ecbe
00000040: 92e1 293e 23c5 2d3d b631 1ebe 1708 d7bd
00000050: d240 8cbe 8e2c 3a3e e2e8 8b3e deb8 653d
00000060: 7608 86be af13 0abd 89b1 483e 356b 873c
00000070: 3c31 9c3d e3a7 2cbe 1a90 a1bc da8f 9a3e
00000080: be62 7b3e 5621 09be 92bb 22bd 50bc 783d
00000090: b775 223e 0675 afbe 63dc 9c3e 2793 6d3e
000000a0: 9f70 ed3d 223f bc3e 7343 d4bc 16b0 debd
000000b0: 7eaf 92be d055 0b3e 94ff 3b3d f35b 8f3e
000000c0: a692 91bd 3717 02be c8c3 95bd 253b 873e
000000d0: 3ed9 39be ecf0 193e e68e ac3e fb7f 66bd
000000e0: cff1 553e 1f79 ad3e 9bac 9bbd 09f6 eb3d
000000f0: 7871 bebd 5651 e3bd 0c7f d33d d37e 91bd
00000100: 59eb e83c 3a51 fcbd f882 59be 080e 3d3d
00000110: eb5c 12be b207 a63d 92ce a4bd 0b1e 683d
00000120: bed6 013e dfad bd3d 45f2 fa3d c9ec d43e
00000130: 2172 ac3d 473a 143e 6b35 003c 2bf5 113b
00000140: 249e 59bd 5efe 6ebe e7a5 203e 7d6b 7cbc
00000150: 9d31 143e 935f 4a3d bde1 0bbd fb9f 883e
00000160: f43e 103e da73 c03d 6c82 5d3c f639 81bc
00000170: 0f39 3b3c 086c 033e e082 bf3d cd3a f53d
00000180: 6d06 b4bd 3459 9c3c 7adb 743b 8d0d a4bd
00000190: 5208 163e 7a36 d93e 0e75 99bd 31c9 6a3e
000001a0: cc6a ba3e cc47 25be 39a7 3fbe 3939 d5bd
000001b0: 3590 55be 29d3 1b3a 2673 93be 22bd 323e
000001c0: 3a2b 5fbd eb05 c8be 7fb1 853e d1b8 ec3b
000001d0: eb0c dc3d afab 2d3e a509 a4be 9b49 53be
000001e0: 95b4 92bc 7925 6d3e 4939 ae3e 4185 d0bd
000001f0: 5f6f a23e 7848 fd3e 71a9 9a3e 9281 2f3e
00000200: 81c8 23be 62cb 77bd 7b35 743e 2c99 463e
00000210: 5c59 023f fd0b 4c3e 833f 6d3e a70f c4bd
00000220: 1d3b ebbd 331e d8bd 8e9a 8fbe 0a49 bb3e
00000230: 4a32 973e 8993 1abe 44e0 81be 2efa 0e3e
00000240: 1408 be3d 9788 d43e a12f ac3e dfdb 7c3e
00000250: 18d0 4bbe 8deb 5b3d 2756 463e 075b 91be
00000260: a092 103f 2f60 bdbe 27a3 06be 2ce6 dd3e
00000270: 1e05 1abe 8718 8abe a92d 243c 2b1d a8be
00000280: 748e 71be 1ac9 b1be cb2b 84bd cd5e aa3d
00000290: 4857 c93e a407 583e dce4 2a3e 1aff 63be
000002a0: 8504 11be bb79 2b3e 4675 a83e a53d 12be
000002b0: 557c 0c3b 3b58 c1bd 22da e3bd ec6f beba
000002c0: 7c1f 1b3e deb8 1c3e 5b2f b4bd 02f1 07be
000002d0: 192b 703e c71a 3e3e 8f73 c13d c607 dbbd
000002e0: c207 8d3e f05c 9fbd 16a8 be3e c17c 47bd
000002f0: 71c3 f4bd 82da 9939 73c3 6b3e 0947 a03e
00000300: 8b32 98bd ddbe 883a a22d 0c3e d500 493e
00000310: 0382 9abe 5a90 a0be 24f0 bbbe 56d0 083e
00000320: 709d bf3e f65c 6ebe 5066 033e 44e6 e93d
00000330: f3db 29be 2681 2cbe c37f 753e cb42 653d
00000340: bbe5 4d3e 5ac6 4d3e d489 5abe ae43 c63c
00000350: 6dc5 74be c997 3c3e 9736 063e 8f59 203e
00000360: 2835 c83c 202e c7bd 6c03 dc3e e402 40be
00000370: 6ee3 80be 47df 08bf 4f2e 433e c35a f43e
00000380: f235 ccbd 4a0e 683e 8678 a0bd ffa8 033f
00000390: 208a 7dbd ab85 41bd eedf 23be f71a 18bd
000003a0: 7758 7e3c f3e0 6abe 855d 40be cd1a b73e
000003b0: 0550 783e cbee 36be 0585 593e fb9a 203c
000003c0: 4712 2dbe 0938 03bd 9d3f 59be 9d50 87be
000003d0: 7333 2bbb f217 cf3e 5e04 4e3d e07c 89bc
000003e0: ac8a 89be ff87 003e 1ac2 1dbe 6958 efbe
000003f0: 44d1 1abe 0937 3ebe 2973 dcbc d6fc 5b3e

lstm.bias_ih_l0 f4 [512]
0.66306186 0.3596445 0.09123529 0.23996903 -0.02354747 0.31049407 0.31949732 0.2565111
0.30926645 0.3953012 0.2469993 0.26352218 0.44145936 0.1814067 0.010699777 0.6110852
-0.09163013 0.50528747 0.39502442 0.5097924 0.3804916 0.48773426 0.105037905 0.29234505
0.07362994 0.034608945 0.3220568 -0.10286613 0.47540298 0.042940468 0.16749072 0.32539013
0.43525037 0.39488152 0.27524698 0.8486266 0.018209716 0.23732828 0.1668371 0.22148915
0.27544266 0.066185385 0.2966897 0.18873248 0.28075096 0.26947522 0.5120103 0.15768676
0.39737165 0.42766693 0.14003812 0.17883231 0.2733012 0.15721427 0.22431685 0.13724962
0.1569351 0.10503449 0.22289255 0.23197106 0.3742548 0.26234418 0.5513411 0.20879014
0.19682418 0.6061384 0.39805323 0.060206395 0.14119251 0.04535702 0.24032107 0.11520816
0.65703696 0.4668651 0.4539259 0.119551465 0.17086293 0.65687 0.40866166 0.10799719
0.5932978 0.34408522 0.33167744 -0.2138741 0.30056176 0.144511 0.24532795 0.12247808
0.3294967 0.1421607 0.12416385 0.019121684 0.06936111 0.37149954 0.087312765 0.24963091
0.24429052 0.5135467 0.36974525 0.16154039 -0.0046491865 -0.25224915 0.38812622 0.29643583
0.34245047 0.2127345 0.6698664 0.16191514 0.31570843 0.32687053 0.08425749 0.35231692
0.33942297 0.15650845 0.33132818 0.017976431 0.22535804 0.3539585 0.35721186 0.14571632
0.0508197 0.46034247 0.10241574 0.38557905 0.38555154 0.2550134 0.23570876 0.41742027
-0.12985857 -0.44510415 -0.27716947 0.33724296 0.008414822 0.005961562 -0.43387583 -0.2237612
0.12710762 0.20564826 0.09445595 0.4409441 -0.08404811 -0.16571984 -0.24335225 0.23646781
-0.22612949 0.01782008 -0.22896309 0.08374591 -0.14871427 -0.17938761 -0.006057436 -0.16497567
-0.40696064 0.06730534 -0.35068688 0.047477223 -0.26533675 0.15365188 0.076593764 -0.015990747
0.02230877 -0.09743424 -0.071336165 0.5551929 0.12160155 -0.21323833 0.1864318 -0.2430118
-0.251461 -0.3666608 0.1594044 0.012274434 -0.19234598 -0.22589144 0.07746607 -0.3208567
-0.1755084 -0.32478184 0.04419458 -0.19833098 -0.32232204 -0.3105558 -0.031332247 -0.14813954
-0.12204988 -0.22948796 -0.33195058 -0.2123178 0.066676885 -0.21991307 0.2897561 -0.08883812
-0.090124935 -0.1501615 -0.35522807 -0.07403415 -0.029418984 -0.19209565 -0.25567004 -0.07736877
0.16731179 -0.13796751 -0.31025487 -0.2925044 -0.33303687 0.14891317 0.09298572 -0.17943521
0.20600408 -0.27124023 -0.14455381 -0.38754734 -0.18442924 -0.08863399 -0.05870576 0.02644564
-0.3402167 -0.3117017 0.08815794 -0.248148 -0.12456458 -0.24213801 -0.052160494 0.06373942
-0.4739818 0.017687548 -0.15788041 -0.14113449 -0.20004757 -0.035951 -0.1612894 -0.42792702
-0.38047144 -0.06467404 0.362212 0.12827091 -0.27362302 -0.14191258 0.009047764 -0.043133687
-0.0051653637 -0.2661246 -0.022871641 -0.09314078 -0.3244329 0.19380498 0.047148135 -0.24193689
-0.11516963 -0.41280028 -0.33640227 0.09325418 -0.20265816 0.21211652 -0.3301304 -0.10296629
00000000: 6cbe 293f 5323 b83e 91d9 ba3d 71ba 753e
00000010: a0e6 c0bc 14f9 9e3e 2795 a33e 6c55 833e
00000020: 2c58 9e3e eb64 ca3e 62ed 7c3e 61ec 863e
00000030: f606 e23e aec2 393e 1e4e 2f3c 1470 1c3f
00000040: 94a8 bbbd 855a 013f a440 ca3e c181 023f
00000050: cccf c23e 4eb8 f93e 1d1e d73d 40ae 953e
00000060: 4bcb 963d 1cc2 0d3d a1e4 a43e 7aab d2bd
00000070: 0568 f33e 58e2 2f3d b082 2b3e 8999 a63e
00000080: 23d9 de3e e92d ca3e 2ced 8c3e 983f 593f
00000090: 8b2c 953c 2f06 733e 58d7 2a3e 0dce 623e
000000a0: d206 8d3e 348c 873d b6e7 973e 1643 413e
000000b0: 97be 8f3e a8f8 893e 1b13 033f a378 213e
000000c0: 4c74 cb3e 29f7 da3e 2766 0f3e d11f 373e
000000d0: 23ee 8b3e c7fc 203e 51b3 653e 2a8b 0c3e
000000e0: 98b3 203e 531c d73d f23d 643e d289 6d3e
000000f0: 539e bf3e fa51 863e b124 0d3f 15cd 553e
00000100: 478c 493e e32b 1b3f a2cd cb3e fb9a 763d
00000110: c594 103e 48c8 393d ba16 763e 41f2 eb3d
00000120: 9333 283f f108 ef3e fa68 e83e 66d7 f43d
00000130: b1f6 2e3e a228 283f 1a3c d13e a12d dd3d
00000140: 5de2 173f f02b b03e a0d1 a93e d001 5bbe
00000150: 3be3 993e b1fa 133e 4037 7b3e cad5 fa3d
00000160: cbb3 a83e 9392 113e 9e49 fe3d 14a5 9c3c
00000170: 330d 8e3d 3035 be3e 09d1 b23d 3f9f 7f3e
00000180: 4b27 7a3e cc77 033f 404f bd3e d86a 253e
00000190: 3458 98bb cd26 81be 7bb8 c63e 70c6 973e
000001a0: ab55 af3e 13d7 593e 5d7c 2b3f 15cd 253e
000001b0: 89a4 a13e 935b a73e 318f ac3d e262 b43e
000001c0: d9c8 ad3e c043 203e d9a3 a93e 4f43 933c
000001d0: 42c4 663e 0c3a b53e 79e4 b63e a936 153e
000001e0: 5128 503d 02b2 eb3e 58bf d13d 9e6a c53e
000001f0: 0367 c53e 1e91 823e a35d 713e 1cb8 d53e
00000200: a5f9 04be b1e4 e3be 28e9 8dbe 1cab ac3e
00000210: 52de 093c 3559 c33b f924 debe a821 65be
00000220: 8028 023e 7595 523e 1f72 c13d 6dc3 e13e
00000230: 6a21 acbd 76b2 29be 5531 79be 9e24 723e
00000240: 7d8e 67be 6bfb 913c 4d75 6abe fa82 ab3d
00000250: 8e48 18be 63b1 37be 757d c6bb 62ef 28be
00000260: 255d d0be 62d7 893d 3b8d b3be 7a77 423d
00000270: 38da 87be eb56 1d3e 31dd 9c3d 07ff 82bc
00000280: e2c0 b63c 9a8b c7bd b218 92bd 1f21 0e3f
00000290: 3c0a f93d 265b 5abe fae7 3e3e 16d8 78be
000002a0: 7fbf 80be f7ba bbbe e83a 233e b51a 493c
000002b0: 58f6 44be 1650 67be 88a6 9e3d 5447 a4be
000002c0: 79b8 33be ce49 a6be 6005 353d 4717 4bbe
000002d0: 6507 a5be 2b01 9fbe 3e56 00bd e4b1 17be
000002e0: 4af5 f9bd e4fe 6abe 6df5 a9be d669 59be
000002f0: e48d 883d e430 61be e95a 943e c3f0 b5bd
00000300: 6c93 b8bd f0c3 19be 74e0 b5be 379f 97bd
00000310: 1500 f1bc b9b4 44be 2fe7 82be 8573 9ebd
00000320: c853 2b3e 5b47 0dbe bad9 9ebe 23c3 95be
00000330: cf83 aabe b27c 183e 4c6f be3d ddbd 37be
00000340: bcf2 523e 00e0 8abe ea05 14be 9b6c c6be
00000350: 05db 3cbe bd85 b5bd 7375 70bd 87a4 d83c
00000360: e230 aebe 5d97 9fbe 268c b43d 821a 7ebe
00000370: b71b ffbd 07f3 77be 3ea6 55bd d089 823d
00000380: bead f2be 7ae5 903c 67ab 21be 8f85 10be
00000390: 45d9 4cbe 5b41 13bd 0c29 25be 4019 dbbe
000003a0: 27cd c2be d373 84bd da73 b93e 7359 033e
000003b0: 5118 8cbe 8851 11be 133d 143c f3ac 30bd
000003c0: 3642 a9bb 7c41 88be 4f5d bbbc 98c0 bebd
000003d0: 121c a6be d074 463e 671e 413d 4ebe 77be
000003e0: 0ede ebbd 8f5a d3be eb3c acbe 0cfc be3d
000003f0: 9f85 4fbe 1335 593e da06 a9be fedf d2bd

lstm.bias_hh_l0 f4 [512]
0.5875172 0.4082556 0.13382205 0.17893593 -0.0864133 0.43539625 0.32369515 0.28263825
0.27090082 0.35560942 0.22574747 0.41377178 0.42018777 0.20955592 0.06421642 0.4397599
0.0035259316 0.4565529 0.4363062 0.4296245 0.33702224 0.41971353 0.10398127 0.25382987
0.0048261737 0.03331258 0.33439976 -0.057436895 0.3907567 0.05641359 0.2303616 0.18455452
0.4977726 0.33150923 0.18980324 0.81894255 -0.063028686 0.32662538 0.1972664 0.2305921
0.23612131 0.017818876 0.21011777 0.18588987 0.27672604 0.36055267 0.6292015 0.28414038
0.35166147 0.42472604 0.24549296 0.08958258 0.17593977 0.18205585 0.17098027 0.122363284
0.13275626 0.11298811 0.3303071 0.12943271 0.3524854 0.30444384 0.5077296 0.15540709
0.18179688 0.5363486 0.34360385 0.054793242 0.14297004 0.07791483 0.22913568 0.047510527
0.7289096 0.42679527 0.46748146 0.18962921 0.24850123 0.7336676 0.3474156 0.13397646
0.43776798 0.24114485 0.25205857 -0.09809347 0.19812319 0.19220917 0.28862557 0.078599975
0.3373868 0.2055782 0.06377781 0.06564967 0.17400686 0.37023494 0.006325989 0.21837229
0.2841012 0.61234504 0.33288762 0.18368927 0.016874399 -0.24957322 0.32358804 0.32404706
0.22585522 0.28760532 0.6596255 0.16375382 0.28778392 0.22921376 0.1138878 0.3946388
0.37763295 0.15625134 0.34071472 -0.051148415 0.294269 0.3664013 0.35226858 0.17568919
0.030643135 0.36471695 0.047768977 0.32711864 0.38640332 0.22152165 0.24764189 0.41692424
-0.21174772 -0.3274343 -0.21456054 0.27504578 -0.068001196 -0.05648343 -0.39513698 -0.2213878
0.06375134 0.20397647 0.028188234 0.27010533 -0.054614037 -0.1741814 -0.14269125 0.09961025
-0.2952981 -0.08780603 -0.25989568 0.13016702 -0.17862575 -0.21241318 -0.06162668 -0.06066025
-0.43788132 0.055946738 -0.2947615 -0.029335523 -0.29688248 0.04408017 0.07118441 -0.036785718
0.012520663 -0.022224711 0.06603252 0.5235853 0.12939392 -0.3444446 0.13263148 -0.29478535
-0.19174461 -0.32230714 0.06133715 -0.04676045 -0.24066305 -0.18193193 0.007222106 -0.40165484
-0.2226311 -0.39306456 0.010528689 -0.19971365 -0.19968502 -0.2555029 -0.030740913 -0.19848695
-0.22174694 -0.19813918 -0.23673753 -0.20545995 0.059353467 -0.17971215 0.26366377 -0.085549556
-0.12767038 -0.29837707 -0.28978446 -0.17199075 0.10267027 -0.13837649 -0.31466228 -0.11357581
0.24247003 -0.05390193 -0.3709102 -0.24136695 -0.3054041 0.22531426 0.20246698 -0.21112181
0.19483534 -0.13471106 -0.01266144 -0.37580493 -0.19445844 -0.19218878 -0.16363291 0.024928102
-0.2876733 -0.36170295 0.10161369 -0.2929014 -0.185965 -0.15882903 -0.16523752 -0.0010942691
-0.55383563 -0.020442259 -0.24053884 -0.024171868 -0.2585756 -0.13136736 -0.15910636 -0.39288336
-0.4649936 -0.18978116 0.3270902 0.053025495 -0.21269533 -0.17396957 0.021373926 -0.07107128
-0.0772129 -0.30624703 0.02986124 -0.1567371 -0.2604868 0.19450389 0.043468084 -0.19292577
-0.15901728 -0.3226268 -0.28007296 0.19904412 -0.22395277 0.1551527 -0.4080991 -0.06867132
00000000: 8767 163f e106 d13e a608 093e fb3a 373e
00000010: 75f9 b0bd 42ec de3e 5fbb a53e f6b5 903e
00000020: 83b3 8a3e 7012 b63e 582a 673e e5d9 d33e
00000030: da22 d73e d495 563e e683 833d 3628 e13e
00000040: 5113 673b 4dc1 e93e 8763 df3e bef7 db3e
00000050: 2e8e ac3e b1e4 d63e 22f4 d43d fdf5 813e
00000060: e124 9e3b c672 083d 7236 ab3e f342 6bbd
00000070: 4311 c83e f011 673d e9e3 6b3e dcfb 3c3e
00000080: 0ddc fe3e 94bb a93e c85b 423e 38a6 513f
00000090: 2f15 81bd 713b a73e 3400 4a3e 5620 6c3e
000000a0: c9c9 713e e4f8 913c 1d29 573e ea59 3e3e
000000b0: 09af 8d3e 5c9a b83e 5913 213f d97a 913e
000000c0: f90c b43e b175 d93e 8262 7b3e 1277 b73d
000000d0: 8e29 343e d96c 3a3e 7415 2f3e 9a99 fa3d
000000e0: 42f1 073e 4f66 e73d 031e a93e 028a 043e
000000f0: f778 b43e 10e0 9b3e 91fa 013f 0923 1f3e
00000100: f628 3a3e 244e 093f d8ec af3e e16e 603d
00000110: bd66 123e cf91 9f3d 8ba2 6a3e 669a 423d
00000120: d299 3a3f e984 da3e bb59 ef3e 292e 423e
00000130: 1b77 7e3e a4d1 3b3f 75e0 b13e 2031 093e
00000140: 2023 e03e adee 763e d20d 813e 3be5 c8bd
00000150: cee0 4a3e 7bd2 443e bbc6 933e 06f9 a03d
00000160: f6bd ac3e 1783 523e f19d 823d 5673 863d
00000170: db2e 323e 6f8f bd3e 3e4a cf3b fc9c 5f3e
00000180: b675 913e a5c2 1c3f 3f70 aa3e 0a19 3c3e
00000190: 2e3c 8a3c 1f90 7fbe 55ad a53e 7fe9 a53e
000001a0: 9746 673e 0141 933e 37dd 283f 15af 273e
000001b0: 6a58 933e 03b7 6a3e 023e e93d 190e ca3e
000001c0: 1b59 c13e 5a00 203e 2972 ae3e 0081 51bd
000001d0: 6daa 963e f498 bb3e 8c5c b43e dee7 333e
000001e0: 5007 fb3c 2ebc ba3e 67a9 433d 187c a73e
000001f0: a8d6 c53e 92d6 623e d695 7d3e 1877 d53e
00000200: 65d4 58be 78a5 a7be c2b5 5bbe cdd2 8c3e
00000210: 3644 8bbd 2b5b 67bd 654f cabe 7cb3 62be
00000220: 1090 823d 35df 503e 03eb e63c 3f4b 8a3e
00000230: f8b2 5fbd 9c5c 32be a81d 12be 7500 cc3d
00000240: 5031 97be a6d3 b3bd 0c11 85be 814a 053e
00000250: abe9 36be d782 59be 426c 7cbd e276 78bd
00000260: fb31 e0be 6828 653d fbea 96be 0d51 f0bc
00000270: fb00 98be 698d 343d 22c9 913d 9fac 16bd
00000280: 7823 4d3c 9910 b6bc 0f3c 873d b009 063f
00000290: d77f 043e 0b5b b0be 8cd0 073e 1bee 96be
000002a0: b358 44be 7105 a5be aa3c 7b3d e387 3fbd
000002b0: 6070 76be 5d4c 3abe 6ba7 ec3b b4a5 cdbe
000002c0: 68f9 63be c23f c9be 8680 2c3c bc81 4cbe
000002d0: 3b7a 4cbe 47d1 82be 5ed4 fbbc 2a40 4bbe
000002e0: a111 63be ffe4 4abe 536b 72be 1864 52be
000002f0: 9f1c 733d 7606 38be f0fe 863e 9b34 afbd
00000300: 06bc 02be e1c4 98be a15e 94be 581e 30be
00000310: ca44 d23d 91b2 0dbe 6a1b a1be 6f9a e8bd
00000320: 104a 783e 45c8 5cbd f1e7 bdbe e628 77be
00000330: ed5d 9cbe c8b8 663e 8153 4f3e 5130 58be
00000340: ea82 473e b2f1 09be ee71 4fbc 8169 c0be
00000350: 1d20 47be 23cd 44be 638f 27be 0536 cc3c
00000360: ea49 93be 2131 b9be d71a d03d 2cf7 95be
00000370: 9c6d 3ebe 14a4 22be 0634 29be 946d 8fba
00000380: 2cc8 0dbf 8676 a7bc d04f 76be 1504 c6bc
00000390: 0564 84be 2a85 06be c7ec 22be 0228 c9be
000003a0: a413 eebe fe55 42be 5e78 a73e 4331 593d
000003b0: cecc 59be 1425 32be 5f18 af3c d28d 91bd
000003c0: cc21 9ebd 69cc 9cbe 8f9f f43c b17f 20be
000003d0: 875e 85be 072c 473e 970b 323d 558e 45be
000003e0: 6dd5 22be 572f a5be b965 8fbe 39d2 4b3e
000003f0: e053 65be 59e0 1e3e 5ef2 d0be 8da3 8cbd

linear.weight f4 [12, 128]
-0.3652653 1.4444073 -0.0021301946 0.1245605 -1.3236705 0.47927785 0.1872236 1.2965982
-0.31690484 1.5645261 -0.5115509 -1.624291 -1.2841365 -0.3819612 1.0677373 -2.081725
-0.6952527 -0.62302524 -1.6047595 -2.1060398 -0.462683 1.108283 0.5954357 0.61106783
0.06115988 1.1098639 2.065667 0.4447907 -0.46243274 1.4815706 0.097708754 0.17522189
0.47034323 0.4106387 -0.04935756 -0.7615503 -0.6665019 -0.22397353 0.77407146 0.6133257
0.8399675 0.6666077 -1.3722554 -0.88770723 0.41698915 0.16669959 2.4477837 -0.67796683
-0.509514 0.58613074 -0.16317418 -0.6688536 0.36380032 1.4899523 -1.2807765 0.9539235
-0.86366314 0.7539402 -0.7154765 -1.5024002 0.1855741 -0.5489262 -0.8652702 -0.54502636
-0.7689338 1.1172875 -1.110474 -0.5138778 -0.43610403 -0.8368141 -0.45609003 0.95403606
-1.2294415 -0.46484414 -1.087259 -0.48848498 1.2233442 -1.0224271 0.5505191 0.024204308
-0.37535256 -0.3875126 0.28918916 -0.20597735 0.84272027 -1.2989067 1.1333785 0.35208622
-0.28233996 0.78418165 0.69289047 0.88330305 -0.81785023 0.3109975 0.72757214 -1.0515563
-1.5030011 -1.5600863 0.8849382 -0.7772462 0.66096663 0.88441145 -0.4282914 -0.29164493
-1.0930649 -0.54505295 2.1843915 -0.96359456 -0.976605 1.3140646 -0.1135935 -0.3924977
-0.7067262 -0.6914769 1.5445098 -0.6049594 -0.62099314 -1.5932573 -0.3726228 -0.3729003
-0.2954464 -0.695825 0.8628533 -0.48141953 0.5835697 1.6332097 2.13628 0.72146976
-0.014861844 -0.46109244 0.7283435 0.1470957 -0.26832202 1.2541407 -0.94882864 -0.46193883
-0.3126523 -0.2779211 -0.26422718 0.93563104 0.9532538 0.015963078 1.0645299 0.21400216
-0.18379751 0.5841295 0.7025714 0.14541164 -0.71047807 -0.5247684 -0.45754227 0.4339869
-0.011430657 -1.0054026 -0.69510335 0.605877 -0.54159117 -0.17532821 -0.5698603 -0.10217048
-0.5075177 -0.09988389 -0.658988 0.58956075 0.78541523 0.013878743 0.52170724 0.82417625
0.31267184 -0.36794445 0.038683344 -0.1531371 -0.65163714 -0.7340811 -0.53460723 -0.12217029
-0.1363935 -0.54240143 0.5625601 -0.5102178 0.87728214 -0.492233 0.22570139 0.2122623
-0.78138185 -0.65297943 -0.7396349 -0.20989989 -0.863718 0.74103653 0.44204083 -0.15512626
-0.052430887 -0.00088360894 1.0267568 0.46104747 0.7279066 0.651298 -0.18238534 -0.8392774
0.070533164 0.7120315 -0.4967675 1.2750845 -0.2552765 0.66540813 0.034395654 1.3818775
-0.4253598 -0.32650807 0.0060282242 -0.9738882 0.5980901 -0.11308152 -0.24503653 0.5129058
0.80159664 0.7575113 0.14404117 -0.9730561 -0.98480463 0.004506225 0.791043 -0.08848213
1.2328237 0.40591875 -0.90618825 -0.39063174 -0.87579846 -1.0663762 -0.39927846 0.0066173733
-0.3500983 -0.15157393 -0.32539055 0.48850122 -0.49563572 -0.21559769 0.29658452 0.4100264
0.7163612 -0.41129994 0.76390237 -0.52305144 -0.175541 -0.12930581 -0.48353904 -0.97393066
-0.19390795 0.7411738 -0.5140279 0.035429593 -1.0949798 -0.111642994 -0.30283222 0.64350134
00000000: 0e04 bbbe 57e2 b83f bc9a 0bbb 9319 ff3d
00000010: 096e a9bf e863 f53e 8bb7 3f3e eef6 a53f
00000020: 5a41 a2be 6442 c83f 00f5 02bf c4e8 cfbf
00000030: 965e a4bf 6b90 c3be 9eab 883f fb3a 05c0
00000040: 15fc 31bf 957e 1fbf c268 cdbf 5bc9 06c0
00000050: c9e4 ecbe 38dc 8d3f 796e 183f f16e 1c3f
00000060: c882 7a3d 0510 8e3f e333 0440 9bbb e33e
00000070: fcc3 ecbe 1ba4 bd3f 871b c83d 5e6d 333e
00000080: d4d0 f03e 3c3f d23e 272b 4abd f6f4 42bf
00000090: de9f 2abf 5159 65be 8c29 463f ea02 1d3f
000000a0: 1c08 573f cda6 2a3f 11a6 afbf c840 63bf
000000b0: 9a7f d53e 4cb3 2a3e 7da8 1c40 3c8f 2dbf
000000c0: 826f 02bf aa0c 163f 2217 27be fd39 2bbf
000000d0: 0944 ba3e c2b6 be3f 7cf0 a3bf 5534 743f
000000e0: 0719 5dbf 3a02 413f 7829 37bf a64e c0bf
000000f0: 2307 3e3e 6d86 0cbf 5982 5dbf d986 0bbf
00000100: d8d8 44bf 4703 8f3f 0324 8ebf 7f8d 03bf
00000110: 0749 dfbe 7339 56bf a284 e9be b53b 743f
00000120: 575e 9dbf 0d00 eebe 4e2b 8bbf b41a fabe
00000130: 8b96 9c3f e4de 82bf d2ee 0c3f 1d48 c63c
00000140: 362e c0be 0d68 c6be 9a10 943e baeb 52be
00000150: 84bc 573f 9342 a6bf 8c12 913f a544 b43e
00000160: dd8e 90be 21c0 483f 4561 313f 2620 623f
00000170: a25e 51bf 103b 9f3e 2b42 3a3f 6699 86bf
00000180: 5762 c0bf e8b0 c7bf 4f8b 623f 9bf9 46bf
00000190: 1c35 293f ca68 623f 0349 dbbe 7c52 95be
000001a0: 8de9 8bbf 9788 0bbf 12cd 0b40 22ae 76bf
000001b0: c902 7abf 4533 a83f b5a3 e8bd 75f5 c8be
000001c0: 02ec 34bf a104 31bf 7fb2 c53f 9fde 1abf
000001d0: 68f9 1ebf dbef cbbf 6ac8 bebe caec bebe
000001e0: c044 97be 9621 32bf f4e3 5c3f 9f7c f6be
000001f0: d364 153f 040d d13f d0b8 0840 3eb2 383f
00000200: 177f 73bc 4f14 ecbe b874 3a3f 41a0 163e
00000210: 8161 89be af87 a03f 6fe6 72bf 3f83 ecbe
00000220: f613 a0be ad4b 8ebe c948 87be 8485 6f3f
00000230: 7108 743f 00c5 823c 8442 883f 6223 5b3e
00000240: 6a35 3cbe 8389 153f b8db 333f cae6 143e
00000250: e4e1 35bf 3957 06bf fb42 eabe 8833 de3e
00000260: a647 3bbc 08b1 80bf 4bf2 31bf c11a 1b3f
00000270: b8a5 0abf 3d89 33be 5de2 11bf c23e d1bd
00000280: aeec 01bf ed8f ccbd 70b3 28bf 74ed 163f
00000290: f910 493f ab63 633c 9b8e 053f 37fd 523f
000002a0: 8616 a03e 3763 bcbe 6d72 1e3d f9cf 1cbe
000002b0: b1d1 26bf bdec 3bbf 05dc 08bf 6b34 fabd
000002c0: bdaa 0bbe d2da 0abf f003 103f a29d 02bf
000002d0: 9095 603f f705 fcbe 441e 673e 4a5b 593e
000002e0: a408 48bf a929 27bf b658 3dbf ffef 56be
000002f0: 9f1c 5dbf 92b4 3d3f 2d53 e23e 6bd9 1ebe
00000300: c5c1 56bd fea1 67ba c46c 833f 6a0e ec3e
00000310: 1658 3a3f 77bb 263f 39c3 3abe e2da 56bf
00000320: b173 903d b247 363f 4f58 febe f835 a33f
00000330: 9ab3 82be 3058 2a3f 75e2 0c3d 5de1 b03f
00000340: c2c8 d9be 112c a7be 6988 c53b bd50 79bf
00000350: 6f1c 193f 4997 e7bd dbea 7abe cb4d 033f
00000360: 7035 4d3f 43ec 413f 877f 133e 341a 79bf
00000370: 281c 7cbf f5a8 933b cb81 4a3f 1e36 b5bd
00000380: 2bcd 9d3f 95d4 cf3e f4fb 67bf e200 c8be
00000390: 5434 60bf 047f 88bf 3a6e ccbe 8dd6 d83b
000003a0: 1640 b3be 3236 1bbe 9799 a6be d51c fa3e
000003b0: f7c3 fdbe a4c5 5cbe edd9 973e fbee d13e
000003c0: 7363 373f e895 d2be 1b8f 433f b3e6 05bf
000003d0: 05c1 33be be68 04be 6e92 f7be 8553 79bf
000003e0: ce8f 46be 91bd 3d3f 5597 03bf 9f1e 113d
000003f0: 4c28 8cbf 15a5 e4bd d30c 9bbe 81bc 243f

linear.bias f4 [12]
-1.0185311 0.06362327 -0.083325446 -0.026236111 -0.8190961 -0.4198555 0.25206694 -0.33011377
-0.6298893 0.0043416843 0.118970685 0.13087396
00000000: 3a5f 82bf eb4c 823d 88a6 aabd 1ded d6bc
00000010: 48b0 51bf 4df7 d6be eb0e 813e ac04 a9be
00000020: 6d40 21bf b044 8e3b e7a6 f33d d303 063e
