part2/runs/enc_only,epochs=5,batch_size=128,hidden_dim=128,timestamp=2023-03-10_01-27-26/folds_model/model_1.pt (torch, 888355 bytes, 6 tensors)

lstm.weight_ih_l0 f4 [512, 300]
00000000: 7f52 09be a156 493e f37a 9ebd ba3a d53e
00000010: 3c16 80be 20d8 dc3e 2cb3 0f3d 6ca1 03bf
00000020: 807f 133f 1be6 9bbd f937 b7be e6a9 c53d
00000030: b521 9d3d 565e 423e 7820 20be 3520 383e
00000040: 672c 243d 4116 793d ea5f c0be ce3a 253d
00000050: 7846 4abe 864e af3e e091 8d3d ea88 863d
00000060: f6c1 c1bd e92d 31be 70fa a9bd 7a8c be3e
00000070: d781 a03d b833 83bd 4963 c73d 5d16 50be
00000080: 2312 89bd 1407 07be 2d75 53bc 6008 e03e
00000090: 6bd2 1bbe 85cd 953e 1b12 1f3e 1070 ccbe
000000a0: 12bb 413f ef72 38bc 8143 e63d aa39 023f
000000b0: 40ba 943e 5be7 41be e9f9 a8bd 9476 5fbc
000000c0: a227 1d3d bc68 f13d 6661 9fbe f7dd 1e3e
000000d0: 11ef 2fbe aebe ac3e ba54 f0be dbd7 9dbe
000000e0: 7dce 75be f326 d8be 50fd b53e 2dc6 d6be
000000f0: 5b3d d4be 8b79 98be 9c90 cbbe 8621 7e3e
00000100: 15de 8f3e a93a 663e d46b 7e3e 1071 21be
00000110: 879b bf3d f251 5c3f 182f a23d f265 1bbe
00000120: 308b 9a3e 345a 813d 3bf3 423d fee1 193e
00000130: 74b9 673f 9b3b 723d db89 d4bc 437b e83e
00000140: f4f7 f93e f017 31bf bef6 a83d 5007 0c3e
00000150: f65b 573e 596d 663d b341 34be 895d 93be
00000160: 4cda 61be d17c 7dbe 0c60 493d 606f 943e
00000170: e51c 833d 5db2 bfbe 8267 3dbe 2783 213e
00000180: d50b 0a3f 5437 7d3a a699 22be 136c 7f3e
00000190: 10ff 6bbd 8396 4cbf bbee 953b d256 873e
000001a0: b55e ab3c 801c 30bd c01f 81be 97ea 563d
000001b0: ba65 bd3d d1b9 9a3e 5706 aebd 45da 09bf
000001c0: 8667 a4bd 4960 37bf 917c 2dbe 8c30 72bd
000001d0: ca5c 643e b230 1fbd 8d62 12be 7bcb eb3d
000001e0: f4cc 37bf 2b3c e2bc 0100 0dbd 373c b3be
000001f0: c3ee 33be 1fa2 99be 3313 d13d b2e5 233f
00000200: a95f 933e c00d 2c3e d203 c6be 7d9d acbe
00000210: a001 2cbe cefe 7abe dcbc 4fbe 9f9d 00bf
00000220: 6b9a 8cbd aa55 37bf 0331 75bd cb28 ce3e
00000230: 7318 4a3e 36d7 af3e 83d9 1ebe bad0 0b3e
00000240: 7c32 b83d 873e 86bd 22ed edbd c975 48be
00000250: 8062 8d3e 634a 71be 6f35 d4bd 9c3a 943d
00000260: e09e 26be ffa6 bdbe c6bf a0be 8ae5 8bbe
00000270: 5404 953e 045b 58be 55f4 933e 16d7 013e
00000280: a6e3 d6be 7de4 cdbd a575 fb3d 215f 953e
00000290: 86d0 be3e dad6 913e 2359 b63d b264 c93b
000002a0: 1fec 0dbf f47b 22bf 27ad eabe 20fb e83e
000002b0: 32f6 96bc f503 85be 82a5 ff3c 17f3 753d
000002c0: 2890 25be 75f9 96be c1cf 69be 7017 c4bd
000002d0: 95bb e53e 2c09 d2be c253 043f e1b2 dbbe
000002e0: ff82 ec3b 8e14 913e 4e25 b8bd 70f5 43be
000002f0: eb06 a03e e7e4 c3be 144c 7e3e 3389 c9bd
00000300: e298 9f3c d938 1dbf 7e3b 4fbe e641 533d
00000310: 234c 5bbe 3c5f 8a3e bde3 f9bd 1c90 363d
00000320: dcef 063e 1e71 1dbd 7f71 ce3e 336e d33d
00000330: bdd1 ab3c 4464 f2bd 9e16 aabc 8505 f63d
00000340: 6336 6abe 7928 e63c 311e 96be 2786 d53e
00000350: e448 37be 24e7 043f ad96 8f3e 9a73 4c3e
00000360: 68b1 c33e 2d8d 37bd 346f 30be ab26 2fbc
00000370: c97c ff3e 00dd b6be 1049 943d 59a6 1ebd
00000380: 141c 28bf f1f8 ea3e ed86 923d 808c b2bd
00000390: 3b0b 5c3e 611e f43d 8e45 a33d 9a5e 543e
000003a0: 5760 433d 7876 e23e fe6b 77be a892 f43e
000003b0: bdef 863e 60a7 d23e 4ddd 333e e249 24be
000003c0: 29bd a23d 4308 f93e fc9f e03d 5c80 443b
000003d0: e510 5b3d d2d9 bdbc f237 2b3d 7590 933d
000003e0: 1bad 6c3e a7d3 cbbd e052 e13e e2f7 383f
000003f0: 83a1 08be f117 f6bd 62f0 d9be e7ea d83e
-0.13410376 0.19661953 -0.077382945 0.41646367 -0.25016963 0.4313364 0.03508298 -0.51418185
0.57616425 -0.076122485 -0.3578489 0.09651546 0.07672445 0.18981299 -0.15637386 0.17981036
0.040081408 0.06081224 -0.37573177 0.040339284 -0.19753444 0.34239596 0.06912589 0.06569083
-0.09460823 -0.1730267 -0.0829972 0.3721655 0.07837265 -0.06406349 0.09735734 -0.20321031
-0.066929124 -0.13186294 -0.012906355 0.4375639 -0.15216987 0.2925836 0.1553425 -0.39929247
0.7567607 -0.011257871 0.11243344 0.5086924 0.29048347 -0.18935911 -0.082507916 -0.013639111
0.038367875 0.117875546 -0.31128997 0.1551436 -0.1718104 0.33739227 -0.4693964 -0.30828747
-0.2400455 -0.42217216 0.35544825 -0.4194807 -0.4145306 -0.2978023 -0.39758766 0.24817476
0.28099123 0.22483315 0.2484582 -0.15765786 0.09355836 0.8606254 0.07919139 -0.15175608
0.30184317 0.06316033 0.047595244 0.15027615 0.90517354 0.059138875 -0.02594464 0.4540654
0.48821986 -0.6917715 0.08250187 0.13674664 0.21031174 0.056256626 -0.17603187 -0.287823
-0.2205593 -0.24754645 0.049163863 0.28991222 0.064019956 -0.37440768 -0.18496516 0.15772687
0.53924304 0.00096594286 -0.15878925 0.24943571 -0.057616293 -0.7991716 0.004575578 0.26433426
0.020919183 -0.04299593 -0.25219536 0.052469816 0.092479184 0.30219892 -0.08497303 -0.5384868
-0.08027558 -0.71631294 -0.1694205 -0.05912833 0.22301021 -0.0388648 -0.14295407 0.1151342
-0.7179711 -0.027616581 -0.03442383 -0.35006878 -0.17571549 -0.300065 0.1020874 0.6402236
0.2878392 0.1680212 -0.3867479 -0.33713904 -0.16797495 -0.24511263 -0.20286888 -0.5024051
-0.068653904 -0.7161509 -0.059861194 0.40265498 0.19735889 0.3434388 -0.15512662 0.13653842
0.08994004 -0.06554895 -0.11617495 -0.19576181 0.27614212 -0.23563533 -0.10361754 0.07237741
-0.16271544 -0.3704147 -0.31396312 -0.27323562 0.29104865 -0.2112847 0.28897348 0.12679705
-0.41970557 -0.10053346 0.12278298 0.2917414 0.37268466 0.2848423 0.0890372 0.006146037
-0.5543842 -0.6347039 -0.4583523 0.45504093 -0.018427942 -0.2597958 0.03120685 0.06004628
-0.16168272 -0.29487196 -0.22833158 -0.09574783 0.44869676 -0.41022623 0.51690304 -0.4290991
0.0072177644 0.28335994 -0.0899149 -0.19136596 0.31255278 -0.38260576 0.24833709 -0.09840622
0.01948208 -0.6141487 -0.20237538 0.051576518 -0.21415763 0.27025783 -0.12201641 0.044571027
0.13177437 -0.038437955 0.40320966 0.10323753 0.020974034 -0.118355304 -0.020762738 0.120127715
-0.2287231 0.02809547 -0.2931991 0.41703913 -0.178989 0.5191519 0.28044644 0.19965973
0.38221288 -0.04481237 -0.1722992 -0.0106903715 0.4989989 -0.35715485 0.07240498 -0.03873286
-0.65667844 0.45893052 0.07154641 -0.087182045 0.21488659 0.11919857 0.07972251 0.20739213
0.0476993 0.4423101 -0.2416229 0.4776814 0.2635478 0.41143322 0.17564888 -0.16043809
0.07946236 0.48639116 0.109680146 0.0029983735 0.05348291 -0.023175154 0.0418014 0.07205287
0.2311291 -0.09952479 0.4400854 0.7225324 -0.13342862 -0.12016285 -0.4256621 0.42366716

lstm.weight_hh_l0 f4 [512, 128]
00000000: b125 593e 112e 9dbc 7bbf d73e 87a4 31bc
00000010: 9fb0 2e3e 63dc ddbc a956 98be fc63 c4bc
00000020: c87f 2d3e 56ab 9dbd 3b91 2a3d de91 30be
00000030: e0c8 3f3e 3d07 e1be 2862 b03c 6b70 29be
00000040: bb78 1cbd 0f28 c9bd df73 b63e d240 af3e
00000050: b2c2 1d3e ea7d b03e 2537 34be 06ed d03d
00000060: f170 b3be bffc 933d f48d 89bd 6e7e 37bd
00000070: 0956 8b3d 5168 10bf 9808 463e aa81 87be
00000080: 39ce 9a3d 70e8 c8bc 6847 51be fe06 c7be
00000090: 407e 593d 77eb bdbd 47c9 01be 3ca3 84be
000000a0: 286b d3bd 7be8 94be 38df 843e 2b68 02bf
000000b0: 2493 703e 4f85 773d 2c56 0a3e a079 8cbd
000000c0: cc55 efbe b602 e2bd 8a90 32bd 1dd6 eb3d
000000d0: 7888 443d 9951 0f3c b225 873d ad82 de3d
000000e0: 605a a7be 1d9a 1d3e 2af3 aebb 4fff d2bd
000000f0: 27f4 2e3e 92eb 9a3e b674 91b9 6c76 933e
00000100: 9d18 643d a610 323e 40a5 49be 1233 3b3e
00000110: 65d3 9ebe 44c9 883e c20a 423e 7086 8c3e
00000120: e3d0 853e 637e 853c 5bb7 9a3e b5d9 a33e
00000130: 3ea3 05be f082 073d d728 2ebe 12f2 ffbd
00000140: 3fc9 2b3e c04f 88be 0802 cabd 995b f0be
00000150: fe32 ac3e 6e1b 82be bc4d 3e3e c5f8 32be
00000160: 23c4 abbd f326 95bc c9c7 c43e 0b19 8a3e
00000170: aa2d 5f3d e10d c4bd 39cc 173d e418 01be
00000180: c7b5 00bd f3d1 f2bd 6aeb 5b3e 8f8a bd3e
00000190: d1ea f23d cb29 5c3e c02d 2b3c 09d3 0bbf
000001a0: 8a7d fdbe 1924 ddbd 3099 6abe f7c8 993c
000001b0: 95dc aabe 01bc 323e d6b2 09be 8046 09bf
000001c0: 756f cc3d 4f20 0c3e 54e2 f93d 8063 c4bd
000001d0: 5378 6bbe 60d2 753e cb9e a9bd 15b6 8abd
000001e0: b039 893e 6a29 babd 214a e6bd d0b2 ca3e
000001f0: 77ef 3dba f743 7b3d 1b93 fbbc 46e7 a8be
00000200: 2212 d3be 062a b23e 89aa 73be 6599 0bbe
00000210: 66cc c6be 400c d9be 1684 9abe 9980 193d
00000220: 42b5 03be daf9 493d f4a8 f5be 554f b0bd
00000230: a664 a43e 87ec 23be 0099 93be c7ad 05bd
00000240: 0e6b a5be a623 d2be 404a 00be a1fb 3abe
00000250: 0de7 f73d c21b 7e3e e6e3 3bbe 8b14 24bd
00000260: 8da4 ac3e dcf0 0b3f 7654 e1bc b00a 9d3e
00000270: 32ae 883d 9b8e 79be a65e a33c 85c3 353e
00000280: e6f9 22be 29f9 74be 7853 c73d 00dd 3bbd
00000290: f882 093e bdd8 893e e997 a83e 96f5 ddbe
000002a0: 95ae 45be a0cb 833e 55e0 203e 57eb 3dbe
000002b0: 5544 1b3e 5034 d8bd b9d7 50bd 3e2b 7bbe
000002c0: 2bd0 613d d32b 28be 340f d13e d118 213d
000002d0: aab5 cf3d 6f22 92bd 1d6b cdbd 12a4 0ebe
000002e0: 92b8 06be 270d 73be 8f1d bf3e 7549 ed3e
000002f0: c516 d33e 0d5d 7fbe 396c 943e 1646 553e
00000300: 08db 6ebe 455c a83d 905c d13e 2a22 fdbd
00000310: a407 b53e cefe c8bd 93b2 f3be 5dfc 1a3e
00000320: 3538 1fbf ca68 4cbe c465 613d 4993 45be
00000330: 9a30 24be cd8c efbd 571b 57be c9e5 5abd
00000340: c0ea 67bd c8de 783d d138 2f3e c851 763e
00000350: 6914 733e 6177 123b 6a36 013f 5b6f 22bd
00000360: b8f0 97be dac0 083f 3a6c 1f3d 8775 713e
00000370: 30cd 88be 229e 5dbd 0eaf 70bc d420 e2bd
00000380: 7e54 d3be 3b00 603e 4c1f 9c3e 103c 383e
00000390: 4da4 33bc bdc4 dbbe a06c 7e3c 18e0 88bd
000003a0: 81af eb3e 3104 0a3b 4ec4 96be 120c 1e3e
000003b0: f359 c23d 10fa 0dbd 6963 873e b20b b03d
000003c0: 440b 3c3c 502f 22be 7d29 893e 0649 7d3d
000003d0: 0bb0 343f 402f 663d 5cba d3bb 16d5 303f
000003e0: 2a5b cc3e 5879 7d3d 64e0 c73d b28d 35be
000003f0: 096b a9be 8904 52be 6902 453e 51a0 59be
0.21205784 -0.019187005 0.42138276 -0.010842449 0.17059563 -0.027082628 -0.29753616 -0.023973458
0.16943276 -0.07698695 0.04164241 -0.17243144 0.18728971 -0.43950835 0.02153118 -0.1654679
-0.038201075 -0.09822094 0.35635278 0.3422914 0.15406302 0.34471065 -0.17599161 0.10201459
-0.35047105 0.07225942 -0.067165285 -0.044798307 0.06803519 -0.56409174 0.19339216 -0.26466113
0.07558865 -0.024524897 -0.20437396 -0.38872522 0.053098917 -0.09273427 -0.12674437 -0.25905788
-0.10323173 -0.2908362 0.25951552 -0.509402 0.2349363 0.060429867 0.13509434 -0.06859136
-0.46745145 -0.11035673 -0.043594874 0.11515448 0.04798171 0.008747482 0.06598987 0.10864768
-0.32686138 0.15390821 -0.005339046 -0.103026025 0.17085324 0.3025785 -0.00027743512 0.28801286
0.055687536 0.17389163 -0.19691944 0.182812 -0.31020656 0.26716053 0.18949416 0.27446318
0.2613593 0.016295617 0.30218014 0.32002035 -0.13050553 0.033083856 -0.17007767 -0.12497343
0.16775988 -0.26623344 -0.09863669 -0.46944883 0.33632654 -0.25411552 0.18584341 -0.1747771
-0.083870195 -0.018207049 0.38433674 0.2697223 0.054486908 -0.0957296 0.037059996 -0.12607151
-0.031423356 -0.11856451 0.21476522 0.37019774 0.11861194 0.21500318 0.010447919 -0.5461889
-0.4950984 -0.10797901 -0.22909999 0.018772585 -0.33371416 0.1745453 -0.13447127 -0.536232
0.09982196 0.136842 0.12201372 -0.095892906 -0.22995119 0.24006033 -0.082822405 -0.06773011
0.26801825 -0.0908993 -0.11244608 0.39589548 -0.0007245461 0.061344113 -0.030709794 -0.32988948
-0.41224772 0.34797686 -0.23795523 -0.13632734 -0.3882782 -0.42392159 -0.301789 0.037476156
-0.12862113 0.049310543 -0.47980464 -0.086088814 0.3210804 -0.16008197 -0.28827667 -0.03263643
-0.3230824 -0.41042823 -0.12528324 -0.18260051 0.12104616 0.24815276 -0.18348655 -0.040058654
0.33719292 0.546644 -0.027506094 0.30672216 0.0667385 -0.24370806 0.019942593 0.17750366
-0.15915641 -0.23923172 0.09732717 -0.04586506 0.13428867 0.2692317 0.32928398 -0.4335143
-0.19304879 0.2574129 0.15710576 -0.18546806 0.15162785 -0.10556853 -0.05098698 -0.24528214
0.055130165 -0.16422968 0.40831912 0.039330307 0.101420715 -0.07135474 -0.10030196 -0.13929775
-0.13156345 -0.23735486 0.3732724 0.46345106 0.4122831 -0.2493784 0.28988817 0.20827517
-0.23325741 0.08220724 0.40890932 -0.12360032 0.35357392 -0.09814225 -0.4759718 0.15135331
-0.6219514 -0.19961849 0.055028692 -0.19294466 -0.16034165 -0.116967775 -0.21006523 -0.053441796
-0.05662036 0.060759336 0.17111517 0.24054635 0.23738255 0.0022348987 0.50473654 -0.039656978
-0.2967584 0.5341927 0.038921572 0.2357999 -0.26719046 -0.054105885 -0.014690174 -0.11041418
-0.412754 0.21875088 0.30492628 0.17991662 -0.010964465 -0.42923537 0.015528828 -0.066833675
0.46032336 0.0021059627 -0.29446644 0.15434292 0.09489813 -0.034662306 0.2644303 0.08595981
0.011477295 -0.15838361 0.26789466 0.06183722 0.7058112 0.056197405 -0.0064614248 0.69075143
0.39913303 0.0618833 0.09759596 -0.17729834 -0.33089474 -0.20509543 0.192392 -0.21252562

lstm.bias_ih_l0 f4 [512]
00000000: c70c 8e3e 9867 9a3e 2849 683d 7f56 8a3c
00000010: c81f 363e 9e53 1a3f 2372 de3e 411d 213e
00000020: 2d25 6fbd cd52 3f3e 9826 043d c154 343e
00000030: 1c79 703d 5253 1e3f d384 0b3e ff77 b93d
00000040: 592a e83e 8db5 733e 4f2c 1a3e 62a4 863e
00000050: 93ec d33e 1023 273f 39f7 2c3e 06fd 3b3e
00000060: ff2b c23c a22c da3e b0ec f73d fca9 013f
00000070: ad6f 2a3c b6d4 5b3e 5e25 643e 41e5 843e
00000080: f4ae ad3e 649b b93e cdf2 da3e 361e 5e3e
00000090: db51 c33e 866a 6c3e 0f97 c73e b3ef 5b3e
000000a0: 555c 4d3d faff 573d e772 cdbc 964e 403e
000000b0: 48bd 863e a240 2f3e 5963 1b3e 283e 943e
000000c0: 87a3 203f c3d3 553f 7ea5 8f3d bd97 083e
000000d0: c31a 373d 3e9b 7a3d 694c 703d 83a5 b43d
000000e0: 8257 1a3f 216b 9abc fe94 8b3d 11da 873e
000000f0: 2b4d 013e baf8 243d be96 8c3e d175 5c3e
00000100: bf92 4c3e 370c 163f 08ee 163e 942f 133c
00000110: cb5a 673e e775 d13e e3ac df3d 0b24 b83e
00000120: c792 203e 2997 133f dbb1 8b3e c3b4 143f
00000130: 42cd e43e 33f2 7c3e 604d 003e de1b e43d
00000140: ae08 1d3e 02b8 053f 00b9 c83e 7028 003f
00000150: 1b16 393f 3a30 293f a0b8 c63d 1e8b 683e
00000160: 453d 333f 11d0 573f 0de5 323f 1e2b 333f
00000170: ae64 333b ac36 623e 32b5 3c3e 4445 843e
00000180: 7256 9c3e 4bcd d7bd dc59 f9bd e707 4dbe
00000190: cc56 2a3e 1e38 833e a52d 473e 61ca e7bd
000001a0: 2a0a 263d 8b88 f43c e10a 303e e973 4a3f
000001b0: 9b3b 2e3e 17a8 e63e b830 7a3d 7ff4 1d3f
000001c0: 416a 013f b40f 763e 36bc a73e d7d7 133e
000001d0: d61c de3d 3eb6 9d3d 927c c73e fed0 c7bd
000001e0: ea61 893e f50d c33e c647 8d3e 74ac af3e
000001f0: 1ca7 b43e 4357 aa3c 9e08 8c3e 3a9d 9a3e
00000200: 7515 10bd afb5 c93d 1933 b13d 31f8 13be
00000210: c740 f1bd d8e6 3d3e e771 72be b9c5 f0be
00000220: c810 343d 5cbd 82be e979 27be 4c25 3abe
00000230: 52cc 043b 2a3f 3f3e 807a a0be b324 c3be
00000240: 9294 4dbe c8c1 9cbc 315c 2fbe 1e6d 0cbe
00000250: 8f32 1b3e f264 103e d991 91be 6d50 9dbe
00000260: 2cfe 1fbe c188 8cbe e526 97be d9c5 d0be
00000270: 8147 20be b5d5 97be cdd8 90bd 7705 51be
00000280: 6175 24be bd10 a1be d691 b53d 6824 ea3d
00000290: 7187 4dbe b6f0 41be 7978 9bbe 0966 39be
000002a0: 9217 71be bfd9 6cbe c6dd 5bbe c9be 5ebd
000002b0: fd46 6dbe 914c 48be 476e 63be d054 0cbe
000002c0: c903 6c3e ae02 473e 06e7 7cbe 0c65 99be
000002d0: 691f 94be 3598 663c 2351 74bd 100a 4c3e
000002e0: 6a1e ed3e 43ff 2cbe d950 2b3e 41d7 f1be
000002f0: 4cbf a7bd e5d9 b8be b791 aebe 18cf acbb
00000300: 4a44 bfbd 5490 59bd 48b9 06be 2611 1ebe
00000310: b263 bb3d 9ad3 f6bc c33e 7fbe 5016 813d
00000320: 3d8f 08be eea8 75be badc dabc 024f 363e
00000330: 4ed8 cabe 0be0 eabe ec58 a9bc 32d0 b3be
00000340: bff1 023d 5cfc febe b17f 943e b696 c8bd
00000350: 49e4 ae3e a4fa b9be b685 81be cb83 87be
00000360: 760e b63d 6f7a 99be 4742 d23e 1c9d 033e
00000370: 9d55 c3be 27ca 22bf 94e1 36be 34b3 b7be
00000380: 7616 0fbe 2fef 9bbd 3fdc 89be 4486 10be
00000390: f51e 81be c79d 44be b643 5dbd 8321 3abd
000003a0: d542 04be 3584 80bd 5377 bc3d 8227 afbe
000003b0: d1f4 d6bc 9013 c33d e235 60be a356 bc3e
000003c0: 55b8 4b3e d355 81be 77dc 95be 7153 23be
000003d0: a080 74be 4c27 81bd d8ec a5be 1285 d53c
000003e0: f749 68be 0b79 0dbf 442a dd3b 02a8 2dbe
000003f0: 08cd 11be 13fe 32be 6193 89bd 59ad 6d3c
0.27744123 0.3015716 0.056710392 0.016886948 0.17785561 0.6028384 0.43446454 0.15733816
-0.058385063 0.1868393 0.03226337 0.17610456 0.05870925 0.61845887 0.13624887 0.090560906
0.4534481 0.23799725 0.15055965 0.2629729 0.4139143 0.65287876 0.16891183 0.1835824
0.02370262 0.42612177 0.121056914 0.5065 0.010402602 0.21467862 0.2227988 0.25956157
0.3392254 0.36251366 0.42763367 0.21691212 0.38148388 0.2308751 0.38982436 0.21478157
0.050136883 0.052734353 -0.025079204 0.18779978 0.26316285 0.17114499 0.15174617 0.2895367
0.6274952 0.8352625 0.07013987 0.13339134 0.044703256 0.061183207 0.05866662 0.08820631
0.60289776 -0.018849911 0.068155274 0.2653356 0.12627093 0.040276267 0.27458757 0.21529318
0.19977854 0.5861239 0.14739239 0.0089835115 0.22593229 0.40910265 0.109216474 0.35965
0.15680991 0.5765253 0.2728413 0.5808832 0.4468785 0.24701767 0.12529516 0.11138128
0.15335342 0.522339 0.39203644 0.500617 0.72299355 0.6608921 0.09703183 0.22709319
0.70015365 0.8430186 0.69880754 0.69987667 0.0027373242 0.22091168 0.18428496 0.25834095
0.30534703 -0.105372034 -0.121753424 -0.20022546 0.16634673 0.25628752 0.19451006 -0.113178976
0.040537037 0.029850265 0.1719165 0.79083115 0.17014925 0.45050117 0.061081618 0.61701196
0.50552756 0.24029428 0.3276078 0.14437805 0.10845344 0.077007756 0.38962227 -0.09756659
0.26832515 0.38096586 0.2759382 0.3431126 0.35283744 0.020793563 0.27350324 0.3019808
-0.035176713 0.098491065 0.08652324 -0.14450146 -0.117799334 0.18545091 -0.23676263 -0.4702585
0.043961316 -0.25535095 -0.16355099 -0.1817829 0.0020263386 0.18676439 -0.3134346 -0.38113937
-0.20076206 -0.01913537 -0.17125012 -0.137135 0.15156005 0.14101008 -0.28431585 -0.30725423
-0.15624303 -0.27448085 -0.29521862 -0.40775946 -0.15652277 -0.29655233 -0.070726015 -0.20412241
-0.16060401 -0.31458083 0.088657066 0.11432725 -0.20071198 -0.1893948 -0.3036535 -0.1810533
-0.23544148 -0.23129939 -0.21471319 -0.054381166 -0.23171611 -0.19560458 -0.22210036 -0.13704228
0.23048319 0.19434616 -0.24697503 -0.29959905 -0.28930214 0.014074375 -0.05964769 0.19925714
0.46312267 -0.1689425 0.1673006 -0.47234538 -0.08190784 -0.3610374 -0.34095547 -0.005273711
-0.09339197 -0.053116158 -0.13156617 -0.15436229 0.09149875 -0.030130196 -0.24926285 0.06303084
-0.13335891 -0.23990223 -0.026716579 0.17803577 -0.39618152 -0.45874056 -0.020672284 -0.35119778
0.03196883 -0.4980191 0.2900367 -0.09794371 0.34158543 -0.36324036 -0.25297326 -0.26467738
0.08889477 -0.29976222 0.4106619 0.12852901 -0.38151255 -0.6358971 -0.17859489 -0.3587891
-0.13973412 -0.0761398 -0.26925847 -0.14113718 -0.2521893 -0.19200812 -0.054019652 -0.045442116
-0.1291612 -0.062752165 0.09202447 -0.3420983 -0.026239784 0.095252156 -0.21895555 0.3678485
0.19894536 -0.2526079 -0.29269764 -0.15949799 -0.23877192 -0.063063234 -0.3240726 0.02606443
-0.22684465 -0.5526282 0.006749423 -0.16958621 -0.1423837 -0.17479734 -0.067175634 0.014506661

lstm.bias_hh_l0 f4 [512]
00000000: 4f5d 763e d200 8a3e cad9 193e 2db0 e3bd
00000010: b2a3 833d c4df 3e3f 14ca 113f 1ba4 833d
00000020: 3278 51bd d230 d53d 4f4a ac3d 5e2a e93d
00000030: adab c73c 18e7 293f 034a ab3d 317b 2a3e
00000040: fe78 083f f73e 643e b8ae 033e 3bf1 273e
00000050: f99d f53e f5e0 123f d12d 533e 1138 8c3e
00000060: 03db 1abd 4d86 c13e 0221 713d 1cd1 0d3f
00000070: 5bc2 8cbd 9b69 4d3e 94e9 363e f525 733e
00000080: 4188 833e 1d1c b23e 0805 e93e 5ef7 b63e
00000090: bfb0 c93e 96a4 8c3e 57c7 e73e 221e 853e
000000a0: f3fc 4c3d 0b57 e93c a5e3 80bd 992c 8e3e
000000b0: 2f02 833e 8cb9 913e 8e7c 603e c2d0 823e
000000c0: e13f 023f 6f63 6c3f 61c8 913c f707 7b3e
000000d0: 879c c33d 400c d43c 4bc6 e03d 8d54 273e
000000e0: fa32 033f 9051 20bd ef35 2a3e fe13 c23e
000000f0: 55e7 993c 2c08 a13d 7b11 683e 223c 333e
00000100: 95ca 893e ef7d d73e f5e4 ca3d 755c 843d
00000110: 835d 643e be5c e23e 05be 753d 49ac 833e
00000120: 8a76 103e 8392 fd3e d148 3b3e cf09 043f
00000130: a27c f13e e883 bf3e 5dcc 133e cc3e 843e
00000140: 1983 2e3e 358c 103f 43b8 9a3e 749f eb3e
00000150: e6cc 413f 56fa 393f ecb4 3d3e 7e8b 623e
00000160: 9573 2a3f ab23 2d3f 524e 1e3f 4192 333f
00000170: e605 a1bd 74ad 413e 1b20 3b3e ecd2 363e
00000180: 6cff 493e 742c 80be 0a59 eabc 59d0 8ebe
00000190: 896e 4f3e 8341 aa3e 13f1 af3e 14d4 453d
000001a0: 580b fb3d 37dd e33d 46d9 4b3e 5b9b 513f
000001b0: 6ac0 443e 3de6 c13e f245 7abd 2cad 003f
000001c0: 02d1 023f c18b 693e db9c b13e 7231 21bb
000001d0: 2790 f03d 7414 713b 068c d33e 8166 a13b
000001e0: ebf6 a93e 0479 b73e 4438 823e 997e a03e
000001f0: 062b d43e 18b5 233e 7c7a 143e e2b8 8a3e
00000200: 85bc 8f3c 7e93 013e 7075 193e 1a02 f4bd
00000210: cab2 8ebd 5ffe 063e c24c 85be 89e4 c6be
00000220: 2a52 77ba 355a 15be b42c 78be 7425 7dbe
00000230: 17ee 963d a0bc 253e 6690 a5be 1e65 b9be
00000240: 0151 88be ee66 acbc af5a 04be c318 70be
00000250: ef9c b93d 687d 963e 2698 83be b81b 9ebe
00000260: fd7d 73bd 91d7 b8be f695 9ebe 796b 0cbf
00000270: 8030 56be 3f0b e1be b2c0 04be 69bb 1cbe
00000280: acaf 25be 1099 76be 437d 4c3d 37cd 243e
00000290: a8c2 aabd 4ebe 8ebe 8db0 85be 4017 68be
000002a0: a423 a1be 9460 5abe 555c 86be 2e23 53bd
000002b0: 8333 87be c3a9 86be 3a4e 19be 3a77 aabd
000002c0: d67d 663e 3a56 0b3e 4998 1dbe 0175 66be
000002d0: 8a65 29be b2b6 4e3d 215d bdbd 0801 323e
000002e0: bd12 f23e 229e 4fbe 16d6 063e 6b5c e9be
000002f0: 61c3 66bd 2129 adbe 1438 b6be bdd2 5bb9
00000300: ca9f 7ebd e149 0bbe 4bd6 febd d376 9cbe
00000310: ad5f 2ebd 15ec b2bd 8ae6 8abe e503 df3d
00000320: 04c8 7dbe f6c2 85be 9193 5fbd 58cd 283e
00000330: ef35 95be 109a ecbe c261 06bd a36f 83be
00000340: 6e43 c0ba 8ad8 02bf 8c25 353e d150 adbd
00000350: 7c06 d73e 640c 9ebe c340 2ebe c850 a3be
00000360: 7f39 4b3e 4ab7 75be 0485 9a3e 8ae4 213e
00000370: a731 93be f1e4 2cbf 2e5a a6bd ca5a a5be
00000380: 26a5 92bd 077d 3dbd c993 81be d356 3abe
00000390: 674e 7cbe 4149 63be 6f50 08be c163 0bbe
000003a0: e67a 0cbe 25af 613c 9434 9fb9 f467 d7be
000003b0: caba 10be 7e10 143e 8a07 8ebe b3cb ca3e
000003c0: 227c 063e c6a2 21be a048 a6be 927d 44be
000003d0: 972d 83be b29c f13a 693b 35be 99dd 05be
000003e0: c866 f5bd d8f1 09bf 46aa 483b 7029 02be
000003f0: 8f98 7ebe 0e67 4ebd 25fc 24be d5d3 9fbc
0.24059032 0.2695375 0.15024486 -0.11117587 0.06427707 0.7456019 0.5694897 0.06427785
-0.051140018 0.10409702 0.08412611 0.11385034 0.024373854 0.66368246 0.08363726 0.16648556
0.5330962 0.22289644 0.12859619 0.16400616 0.47972086 0.5737451 0.20622946 0.27386525
-0.037806522 0.37797776 0.05886937 0.553972 -0.06873008 0.20059817 0.1786254 0.23744948
0.2568989 0.34787074 0.4551165 0.357356 0.3939266 0.2746932 0.45269272 0.25999552
0.05004592 0.028483888 -0.0629342 0.277684 0.25587603 0.28461874 0.21922514 0.25549895
0.5087872 0.92339224 0.017795743 0.24514757 0.095513396 0.025884748 0.109753214 0.16340847
0.5124966 -0.039140284 0.16622137 0.37905878 0.018787066 0.07862887 0.22662918 0.17503408
0.2691237 0.42088267 0.09906951 0.06462947 0.22301297 0.44211382 0.05999567 0.2571738
0.14107719 0.49525842 0.18289496 0.51577467 0.471654 0.37405324 0.14433427 0.2582916
0.17042197 0.5646394 0.30218706 0.4602009 0.75703275 0.7264761 0.18526047 0.22123525
0.66582614 0.6763255 0.6183826 0.7014504 -0.07862453 0.18913823 0.18273966 0.17853898
0.19726342 -0.25033915 -0.02860691 -0.27893332 0.2025701 0.33253106 0.34363613 0.048297957
0.12258023 0.11126178 0.19907102 0.8187768 0.19214025 0.3787097 -0.06110186 0.5026424
0.5110017 0.22807218 0.34689984 -0.0024596122 0.11746245 0.0036785873 0.41317767 0.0049255495
0.33196196 0.35834515 0.25433552 0.31346586 0.41439074 0.1598705 0.14499849 0.2709418
0.017545948 0.1265392 0.14986205 -0.11914463 -0.06967695 0.13182972 -0.26035124 -0.38846233
-0.00094345456 -0.14585193 -0.24235803 -0.24721318 0.07369631 0.16185236 -0.3233673 -0.3620996
-0.266243 -0.021045174 -0.12925218 -0.23446946 0.09063136 0.29392552 -0.25702018 -0.30880523
-0.059446324 -0.36101964 -0.30973786 -0.5485149 -0.20916939 -0.43953893 -0.12964132 -0.15305866
-0.16180295 -0.24081826 0.049924146 0.16093908 -0.08337909 -0.27879566 -0.2611126 -0.22665119
-0.31472504 -0.21325904 -0.2624232 -0.05154722 -0.26406488 -0.26301393 -0.14971247 -0.08323522
0.2250894 0.13607112 -0.15390123 -0.22505571 -0.1654264 0.0504672 -0.092462786 0.17383206
0.4727992 -0.20275167 0.13167605 -0.45578322 -0.05633867 -0.3382044 -0.3558966 -0.00020963974
-0.062164105 -0.13602401 -0.12443217 -0.30559406 -0.042571712 -0.08736435 -0.27129012 0.10889415
-0.24783331 -0.26125306 -0.05458409 0.16484582 -0.2914271 -0.4621129 -0.032808073 -0.2567111
-0.0014668533 -0.5111166 0.17690104 -0.0846268 0.41997135 -0.30868828 -0.17016892 -0.3189757
0.19846152 -0.239957 0.30179608 0.15809837 -0.2874882 -0.67536837 -0.08122669 -0.3229583
-0.07160406 -0.046261813 -0.25308064 -0.18197183 -0.24639283 -0.22195913 -0.13311933 -0.13612272
-0.13718757 0.013774668 -0.00030366017 -0.42071497 -0.14133754 0.14459416 -0.27740127 0.39608535
0.1313329 -0.1578475 -0.32477283 -0.19188526 -0.2562072 0.001843354 -0.17698444 -0.13072814
-0.119824946 -0.5388465 0.003061907 -0.1271112 -0.24862884 -0.05039125 -0.1611181 -0.01951019

linear.weight f4 [12, 128]
00000000: 46d2 cf3e b954 843c 0898 94be a567 27bf
00000010: 8ad7 0dbf 3f1d 98bf 616a 86bf 41d4 433f
00000020: 65c7 1cbf 9b1f 9cbe ddf3 66bf e376 68be
00000030: d5ea 26c0 a73c cb3d 8f57 acbf df78 d9bd
00000040: d252 a53e cc66 96bf 8bf3 ae3e dad3 003e
00000050: 25bf a33e 8445 c73e 4afe 1abf 9a8b e6be
00000060: 9eda 86be b566 fc3d 25bc 4c40 c91b cbbe
00000070: 52a6 8bbf 66ef 0d3f 1363 2cbe dcc1 cb3e
00000080: f984 613f 1472 9fbe 1199 9d3f bc4d 823f
00000090: 811a a43e 7474 9b3f 5080 933f 99d2 84bf
000000a0: afc7 9d3f 6174 a2bf c2b0 73bf 040d cc3f
000000b0: 6194 c93e da01 2cbf ed23 193f ba62 0c3f
000000c0: fd59 b53f bc25 4bbe 570b 083f 2b7e 7b3f
000000d0: efae b63f 3caf 0fbf e618 f53e 4e9a 60bf
000000e0: 2369 dd3f 557d bdbe 4121 ccbf 929d 77bf
000000f0: 9f18 1ebf a470 f23e bf34 d5be b87e f7bd
00000100: 654a 98bf 9758 a1be 71ac a9bf aace 863e
00000110: 1b89 0bc0 afbf da3e dbb6 b9be b8f8 71bf
00000120: d376 21bf ecb0 59bf 238b 863f 589e cfbf
00000130: 76f0 62bf dfc8 593f 76b0 193f 2164 9dbf
00000140: d28d 943e 3fb3 32bf 6024 843f 08a4 25bf
00000150: dd16 05bf c20c 85bf 80b8 0e3f dbbe 1ebf
00000160: a26d 203f c015 3a3f c1b4 913e 8438 463f
00000170: 0fe3 cb3f 38fa 46bf 3c1b b0be 8fbf c1be
00000180: 26b0 50bf 384e e33e 1c0a 43bf 888d 503f
00000190: 7521 743f 741c c1be 848b de3e c3b4 1ebf
000001a0: 944c 2ebf 9570 f13e 1e1d ae3f 6a5e 8d3e
000001b0: 836a 4bbf e246 b23d 5a31 8f3f 0760 e13f
000001c0: 5f31 41bf 7744 413f 1ef0 2d3f fb6f 9dbe
000001d0: 7838 28bf e5da c2bf 29b1 2cbf 343b 10bf
000001e0: d51e eabd 9196 77bf e996 7abe 8eed 223f
000001f0: 1ccc 80bc 65ce 4cbf 0fe8 153f 13d1 94bf
00000200: 4bd1 153f db28 94bd 7d19 0cbd 39ed 28bf
00000210: e1f0 41bf 287d e7be 779e 0c3f e2d9 1ebf
00000220: 5af8 9d3e a3fd ab3f 32a1 233e 39e6 773f
00000230: 5188 2b3e 06b1 6cbf 08e2 483e 35cd 22bf
00000240: 6529 2abf 31c5 983d 7495 01be 8a67 7b3f
00000250: eb16 cb3e 43df c13e 2432 2b3f f593 d5be
00000260: b542 173e 8184 3cbf e47d 6d3e f7af 15bf
00000270: 7adc 95be c1e3 61be 4ebf 2b3f e761 053e
00000280: 6808 093e e8fd 7bbf 8452 cdbe a1da b4bd
00000290: 241b 8dbc 769e f3be a44a 203f ac58 1f3f
000002a0: 52e8 c7be 678b 33bf b392 afbe 6101 06be
000002b0: caff 4f3e c047 01bd 6e7f 863f 732b 82bf
000002c0: a4d5 453e 3e74 4cbf 2a63 0ebf 9fb3 fd3e
000002d0: 2b67 043f b924 bf3e ac2e c8be 0ac7 b43e
000002e0: 4d3c 84be 8702 113f 471e f23e 3eff 763f
000002f0: 9e50 babe 0d5f 74bf e8ec 72bf c54b 283f
00000300: a821 8e3f 0684 4cbe a04f 64bd 0a89 c4be
00000310: 0f38 813f baac 3c3f 887f 683f 154a 543e
00000320: 0da7 eebe aa35 043f f46c 3bbe 715a 963e
00000330: 6f53 0c3f 9c55 0d3f d951 433f 9768 8abf
00000340: 7ef7 2bbf f5fc 43bf a3af 18bf 93f5 20bf
00000350: 3cf8 213e acea 353f 2e15 7b3f f7c0 d03e
00000360: 9b41 70be 5558 823d aa83 053f d047 383e
00000370: c747 05bf 832d 263f 216e 223e 4f9b b23f
00000380: 6d6a 32bf 3064 bbbe 6102 03bf a216 143f
00000390: b59f 08bf 2dad 733f 1a1c 09bf 6dec 3f3f
000003a0: 847e 403f 4b30 47bf f683 013f 7b91 303f
000003b0: b82f b9be fa59 933f b7cf 173f a5ea 14bf
000003c0: 65a2 af3e dd65 7cbe e7cc 0cbf 75bc e93e
000003d0: 9604 1e3e 24be d83c b92a 263d be4b 9abe
000003e0: 0483 d93e 944d 803e 792b 62be cfa7 6dbf
000003f0: 1121 d1bd d7c6 a23e a388 cb3d c96a cabe
0.40590113 0.01615368 -0.2902224 -0.65392524 -0.5540701 -1.1883925 -1.0501214 0.7649575
-0.6124175 -0.30492863 -0.90215856 -0.22701602 -2.608083 0.09923678 -1.3464221 -0.106187575
0.3228975 -1.1750121 0.34170184 0.12580815 0.3198177 0.38920224 -0.60544264 -0.45028383
-0.26338667 0.12324277 3.1989834 -0.39669636 -1.0910132 0.5544342 -0.16834669 0.3979634
0.88093525 -0.31141722 1.2312337 1.0179973 0.3205147 1.2144914 1.1523533 -1.0376769
1.2326564 -1.2691766 -0.95191586 1.5941472 0.39371017 -0.67190325 0.59820443 0.54838145
1.4168087 -0.19838613 0.53142303 0.9823939 1.4272135 -0.5612676 0.47870559 -0.8773545
1.729771 -0.37009683 -1.5947648 -0.9672481 -0.6175632 0.47351563 -0.41641805 -0.120847166
-1.1897703 -0.315129 -1.325575 0.26329547 -2.1802433 0.42724368 -0.3627232 -0.9452014
-0.63071936 -0.85035586 1.0511211 -1.6220198 -0.88648164 0.8507213 0.60034883 -1.2296182
0.2901445 -0.6980476 1.0323601 -0.64703417 -0.5198801 -1.0394518 0.55750275 -0.6200997
0.62667286 0.7268944 0.28458217 0.77429986 1.5928668 -0.77725554 -0.34395778 -0.3784146
-0.8151878 0.44395614 -0.761873 0.8146596 0.9536355 -0.3771702 0.43465817 -0.6199457
-0.680856 0.47156206 1.3602636 0.27611095 -0.794594 0.08704926 1.1186936 1.760743
-0.7546596 0.75495094 0.67944515 -0.30749497 -0.65711164 -1.5223051 -0.67457825 -0.56340337
-0.11431662 -0.9671412 -0.2447163 0.6364373 -0.015722327 -0.80002433 0.5855722 -1.1626304
0.5852248 -0.07234355 -0.034203995 -0.65986973 -0.7575818 -0.45212674 0.549293 -0.6205121
0.3085354 1.3436779 0.1597946 0.96835667 0.1675122 -0.92457616 0.19617474 -0.6359437
-0.66469413 0.07459486 -0.12654668 0.98204863 0.39665923 0.37865648 0.66873384 -0.41714445
0.1477154 -0.73639685 0.23192555 -0.58471626 -0.29269773 -0.22059537 0.6708878 0.13025628
0.13382113 -0.98434305 -0.40102017 -0.08830763 -0.017224856 -0.47581834 0.6261389 0.6224468
-0.39044434 -0.70134586 -0.3429161 -0.13086464 0.2031242 -0.031562567 1.0507638 -1.016951
0.19319779 -0.7986487 -0.5562006 0.49551103 0.5171992 0.37332705 -0.39098108 0.35308105
-0.25827256 0.5664448 0.47288725 0.9648322 -0.3638963 -0.95457536 -0.9489274 0.65740615
1.1104021 -0.19972238 -0.05574 -0.38385803 1.0095233 0.7370106 0.908196 0.20731385
-0.46611825 0.51644385 -0.18303281 0.29365876 0.5481481 0.55208755 0.76296765 -1.0813168
-0.6717452 -0.76557857 -0.59643 -0.62874717 0.1581735 0.71061206 0.9807919 0.4077222
-0.23462527 0.06364504 0.5215403 0.17996144 -0.5206265 0.64913195 0.15862323 1.3953646
-0.6969364 -0.36599874 -0.51175505 0.57847035 -0.53368694 0.9518612 -0.53558505 0.7497013
0.7519305 -0.77808064 0.5059198 0.68971986 -0.3616922 1.1511834 0.5930132 -0.5817054
0.34303585 -0.24648233 -0.55000156 0.45651594 0.15431437 0.026457854 0.040568087 -0.30135912
0.4248277 0.25059187 -0.22086896 -0.9283418 -0.10211385 0.31792328 0.09938171 -0.39534596

linear.bias f4 [12]
00000000: 5539 a6bf d75f 693e 68d9 0fbe 1288 dc3b
00000010: cd4f 7cbf a62b f2be 6c0f a33e 4c95 a1be
00000020: ebf5 debe e5a1 e13c ee97 553e a49c c23d
-1.2986246 0.22790466 -0.14047778 0.006730088 -0.98559266 -0.47298926 0.31847703 -0.31559217
-0.43546996 0.027543018 0.20858738 0.09502533
