part2/runs/enc_only,epochs=5,batch_size=128,hidden_dim=128,timestamp=2023-03-10_01-27-26/folds_model/model_0.pt (torch, 888355 bytes, 6 tensors)

lstm.weight_ih_l0 f4 [512, 300]
00000000: 6385 5d3e e337 0e3e 1609 a33e 8bb7 3cbe
00000010: 2806 0bbe 24e2 28bd d2cd 983e 449f a13d
00000020: 2fec f03d 6ad6 37bd 38fc 023e 93a5 a23e
00000030: 8600 523d a640 2e3e 7d89 b5be 6aa2 c1be
00000040: 890a 9a3e a097 dd3d f087 593e d993 5f3f
00000050: 0782 b4be a6ba 203d a380 c9be b8ca 9ebe
00000060: 7007 9abe 5d25 e33d af1b 453e 0068 603e
00000070: 4875 8c3e 01ec 883d 8a35 753e f236 8cbe
00000080: 360e 5e3e 599e e53e 160c b3be a32f 1c3c
00000090: c764 b9be 5133 103f e0bc b03d 08c4 82be
000000a0: 595d a93e c98d 24bd 2dc3 cf3e 6c6c f23e
000000b0: 39e5 97be abd3 e9bc 3024 70be 3f75 a6bc
000000c0: 57db c13e 0287 213e 7d53 af3d ddb7 abbd
000000d0: d533 9f3e 4590 023f 4655 c0be ad80 ab3e
000000e0: 02cf 223c 33f0 413c 3a86 613e 801c 07bf
000000f0: cc97 44bf 21c9 93be 480f 3a3e 015d 613e
00000100: e951 fc3e 607e 6bbc c3ff 0d3e dc69 ee3d
00000110: c932 193c a098 8b3d f87b 28be 9832 c73e
00000120: cb8e 3c3e 4d05 d73d 240a 9ebe 85ce 213e
00000130: e5db 3e3f 68f3 4a3e 91c1 89be 0045 cf3d
00000140: eb5f d0be 0235 94bd 6cae bb3e 3a83 1b3f
00000150: f016 cc3d 336b 4bbf 557e 66be 89b9 a4bd
00000160: f5d7 28be 3d87 a83e df58 063f 68d4 a63e
00000170: a980 c7bc bb8d 4fbf 31b0 453e e045 4abe
00000180: 63fb e83e b191 a73c adff 433e b2c8 6a3e
00000190: b3e2 ac3e b9b7 6cbd f7d5 d7be 3e66 8abf
000001a0: bd08 c6be 0c29 67be 2e00 b4bd 63c4 7c3d
000001b0: 3af4 23bf 670e 8fbe 656d e13d 5263 f2bb
000001c0: 6353 303e 7d25 38be 0935 193f 8b83 afbe
000001d0: d2af ee3d e215 5abd 21fc a63e 970a e2bc
000001e0: 36c1 a2bd 7a3c 8bbc b324 953e 53c8 8dbe
000001f0: b0bd 6cbe 7756 6b3e 4fc2 393d 2135 483d
00000200: 17e1 9a3e 4e2e fc3e b5d8 163f b847 86be
00000210: 831a 21bf 7c9a 5ebe 4d03 bebd bc87 2dbf
00000220: b328 433e 479d 9fbe 43f9 833e d8d1 dabe
00000230: 2229 bf3c 0c7f 4b3e ed89 ce3e ff34 e73d
00000240: 50fc eabe cf72 85be 13ae 0ebe 6d14 3f3f
00000250: aaa8 a23e 1553 2c3e baa1 f93e ea4b f33c
00000260: bcbf 04be aa76 eabe 5f1f bfbd 0cac 21bf
00000270: 27be f6bd 7c95 6bbd 97ae 573e 76ba d2be
00000280: b500 4cbe b8f4 dcbe 0f5d d23c 94c3 3a3e
00000290: 51e3 cb3d 776f bbbc 55f6 173f 350b 073f
000002a0: 330d d63d 03d5 cdbe 89aa 273d 914e 3d3d
000002b0: 9eff 76be d6f6 a6be 4a81 34bd 72f0 06bf
000002c0: fe15 d8be e64c 563d 74e2 f33c 4ffb 74bc
000002d0: 4bfd 8d3e 1b2c 50bc cad7 093d 581a 5b3e
000002e0: d0b9 b9bd 3337 ce3e d2e0 acbe ef1a c6be
000002f0: 828d c03e 9566 9cbe c53c 14be 2628 973e
00000300: 289a 13be 641b 2a3e c867 9b3c 1c3a 2cbf
00000310: a9d5 84bb 4fa6 883c 7299 ebbe 5e59 89be
00000320: 1f88 88be 93ff 113f 868a ba3e 8a5b ca3c
00000330: a88f e0bd cc6c 17bf 78e9 0abf 7fd0 88bd
00000340: c82d 70be ecc2 cc3d 91ec 0f3f ef6a ea3d
00000350: 15be 8dbe 9c99 a63c cb8b 80be 61a6 723e
00000360: cb71 be3d 3f10 fa3e 07b9 15be b24e ecbd
00000370: 4e47 213e 7c51 423e 3e8c d8bd 0380 3b3d
00000380: ad35 96bd 6452 3a3f 9f76 4b3d 9004 a83e
00000390: 9504 ce3e 613f 2f3d 3c22 64be 7438 c23e
000003a0: 2096 67bd c089 063f 0c2a 933e 3b94 70be
000003b0: 11b6 523f f751 1ebf 0dbb e7be abd4 be3d
000003c0: a443 2ebf 835e 203d ff29 5dbd a320 38bd
000003d0: 3777 553e cb59 dabe bdba 8fbe b214 b03d
000003e0: bae9 163c 0543 b4be 1cc7 e13d 5afc da3c
000003f0: ab24 87be 7f07 77be 1708 46be 581d d6bc
0.21632914 0.13888507 0.3184287 -0.18429391 -0.13576567 -0.04123129 0.29844528 0.07891706
0.117637984 -0.044882216 0.12791526 0.31766948 0.05127003 0.17016849 -0.35456458 -0.37819225
0.30086163 0.10819936 0.21243262 0.8733497 -0.35255453 0.0392405 -0.39355955 -0.31014037
-0.300838 0.11091111 0.19248842 0.21914673 0.27433228 0.06685639 0.23946205 -0.2738567
0.21685109 0.44847372 -0.34970158 0.009532842 -0.362097 0.563283 0.08629775 -0.25540185
0.3307903 -0.04017428 0.40578595 0.47348344 -0.2966707 -0.028543314 -0.23451304 -0.02031958
0.37862656 0.15774158 0.08560846 -0.083846785 0.31094232 0.5100139 -0.37565058 0.3349661
0.00993705 0.011837053 0.2202386 -0.5277786 -0.76794124 -0.28864387 0.18169892 0.22008134
0.49281242 -0.014373392 0.13867097 0.11641285 0.009350487 0.0681622 -0.1645354 0.38905787
0.18413846 0.10499058 -0.30867112 0.15801437 0.7455428 0.19819415 -0.26905492 0.101205826
-0.4069818 -0.07236673 0.3665651 0.6074711 0.099653125 -0.7946045 -0.2250913 -0.080432005
-0.16488631 0.3291568 0.52479357 0.32583928 -0.024353342 -0.8107564 0.19305493 -0.19753218
0.45504293 0.020455213 0.19140501 0.22928122 0.33766708 -0.0577924 -0.4215543 -1.0812452
-0.38678542 -0.22574252 -0.08789097 0.061710726 -0.64044535 -0.27940676 0.110071935 -0.007397094
0.1721931 -0.1798305 0.5984655 -0.34280047 0.11654629 -0.053243525 0.32614234 -0.02759294
-0.07947008 -0.01699661 0.29129562 -0.27691898 -0.23119235 0.22982202 0.045351323 0.048878793
0.30249855 0.49254078 0.5892442 -0.26226592 -0.6293108 -0.21738619 -0.09277973 -0.6778524
0.19058494 -0.3117468 0.2577611 -0.42738223 0.023335043 0.19872683 0.40339604 0.11289405
-0.45895624 -0.26064155 -0.13933592 0.7464054 0.31769305 0.16828568 0.487562 0.029699285
-0.12963766 -0.45793658 -0.093321554 -0.6315315 -0.120479874 -0.057515606 0.21062694 -0.41157883
-0.19922145 -0.43155456 0.02567914 0.1823867 0.099554665 -0.022880299 0.5936025 0.52751476
0.10451736 -0.40201578 0.04093412 0.046217505 -0.24120948 -0.32610196 -0.044068612 -0.5271064
-0.4220428 0.05231943 0.029771067 -0.014952495 0.2773231 -0.012705828 0.033653058 0.21396768
-0.09068644 0.4027649 -0.33765274 -0.38692424 0.37607962 -0.30547014 -0.14476307 0.29522818
-0.14414275 0.16612011 0.018970385 -0.6727617 -0.0040537906 0.016680865 -0.46015507 -0.26825994
-0.26666352 0.570306 0.3643381 0.024701852 -0.109649 -0.59150386 -0.54262495 -0.066803925
-0.23454964 0.09998116 0.56220347 0.11446177 -0.27684084 0.020336919 -0.25106654 0.23696281
0.09299048 0.4884052 -0.14621364 -0.115384474 0.15749857 0.18976396 -0.10573624 0.04577638
-0.073344566 0.7278197 0.049673673 0.3281598 0.4023787 0.042785052 -0.22278684 0.37933695
-0.056539655 0.5255394 0.28743017 -0.23494045 0.8230906 -0.6184382 -0.45259896 0.09317907
-0.6807196 0.039152633 -0.05399513 -0.044953 0.20846258 -0.42646632 -0.28072158 0.08597697
0.009210998 -0.35207382 0.11024305 0.026731659 -0.26395163 -0.24123953 -0.19339024 -0.026137039

lstm.weight_hh_l0 f4 [512, 128]
00000000: e066 f43d 9f43 1fbe 1148 1abe 5d83 3f3e
00000010: ce9d 8f3e 0134 b1be 2ae2 8bbe 1b1a 283d
00000020: 3662 873e 0943 9c3e d80e 77be e891 a43d
00000030: 9e2c a13e 21a8 afbd 9fb9 47bc 343a 813d
00000040: f9ce 93be 2cf2 2e3e 1bdf d03c a215 9b3d
00000050: 9d94 793d 512f c83e 50e4 f53d 4718 04bd
00000060: e252 ca3c a3bc b73a 11ea 3d3e 8dab 11be
00000070: 10e0 e33c 9128 99be 5d50 8e3e 6f4e 06be
00000080: bf08 9cbe b6cf d13e 487a cdbd 229c 83be
00000090: fb0e a8be 1444 3dbe a569 32be cd21 74bb
000000a0: 9ba4 6fbe 5a07 57be a822 49be 12bd 01be
000000b0: c8ec 393e 0b0e 133e a88b 3d3e 37ec 83bd
000000c0: 79f4 1abb 8524 d53d 34b1 42bd 4234 9cbd
000000d0: 986c dc3d caeb 9d3d edf4 10bf f056 803d
000000e0: f356 033d 4dac 51be ce59 dfbb 34c9 ffbd
000000f0: fd9d 073e 6661 acbc 670b 3d3e f541 cc3b
00000100: 55b6 613e c566 d83c 719a 943e af76 afbc
00000110: bcb5 45be 392b fdbd 2b02 623d ab16 b5bd
00000120: 76e1 8dbe fd41 d0bd bfcc 9e3d 222f c53d
00000130: 6134 243d 9e0a 96be 7a90 6e3d 8c86 1d3e
00000140: 6cfc d23e 84b1 02be 3838 ef3c 2ea8 15bf
00000150: b058 b13e c149 34bd 0d61 d13e 892f 0dbe
00000160: 1da4 16be e813 c4be 8e81 19bd c23f 08bf
00000170: 119e 66bd 1274 dfbe 7ec7 35be 0071 833e
00000180: 721b 84be 594d deba 1906 5f3d cd45 553e
00000190: cb7e 97be 8973 90bd 0ba9 5d3e 36fc 2ebe
000001a0: 37a9 c1be 6773 8d3d 9a00 573e 4802 b3be
000001b0: 0304 69bc 0633 0e3e e1e6 8f3c 82a2 abbe
000001c0: 3f07 0c3e 22b3 1cbe e6e8 e5bd 7d78 7e3e
000001d0: 234c 4dbe 66e8 3e3e a322 fcbd 2e69 c0bd
000001e0: 8646 fdbc 3f94 203d 2675 183e 0d77 be3d
000001f0: 5bdb 0a3d cc90 a5be 7763 69be 6012 973d
00000200: 2e3a 6dbe 27bb 923e 562d 9c3e 8e07 f73c
00000210: 900a c53e ba13 4f3e 8dd3 00be 5339 4f3e
00000220: f3f4 863e 32b0 bbbe 87df 4a3d e455 433e
00000230: d8ea 93bc 41fb 5bbd c93f 86bd 7226 73bd
00000240: 6e63 5d3d 6b9d 3fbc 32c2 0f3e b20d afbd
00000250: aa65 8fbe 83f6 713e 455e 14be d9b1 54be
00000260: 6186 a5be e425 37be 3a74 a73e d8a5 6d3e
00000270: 59fb 7fbe a2ec 003e 8fdc 0abe baf7 b13c
00000280: c84b 413e 6a62 8f3e dc06 78bd 8b58 843e
00000290: 2c6d 0abe f230 ea3d 050a 4e3e f695 593d
000002a0: d2d7 abba ee26 203e faf7 d4bd 2e4e 17be
000002b0: e4f5 c8be 8f23 823e 43eb b8be ae82 87be
000002c0: 8f38 89bd 2f92 963c b87c e33c 5216 bcbd
000002d0: 2ad7 3d3e b8e7 f0bd 24e9 c4be 5897 b63e
000002e0: 613f 3b3c 9ec0 893e aa6b f2bc 2311 fe3d
000002f0: 7df1 d4bd 6dc2 8bbe 54a6 f1be 17f2 4dbe
00000300: e60e 883e 2ae1 8c3d e7f8 983e 8de4 b2bd
00000310: 89b2 13be ec8f 15be d555 b53e 9d7f a1be
00000320: 084c ab3e 6475 0b3a 27a3 a13d 37be f6bd
00000330: 8278 c23e c732 c9bd bef9 b43d 3e6e 653e
00000340: 6558 35be 6c7b a43d 65a5 18be 7c5e 13be
00000350: 46e5 193e f90e 09be 36a9 bb3c 2b9f c83e
00000360: 904c bdbd 954e b4be 50f1 b13e fc44 7e3e
00000370: 7d94 7ebc f6f7 b1bc 9c99 3d3c 9597 bfbe
00000380: f1c2 3d3e 0193 4c3d e36d 3c3e ee0f cf3c
00000390: 6a97 0dbd 6877 1ebd 5a53 7fbe 104d adbe
000003a0: 6965 9fbe 57d8 c2bd b7f3 9e3d 11db e03e
000003b0: 7994 c4bd 24ca ca3e a07d bdbd 4d33 89bc
000003c0: 858a 94bc c95e b33d c2af 1fbe da4d 893d
000003d0: a477 693e da3f a5bd 88a9 873e 3dea 86bc
000003e0: c873 8fbe 8d76 5e3e e3cc 203e b846 7b3e
000003f0: 6293 6d3e 2cb6 ee3d 0a63 703d cc41 9fbd
0.11933684 -0.15553139 -0.15066554 0.18702455 0.28050083 -0.34609988 -0.27320987 0.04104052
0.26442116 0.30519894 -0.24126756 0.08035642 0.31479353 -0.0857699 -0.012190252 0.063099295
-0.28868845 0.17084569 0.02549701 0.075724855 0.060932744 0.390986 0.12006438 -0.032249715
0.024697725 0.001401801 0.1854632 -0.14225598 0.027816802 -0.29913762 0.27795687 -0.13115858
-0.30475423 0.40978783 -0.10033089 -0.25705057 -0.3282393 -0.18483001 -0.17423113 -0.0037251592
-0.23402636 -0.20998898 -0.19642127 -0.12669781 0.18156731 0.14360826 0.18510306 -0.06441539
-0.0023644252 0.10407356 -0.047532275 -0.07627155 0.107629 0.07710989 -0.5662373 0.06266582
0.032065343 -0.20475884 -0.0068161255 -0.12489548 0.13243861 -0.021042537 0.18461381 0.0062334486
0.2204221 0.026416192 0.2902408 -0.021418897 -0.19307607 -0.1236176 0.05517785 -0.08842214
-0.27711076 -0.10168836 0.07753896 0.096281305 0.040089015 -0.29304975 0.058243252 0.15383357
0.41208208 -0.1276303 0.029201612 -0.58459747 0.34637976 -0.04401565 0.40894356 -0.13787664
-0.14711042 -0.38296437 -0.03747707 -0.53222287 -0.056303088 -0.43643242 -0.17751881 0.2567215
-0.2580219 -0.0016960307 0.054449175 0.20827408 -0.29588923 -0.070532866 0.21646516 -0.17088398
-0.37824413 0.06906777 0.20996323 -0.34962678 -0.014222148 0.13886651 0.017566146 -0.3352242
0.13674639 -0.15302709 -0.112260625 0.2485065 -0.20048575 0.1864334 -0.12311294 -0.093950614
-0.030917417 0.03920388 0.14888439 0.09300051 0.0339006 -0.32337034 -0.22791849 0.07376552
-0.23166725 0.2865841 0.3050334 0.03015497 0.3848462 0.20222369 -0.125807 0.20236711
0.26358756 -0.36657864 0.04952958 0.19075733 -0.018056318 -0.05370641 -0.06555135 -0.059362836
0.0540499 -0.011695246 0.14038923 -0.08547534 -0.2800725 0.23629193 -0.14489086 -0.20770968
-0.32329085 -0.17885548 0.3270586 0.23207796 -0.24998225 0.12590268 -0.13560699 0.02172457
0.18876565 0.2800477 -0.060553417 0.25848803 -0.13518208 0.11435117 0.2012101 0.05312153
-0.0013110584 0.1563985 -0.1039886 -0.14775917 -0.392501 0.25417754 -0.3611699 -0.26466888
-0.06700241 0.018380253 0.027769431 -0.09183945 0.1853911 -0.11762947 -0.38459122 0.3566234
0.011428685 0.26904768 -0.029592354 0.12405612 -0.10397623 -0.27296773 -0.4719721 -0.20111881
0.26573867 0.06878884 0.29877397 -0.08734999 -0.14423575 -0.14605683 0.35417047 -0.31542674
0.33456445 0.0005319922 0.07892447 -0.12047999 0.37982565 -0.09824138 0.08836697 0.22405335
-0.17709501 0.08031353 -0.14906843 -0.14391512 0.15028867 -0.13384618 0.022907835 0.39183936
-0.09243119 -0.35216203 0.3475442 0.24831003 -0.015538332 -0.021724682 0.011572268 -0.37420335
0.18531395 0.04994488 0.18401293 0.02527615 -0.034568228 -0.038688093 -0.2493414 -0.33847857
-0.31132057 -0.0951392 0.07761329 0.43917134 -0.095986314 0.39607346 -0.09252477 -0.016748095
-0.018132458 0.08758313 -0.1559439 0.06704302 0.22799546 -0.08068819 0.2649653 -0.016469115
-0.28018022 0.21724911 0.15703158 0.24538696 0.23200753 0.1165584 0.0586882 -0.07776222

lstm.bias_ih_l0 f4 [512]
00000000: 0cc5 a53e 989b 3f3f 7d7d 063e d616 b93d
00000010: 7cd7 20be a7af 273e 0e07 213e 93dc 8c3e
00000020: d0fa 4abb d820 393c 00a0 5a3e 5ef1 943e
00000030: 3025 cd3e 86ae 113d a38c 903e a0f8 883e
00000040: f191 823f 6a0f 453d 2cd3 453d 30bb 123e
00000050: d6c4 3a3e a6d6 953d d342 e53c 2c53 af3e
00000060: 2e58 9b3e 5031 573f d732 c9bd 4f8d 0e3d
00000070: 8ff6 fe3d 1a78 473e 5a45 d4bd 87ba d53d
00000080: 941f 233f 7307 323d 62f8 de3e 2f38 743e
00000090: d649 bc3e f31e 833e 6e0c e73e 90ae cc3e
000000a0: 6ee3 f63d 7fe3 8b3d 1a13 863e 1b92 173e
000000b0: 7bd7 173d 4241 913e 7300 2fbd d672 c43e
000000c0: 8815 243f ec77 803e e944 df3e 1a90 343e
000000d0: bc9d 3f3f e097 1a3f f1fd ca3d 4785 363e
000000e0: 1ea8 df3e 37a2 183e 7996 453e 9573 0a3e
000000f0: ce0d fc3e 033e 993e 6121 9a3e 632f 4a3f
00000100: 2e0e 103e 5c44 503e 4c27 be3e 3035 d83d
00000110: feca 333e 87a3 9c3e 79da 883e d1a4 b83e
00000120: 2515 c83e 81a9 4c3f 11a3 523f 1832 813e
00000130: 2114 cb3e 0f23 003f 8073 163f cae4 513f
00000140: bc0e 553e 9afd aa3d 0b32 ee3d 6dfd a13e
00000150: 8488 3e3e 54db a73e 493d a73e 9e86 af3d
00000160: ffa9 a83e 35e2 6d3d 4a3c bc3e b837 1f3e
00000170: d018 b1bd 682f d6bd fae8 b43e 565e 6b3e
00000180: 5ef1 be3e 5bd0 393e e155 183e ebfc bd3e
00000190: 67d3 dc3e 15a4 e53c ce17 353e 49ff ae3d
000001a0: c94c 1d3f 9b28 80bd 0447 adbc d8de c93e
000001b0: 55d7 15bc ccfb 92bd 3b06 613e fb74 6dbe
000001c0: d25b 083e d922 933e 5e15 ee3e f094 223e
000001d0: 1894 b23e a331 1c3e 08bd b63e d502 7d3e
000001e0: 760c 0e3e c5c7 f43d 3aeb ae3d 8e9e 903e
000001f0: d623 c13d 6439 8c3e 0dce 9a3e 2e01 513e
00000200: 7826 86be 4253 7a3e 0407 0bbf 97bf b9bd
00000210: 45aa 8ebe 1875 0ebe fcfa 973c 1430 96be
00000220: e503 7cbe a270 d3bd 6464 cdbd fcbf 37be
00000230: 1664 393c 29ea 24bd aacc 5e3e 01bf 87bd
00000240: be3a 133e 2004 45bc fffc 1abe 37da 133e
00000250: 5938 07be 2169 8dbd 7a94 a7bd 02cc 76be
00000260: 7d7b f1be 8679 2d3e 0960 10be fa43 1bbe
00000270: 1d24 993c 1bcb 5ebe beb9 133e 835e 47bd
00000280: 11bc 6dbe 67c8 943d 7bdf 613e 56a2 04be
00000290: 47cd 6abe efdb a2be fdcb 58be 90eb b2be
000002a0: bcb7 adbe 7f78 743c 1068 59be 2a58 343d
000002b0: 7932 07be ca5a b8be 5b4c 3cbe 3545 a5be
000002c0: 8c61 de3d 19e1 aebd 6948 cb3d 265f 80be
000002d0: 8e4f 763e bb2b 4c3e 9be9 593e f953 c9be
000002e0: 8b87 8abe 24f0 acbe eccf 88be d09b 17be
000002f0: 86ad 4b3e dfa4 8bbe 8d65 d63e d258 963d
00000300: 609c 26be f6df f93d 59fa 863e 4a2c 13be
00000310: 6976 01bc 7e80 83bd ee7b 7cbe c07f 5dbe
00000320: a7ce 5abe b4aa 9b3d f700 853d aaa0 3abe
00000330: b5f8 2fbe e3dc 94be e22d f0be af39 9b3e
00000340: ed57 2d3e a2f3 2cbe 42bf 863d 58aa 44be
00000350: bb94 78bd c861 c63e 76b0 8bbe 7b55 f5bd
00000360: 4e30 80be e7fb 363d f9c5 613d 5699 9abe
00000370: 1b3d 943d f3a6 943e 141a 94be 49e4 8fbe
00000380: e14d 51be 7800 08bf 2666 21be 105c 023f
00000390: c247 72be 5348 38be 4435 3cbd 66a2 a9be
000003a0: b484 a03c 1cec 12bf 7fb4 d6bd 4d2b 5bbd
000003b0: 4251 b83d 4b47 30be a5ab 81bd 9c85 8dbe
000003c0: c17c debd 6b9c 56bd 9276 603e fcd9 0dbe
000003d0: f4e5 55be af18 13bd c173 0cbf e44a adbe
000003e0: a5b5 d1be c3ee afbe f75f b4bd 1d96 09be
000003f0: 99fb 8ebe bdb3 8cbe f8fa acbc b791 8abe
0.32376897 0.7484679 0.13133807 0.09037559 -0.15707201 0.163756 0.15725347 0.27512035
-0.003097225 0.0112993345 0.21350098 0.290904 0.40067434 0.03556683 0.28232297 0.26752186
1.0200788 0.048110403 0.048297092 0.14329219 0.1823915 0.073163316 0.027985966 0.34243143
0.30340713 0.8405962 -0.0982415 0.03480273 0.12449371 0.19479409 -0.1036479 0.10435968
0.6372006 0.043464135 0.43548876 0.23849557 0.36775082 0.2560955 0.4512667 0.3997693
0.120550975 0.06830501 0.26186448 0.14801829 0.037070733 0.283701 -0.042725038 0.38368863
0.64095354 0.25091493 0.43607262 0.17633095 0.7485006 0.6038799 0.09911717 0.17824279
0.4368295 0.1490563 0.19295682 0.13520654 0.49229282 0.29930124 0.3010359 0.78978556
0.14067909 0.20338577 0.37139356 0.1055702 0.17557904 0.3059351 0.2672918 0.36063245
0.39078632 0.7994614 0.8228007 0.2523353 0.39663795 0.50053495 0.5876999 0.8198973
0.20806402 0.08349152 0.11630639 0.3163866 0.18606764 0.32784522 0.32663944 0.08570598
0.32942197 0.058077056 0.36764747 0.15548599 -0.08647311 -0.10458261 0.35333997 0.22985205
0.37293524 0.18145888 0.1487651 0.37107024 0.43130037 0.028032342 0.17684862 0.085447855
0.6144529 -0.06257745 -0.021152027 0.3942783 -0.009145577 -0.07176933 0.21975033 -0.23189156
0.13316277 0.28737524 0.46500677 0.15877128 0.34878612 0.1525331 0.35691094 0.24708112
0.13871941 0.119521655 0.0854096 0.28245968 0.09430663 0.27387536 0.3023533 0.20410606
-0.26201224 0.24445823 -0.5430758 -0.09069746 -0.2786428 -0.13911855 0.018552296 -0.29333556
-0.2461086 -0.103242174 -0.100289136 -0.1794433 0.011315366 -0.040262375 0.2175776 -0.06628228
0.14377877 -0.012024909 -0.15135573 0.14438711 -0.13205089 -0.069048174 -0.081826165 -0.2410126
-0.47164527 0.16940889 -0.14099135 -0.1516265 0.018693978 -0.21757166 0.14426324 -0.048674118
-0.23216273 0.07264786 0.22057907 -0.12952551 -0.2292987 -0.3180842 -0.21171565 -0.34945345
-0.3392924 0.014921307 -0.21231103 0.044029392 -0.13202848 -0.36006767 -0.18388502 -0.32279363
0.10858449 -0.08539028 0.099259205 -0.25072592 0.24053785 0.19938557 0.2128052 -0.3932188
-0.27056536 -0.33776963 -0.26721132 -0.14805532 0.19890413 -0.27274224 0.41874352 0.0734116
-0.1627059 0.1220092 0.26362875 -0.14372364 -0.007901766 -0.06420992 -0.2465665 -0.21630764
-0.21367894 0.076009184 0.06494325 -0.18225351 -0.17184718 -0.29074773 -0.46910006 0.30317447
0.16928072 -0.16889814 0.06579448 -0.19205606 -0.060688715 0.38746476 -0.27283067 -0.11979195
-0.25036854 0.044673827 0.055120442 -0.3019511 0.072382174 0.29033622 -0.28926146 -0.28103855
-0.20439865 -0.53125715 -0.15761623 0.50921726 -0.23660186 -0.1799634 -0.045949236 -0.33131713
0.019594528 -0.57391524 -0.10483646 -0.05350809 0.08999874 -0.17214696 -0.06331567 -0.27640998
-0.10863639 -0.052395266 0.21920231 -0.13852686 -0.20888501 -0.035912212 -0.54864126 -0.338462
-0.40958896 -0.34361848 -0.08807366 -0.1343617 -0.2792633 -0.2748088 -0.021115765 -0.27064297

lstm.bias_hh_l0 f4 [512]
00000000: df28 853e d48b 453f c563 463c c9e6 b93d
00000010: 4555 65be 0134 1d3e 5191 373e 89dc 873e
00000020: 14ab e0bd cbcc 393d d3ce 3b3e cf13 9b3e
00000030: bd34 c33e a166 8a3d 3b63 303e f90b 993e
00000040: be68 913f 241a 933d 6a58 113e 0788 0e3e
00000050: 5e29 443e 08ca 7c3d c953 b5bd f5ff 9c3e
00000060: 401e 993e 8b45 5c3f d4e8 113d f90e 063e
00000070: c012 193e 0047 463e f7be bc3c db5b 833d
00000080: 0950 2f3f 6a4a 3e3e ea0f 983e d146 8d3e
00000090: 340c 983e 0d9a a73e 020f bb3e 1b02 e03e
000000a0: 3ea2 033d 1e9c 003e 5bef 6c3e 488c 783e
000000b0: 8716 50bc f1b3 5f3e 446e 0cbd 0dd4 a73e
000000c0: 6d47 4d3f 80d9 c33e 9db9 de3e 2c67 3e3e
000000d0: aab2 1c3f ae15 273f 8e9d 1c3e 1fbd 543e
000000e0: 2f32 d83e 24eb 0b3e 3e79 503e fa02 1a3e
000000f0: 88f3 dd3e 4eaf a13e 3b63 8f3e d093 373f
00000100: 7a2f ca3d 727b 763e fc2e e33e 7bca 823e
00000110: c420 503e e162 9e3e 4a15 b53e 2727 b93e
00000120: 28d5 ab3e ba36 5a3f 01b3 533f 0294 363e
00000130: 0919 c43e bab5 c93e d3eb f93e daa2 503f
00000140: b872 183e 26ef 3c3d 6b2e 273e 593e cb3e
00000150: 9276 543e 90f9 c13e b37e d03e 3c31 56bc
00000160: b2a6 463e 1aae e53d 3271 8b3e 18cf dd3d
00000170: 4204 a8bd 76d4 febd fd3f a93e bb37 1c3e
00000180: 89cb bf3e 553b 213e f57c 323e 897b c23e
00000190: 14d4 ec3e 0ed9 be3d 1a7b 9f3e c6d3 83bd
000001a0: 3f68 303f 60ab 5b3d c095 f4bd ca18 df3e
000001b0: e91a 053d 527b 31bd 524c 9e3e f679 8dbe
000001c0: 73da 0f3d 1310 823e ec22 d03e bf73 683e
000001d0: d425 9b3e b183 383e 101f c43e d4a9 0d3e
000001e0: b78f 653e 28fe 163e 10ce 913d a062 9f3e
000001f0: 53f8 9c3d f106 813e 1665 7c3e e29f 0b3e
00000200: 78a2 2abe f5b3 093e cad8 f3be 1d7a 2abe
00000210: abe3 72be 6b78 1bbe bf48 1fbd c328 78be
00000220: 9c76 00be 2257 24be f88c 8bbc 385f 06be
00000230: 8d9a 34bd d7c2 ebbd 025c 683e 1b35 2dbd
00000240: b1da 053e 4027 903c 441b 31be 2e1d 953e
00000250: e45b 52be 0249 a1bd 3069 08bd 0ae2 bcbe
00000260: d3cf a7be 93df a53d aac9 2abe b75c 34be
00000270: 9223 c23d bff8 7cbe 6649 cd3c d3e5 06bc
00000280: 71e1 b8be b933 9c3d e396 e03d 66a7 e8bd
00000290: 4ccd e4bd 8fdb 98be d3ab 63be b9a8 97be
000002a0: b52e 95be ec1b f7bd 4446 83be dff8 d6bd
000002b0: 3a4f 64be 32d2 71be e300 2cbe 83a2 a4be
000002c0: 5497 083e 1166 42be 6059 203e f0a8 30be
000002d0: d49a 4b3e a077 173e c6f1 e63d e283 e3be
000002e0: 8b84 7ebe d61d babe 33a7 81be f20b 0dbd
000002f0: bafd 273e b752 58be fd3d d03e 9df6 dd3d
00000300: 91e3 12be 4ed3 463e ea60 653e 6706 e9bd
00000310: 7915 79bd e4ba 69bd e1d1 5cbe aeaf 3cbe
00000320: cd8d d0bd 51fe 193e e8e6 943d 6d2e 84bd
00000330: 72f1 40bd 4bf4 a0be 4ee0 d8be f533 963e
00000340: 2476 1b3e 3b6c 01be f2a8 24bd 05e3 24be
00000350: 7a9e 1c3d e76f 883e 2983 8cbe d43d 1bbe
00000360: 3115 23be 81e0 8cbc 0755 263e 41d7 a4be
00000370: a9e7 f43c 274c 3c3e 6c48 bebe 2764 82be
00000380: 669d 2bbe 8078 ecbe 9946 39be 30af 053f
00000390: d808 98be 1528 5abe 9d06 583d e89c c7be
000003a0: 6216 3bbd 8223 f2be 1cf6 4cbd 3164 fbbd
000003b0: 782d e6bc a5fa 9bbd db78 05be 7a4a a6be
000003c0: 0751 6cbd df72 b9bd f55b 8b3e 2677 59bd
000003d0: 7be6 f5bd fa2a 0e3d 7acb 27bf b04a c2be
000003e0: f486 a8be c8d5 8fbe cde8 4bbd 61f3 d1bd
000003f0: 7baa 7abe 555d 67be e4b1 febd 8801 aabe
0.26007745 0.77166486 0.012108748 0.09077222 -0.22395809 0.15351869 0.17926528 0.26535442
-0.109701306 0.04536132 0.18340616 0.3028855 0.38126174 0.06757856 0.17225353 0.29891947
1.136009 0.0718272 0.14193884 0.13919078 0.19156405 0.06171611 -0.088538714 0.3066403
0.2990589 0.86043614 0.035622433 0.13091649 0.14948559 0.19363022 0.023040278 0.064140044
0.684815 0.18583074 0.2969964 0.2759309 0.2969681 0.3273472 0.36534888 0.43751606
0.032137148 0.12559554 0.23138182 0.24272263 -0.012700683 0.21845986 -0.034284845 0.3277897
0.8018711 0.38251877 0.43500987 0.18594044 0.6121012 0.65267456 0.15294477 0.20775269
0.42225787 0.13663918 0.2035875 0.15040198 0.43349862 0.3157906 0.28005394 0.7170992
0.09872337 0.24070528 0.44371784 0.25545105 0.20324999 0.30934814 0.35367805 0.36162683
0.33561063 0.85239756 0.82695013 0.17829898 0.3830035 0.3939646 0.48812732 0.8149849
0.14887512 0.046126507 0.16326301 0.39696005 0.20748356 0.37885714 0.40721664 -0.013073262
0.19399527 0.11214848 0.272348 0.108305156 -0.08203937 -0.124428675 0.33056632 0.15255634
0.37459973 0.1574529 0.1743048 0.37984875 0.46255553 0.09318744 0.31148607 -0.06436877
0.68909067 0.053630233 -0.11942625 0.435736 0.032496367 -0.043330498 0.30917603 -0.2763211
0.03512044 0.2540289 0.40651643 0.22700404 0.30302298 0.18018986 0.3830495 0.13834316
0.22418104 0.1474539 0.071193814 0.31129932 0.076645516 0.25200608 0.24647936 0.13635209
-0.1666354 0.13447554 -0.47626334 -0.16648145 -0.23719661 -0.15182655 -0.038887735 -0.242343
-0.12545246 -0.16048864 -0.017034993 -0.1312226 -0.044092704 -0.11511772 0.22691348 -0.042286973
0.13071705 0.01759684 -0.17295557 0.29123825 -0.20542866 -0.07875253 -0.03330344 -0.36891204
-0.32775745 0.08099284 -0.16678491 -0.17613493 0.09479441 -0.24704264 0.025059413 -0.008233505
-0.36109498 0.07627053 0.10966279 -0.11360054 -0.1117197 -0.2985501 -0.22233514 -0.29620913
-0.29137197 -0.120658726 -0.25639546 -0.10496687 -0.22295848 -0.2361534 -0.16797213 -0.32155237
0.13338977 -0.18984248 0.15659094 -0.17251945 0.19883281 0.14791727 0.112765834 -0.44436556
-0.24855249 -0.36350888 -0.25322875 -0.03443522 0.16405383 -0.21125303 0.40672293 0.108380534
-0.14344622 0.19416544 0.22400251 -0.11378174 -0.060811494 -0.057063 -0.21564437 -0.18426391
-0.10183296 0.1503842 0.07270604 -0.064541675 -0.04710526 -0.3143638 -0.4235863 0.29336515
0.15181786 -0.12638943 -0.04020018 -0.16102226 0.038237073 0.26647875 -0.27443817 -0.15160304
-0.15926053 -0.017196896 0.16243373 -0.32195476 0.02989562 0.18388425 -0.37164629 -0.25467035
-0.16759261 -0.46185684 -0.18093337 0.5222044 -0.29694247 -0.21304353 0.052740682 -0.38986897
-0.045675643 -0.47292715 -0.050039396 -0.12274969 -0.028097853 -0.07616166 -0.13034384 -0.32478696
-0.05769446 -0.09055113 0.27218595 -0.053092144 -0.12006851 0.034708954 -0.65544856 -0.37947607
-0.3291546 -0.2809279 -0.049782563 -0.10251499 -0.24479096 -0.22594197 -0.12436274 -0.33204293

linear.weight f4 [12, 128]
00000000: db3e b0bf 94e5 a3bd f5f0 853f bc50 2e3f
00000010: 1ecb 943d ec79 46be 2168 743f a0af 133f
00000020: a621 083f 74d8 37bf ddb1 ebbe 2d25 26bf
00000030: 5312 723f 2059 d03e 86fe d6bc 159a 55bf
00000040: ab1c e23e d08d 94bf 2342 8fbe 4446 cabf
00000050: 12fa 163f 31be 46bf 1afb 803f ee37 25bf
00000060: c45c 69bf c1a6 723f 2f5e b2bd 5f45 80bf
00000070: fd99 1fbf 4e99 7c3f cd21 e4bf 8c47 82bc
00000080: d15c 453f 4013 c33f fd94 11bc 1871 3dbf
00000090: dda4 02bf d72c 6abd bfca 80bf 0eff c0be
000000a0: c7fa 1ebf ef14 78bf 53a7 913f 5ab9 19be
000000b0: 5f7d 47bf bb7d 903f 0c74 6c3f 3335 53bf
000000c0: 9c68 b53f d741 343f 985b 513f e265 993f
000000d0: 2f3d c6be cb40 b6bc ea44 503f 7f9e 433f
000000e0: 9f7e 543f 4e0b ffbe 82c3 54bf 8c15 0f3f
000000f0: f1cb b9bf 26ce 613f 6c82 843f 83c1 9f3e
00000100: 6c8f 013f 4b07 143f dcdc 3abf ca19 70bf
00000110: 406c 0b40 5c04 02c0 d737 1d3f 2459 a3be
00000120: 3be9 cc3e 32a4 f2bf 1c00 b7bd 105b fa3e
00000130: 8542 ff3e f54a 283f 3ee2 8d3f cea1 79be
00000140: 9d26 0b3f 842c cf3f a2ab 413e 5ebb 36be
00000150: 82be 063f 5c94 0540 0bf1 503f d46e 8dbf
00000160: ab5b febe f381 01be 48a5 843e 6e44 ee3b
00000170: 0a97 5c3f 7931 37be 8d50 2fbf ff45 853e
00000180: 0c02 cf3e 105d 09bc f9dd df3e b5fa 2c40
00000190: c2a5 73bf e451 75bf 6e48 e63f dd1f 3abe
000001a0: f4ef 88be 6195 af3e db0d 02bf 5089 153f
000001b0: b5d8 803f f79a ba3e bdd0 2dbe 58b4 123f
000001c0: 65e7 25bf c059 e3be 4d18 08bf 7f7a e13e
000001d0: 4040 f3bf 362f ac3f 7d2b 903f 5cee 1cbf
000001e0: 162a 07bf 0711 5cbd 1f59 a2be 4643 00bf
000001f0: 98bc bc3f b4d6 0b3f a764 d33f 9719 983f
00000200: 5990 583f c5aa 363e b62e 3ebf efa6 47bf
00000210: 4471 263f 51de 23bf b2f8 003f 00c2 5bbf
00000220: cbd7 a0be 085b 6f3e 2a82 0bbf c309 4c3f
00000230: 4528 193f 82fa 58bf 49ce 863e f458 edbe
00000240: 9104 b6be c60b 383e ffad bf3d 6d84 3c3e
00000250: 02f3 973e 2996 bc3e feac 0e3f 643b 35be
00000260: 25de 013f f334 28bf 7558 c53d a19f 00bd
00000270: 4743 6cbe 0cdd e0bd 541e 3cbe 3164 053f
00000280: 1e69 75be da98 0a3f b98a 993f 6e44 afbe
00000290: 9550 c23e 6e44 523e 7ab3 2f3f 1576 55be
000002a0: 7462 843f 6d55 2dbf f46a a53e cf30 62bf
000002b0: 83e1 3e3f 99b9 c83e f4fe 5cbf ca78 9a3f
000002c0: 365b 07bf 339f 90bf 4fcc 97be a3c0 533f
000002d0: 763f b5be 584b 603f f9e3 3dbf 6022 55bf
000002e0: 36eb a63d 4592 b1bd 7704 1e3f 3f82 d53e
000002f0: 8322 093f 0a17 803f 1b7a 02bf 1b2d 4fbf
00000300: 74b5 a53e e5eb 9fbe 578c 283f 8a92 4fbf
00000310: b6a7 9d3e de90 bf3e 7faa 933d a5f8 63be
00000320: 4f6d 3cbf 7bfd 483f 65a4 49be 5db8 c8be
00000330: d78d 553f 8190 a63f dc3b 50bd 7641 453e
00000340: 4ba4 20bf a6a1 5c3e c83c 2d3f 1d74 14bf
00000350: 7fb8 04bf 05f7 2fbe 41d4 093f e67d 2f3f
00000360: ff6a 583f b8d5 a83d feba 64bc 6bb6 25bf
00000370: 1eeb f2bd 405f e5be eef2 7dbf 3b1d 5f3f
00000380: 647e 063f c9bd 4fbf aa62 03bf 3385 6bbf
00000390: 7146 1bbd b446 37bf b6ee d4bb 2b52 adbe
000003a0: 5a0f 3ebb afbb 583f 93f7 0c3e e281 85be
000003b0: 2fc2 823e 26e2 26bf 04ad a73e 4395 59bf
000003c0: 5f72 033f f371 7bbd 3ee8 3bbf fbe9 0cbf
000003d0: 5fca aebe 8a3c 9dbf a9c6 77bf ab2a 79bf
000003e0: 5fb6 973f d4c5 b93e e1c8 f33e 0318 a53e
000003f0: 0fd3 00bf 9d75 febe 3266 12bd 8e8b 893f
-1.3769182 -0.08002773 1.0464159 0.6809194 0.07265304 -0.19382447 0.9547139 0.5768986
0.53176343 -0.71814656 -0.46034136 -0.64900476 0.9455921 0.40692997 -0.026244413 -0.83438236
0.44162497 -1.1605778 -0.27980146 -1.5802693 0.58975327 -0.7763396 1.007663 -0.64538467
-0.91157174 0.94785696 -0.0870937 -1.002117 -0.6234434 0.98671424 -1.7822815 -0.015903257
0.7709475 1.524025 -0.008885619 -0.7400069 -0.5103281 -0.05717167 -1.0061873 -0.3769459
-0.62101406 -0.9690694 1.1379188 -0.15012112 -0.77925676 1.128837 0.92364573 -0.8250305
1.4172549 0.70412964 0.81780386 1.1984217 -0.38718554 -0.022247693 0.81355155 0.7641372
0.8300571 -0.49813312 -0.8311082 0.5589225 -1.4515363 0.8820518 1.0352302 0.31202325
0.5060947 0.5782363 -0.72993255 -0.9378935 2.178482 -2.031516 0.6141333 -0.31903946
0.4002169 -1.8956358 -0.08935568 0.488976 0.49855438 0.65739375 1.1084669 -0.2437813
0.54355794 1.618546 0.18913129 -0.17844912 0.5263444 2.0871801 0.816178 -1.1049447
-0.49679312 -0.12647228 0.2590735 0.007271341 0.8616797 -0.17889966 -0.68482286 0.26029965
0.4043125 -0.008384004 0.4372404 2.702802 -0.951748 -0.9582808 1.7990854 -0.18176217
-0.2674557 0.34293655 -0.5080239 0.5841265 1.0066134 0.36446354 -0.16974159 0.5730643
-0.64806205 -0.4440441 -0.5316208 0.4403877 -1.9003983 1.3451908 1.1263272 -0.6130121
-0.52798593 -0.053727176 -0.3170862 -0.5010265 1.4745054 0.54624486 1.6515092 1.1882809
0.8459526 0.17838581 -0.74290025 -0.77989095 0.6501658 -0.640111 0.5037948 -0.85842896
-0.31414637 0.2337457 -0.5449549 0.79702395 0.5982707 -0.84757245 0.26329258 -0.46356928
-0.3555036 0.17973241 0.09359359 0.18409891 0.29677588 0.36833313 0.55732715 -0.17698437
0.5072959 -0.65705794 0.096360125 -0.031402234 -0.2307254 -0.10979661 -0.18370944 0.52106005
-0.2396588 0.5413948 1.199546 -0.34231895 0.37952104 0.20533916 0.68633235 -0.20845826
1.0342546 -0.67708474 0.3230816 -0.88355726 0.74562854 0.392041 -0.8632653 1.2068112
-0.5287355 -1.1298584 -0.29648063 0.82715815 -0.3539998 0.87614965 -0.74175984 -0.8325558
0.08150332 -0.08670477 0.6172556 0.41700932 0.53568286 1.0007031 -0.5096757 -0.809282
0.32365 -0.3123466 0.6583914 -0.81082976 0.30792016 0.37415212 0.07210254 -0.22262819
-0.7360429 0.7851178 -0.19691618 -0.39203158 0.83419555 1.3012849 -0.050838336 0.19263253
-0.6275069 0.21546039 0.6767087 -0.57989675 -0.5184402 -0.17184074 0.538395 0.6855148
0.84538263 0.082438886 -0.013960598 -0.6473147 -0.11861251 -0.44799232 -0.99198806 0.8715398
0.52536607 -0.81148964 -0.51322424 -0.9200012 -0.037908975 -0.7159226 -0.006498183 -0.33851752
-0.002900085 0.8466138 0.13766317 -0.26075655 0.25538775 -0.65188825 0.32749188 -0.8499338
0.5134639 -0.061387967 -0.7340125 -0.55044526 -0.34138772 -1.22841 -0.96787506 -0.9733073
1.185253 0.36283743 0.47614196 0.32244882 -0.5032205 -0.49699107 -0.035741992 1.0745714

linear.bias f4 [12]
00000000: b054 8ebf cb03 903d 8f1a dfbd ea6e aa3c
00000010: 90a4 6dbf dc78 97be d001 cb3e 1bfa b5be
00000020: 112e 16bf 0c3f c5bd 5508 2a3e b333 b23d
-1.1119595 0.070319735 -0.108937375 0.020804841 -0.9282923 -0.29584396 0.3964982 -0.35542378
-0.5866404 -0.09631166 0.16604741 0.08701267
